models/gg-2023-11-09_16-31.pt (torch, 26176 bytes, 6 tensors)

_layers.0.weight f4 [64, 19]
00000000: badb d2bd f57a 3abe f9fb 093e e368 fdbd
00000010: 867d b8bc 358f c73d d894 fc3d bf00 39be
00000020: c254 343d ea70 e6bd fae2 183d eb2e 3dbe
00000030: 1efb b4bd 5115 4ebe 5523 58bd 4bf3 92bc
00000040: dff6 6a3d 4276 333e 9a6e 2b3e 1271 963d
00000050: 68dd ff3c 1a53 babd 5874 c3bd d5d0 1fbe
00000060: 56e8 883d 2b3b 00be 5e04 01be a4dd 06be
00000070: 2220 efbd 54e9 5f3d 22b1 8dbd d300 0a3e
00000080: 5186 033e c099 3a3b 661f 90bd fa93 17be
00000090: 0a10 95bd 58e1 e4bc 1c73 50be b173 ac3b
000000a0: 8a1d e73d b746 233e e7b5 3c3e 279b 35bd
000000b0: 0567 61bd cd19 4cbd f582 5ebd 00e7 803a
000000c0: 07f4 ec3d 9ff7 fdbc 5bc7 383e 0e9a 13be
000000d0: d354 94bd 7eb6 643e f566 27bd 1cf5 5abd
000000e0: b642 4a3e e3af 313e 103c ba3d 93b3 81bc
000000f0: f8e5 72bb 1440 64be 04d3 ffbd ff41 2f3e
00000100: c9bc 9c3d 01db 1a3e 3bd8 01be 7d02 bcbc
00000110: d710 1b3e 8b0b 303d 1936 0fbe f7f2 26be
00000120: 6d22 203e 0225 40be f4c5 303e 1723 483c
00000130: 0d13 ccbc 7c27 513e 39c8 f53d 8728 533e
00000140: 192a 4c3a 7a93 403d 6e3d 55bd f67e 74bd
00000150: 0315 493d c243 35be 8e39 2cbd 4a58 42be
00000160: d8e3 203e 8c12 42be 6737 0f3e 7c28 073d
00000170: c255 28bd 5510 4bbe bd57 94bd b842 2e3e
00000180: 865e b1bd 3bf4 4fbe cc96 e0bd 4e49 2ebe
00000190: a218 e03d 2211 de3d d1c0 23bb 3481 8ebc
000001a0: 56ca ecbd 331c 683e ff79 ddbd 9ebc 513e
000001b0: 9148 51be cc1c 45be 1683 303e 94c1 2fbe
000001c0: f1e7 21be b906 f43d 6352 663e 8196 55be
000001d0: a1a4 483e dd9c 3fbe 8f2f 3a3e fe60 fd3c
000001e0: b747 65be 6c2d 6abc 4690 3a3e b816 063e
000001f0: 5a08 243e 6643 3cbe 22af f33c 1a3c 5a3d
00000200: b050 4e3e 62c0 633e 9dfd 443e c105 13be
00000210: 1878 c4bc a9f7 30be 75d6 823d 0a6f d73c
00000220: 196f a4bd 3ec0 f2bd 0a48 0bbe 4521 9dbd
00000230: 685b babd fedb 31be 4d7b 753d 7ede 1c3e
00000240: 97ba 4b3e ddbe 173e 457b d33c 0a91 6fbc
00000250: d49a 07be 168c e03d 6956 613c 86ee 4cbe
00000260: 6bf3 ef3d 42fe dabd 523d 0a3e 66d2 563e
00000270: e54e 6abe 26e7 363e 79f3 733d cb02 40be
00000280: 5e8c 02be 1fd1 66bd 55b4 903d 065c 453e
00000290: 741a 283d e6fc d43d 2fd5 63be 0100 e6bd
000002a0: abf4 b53d 0f3e 47be bd9d 0e3d 6501 36be
000002b0: 3291 fcbd 1f69 68be ae99 5dbe 5c05 7dbd
000002c0: 613f 0c3e 264d 9f3d b01d edbc a026 f4bd
000002d0: 8c9b 86bd f86e 40be 6536 523e c4e8 97bd
000002e0: 540f 2bbd 600a f6bd 8366 633e d4d4 56be
000002f0: 8822 f6bc bc8f bcbd 19a5 eb3c 929f 0a3e
00000300: a358 4bbd 9950 f33d 3f4e 2e3e 8988 b1ba
00000310: 8e1f 20be 3e3d bd3d 2e31 4abe 209d 033e
00000320: 2ac4 fabd 76f7 a03c 9ac0 94bd 026d 0abe
00000330: 1daa 403e c0ca 063d 62e6 3f3e 1abf c43d
00000340: 2917 533e 838d a3bd dec5 1f3e 7633 113e
00000350: d5a1 5dbe cc34 9dbd 9b95 063c 3cc8 423e
00000360: f226 84bd 3ef7 00be 6a2f 563b c6b8 0abe
00000370: 7941 bcbc 79d0 5fbe 1165 0d3e e6c5 693e
00000380: eff9 53be c047 bc3d d519 be3d ae47 00be
00000390: 8757 37be 8011 38bd 51cf 14be b0f5 17be
000003a0: c48a 863d da7d 2e3e db1c abbd 5568 e23d
000003b0: aba4 5fbe fdcf 033e 992e 4c3e af6c 69be
000003c0: d500 023e f29c 38be 1561 9e3d 7fe0 ed3d
000003d0: a034 ff3d 8303 e93d e25d 0b3d a0af a1bd
000003e0: b244 2f3e b37f c33c f9c1 54bd fb80 09be
000003f0: 0d33 573e 59b6 2c3e 9eb0 48bd 2184 5abe
-0.10295816 -0.18210967 0.13475026 -0.12373521 -0.022520792 0.097441114 0.12333077 -0.18066691
0.044026144 -0.112520054 0.037325837 -0.18474929 -0.08836959 -0.20125319 -0.05276807 -0.017938277
0.05736434 0.1752558 0.1674141 0.07345785 0.031233504 -0.090978816 -0.09543675 -0.15607007
0.066849396 -0.12522571 -0.12599322 -0.13170487 -0.11676051 0.05466588 -0.06918551 0.13476877
0.12844206 0.002847299 -0.07037239 -0.14802542 -0.0727845 -0.027939484 -0.2035641 0.005262815
0.11284931 0.15944944 0.18428765 -0.044337418 -0.055029888 -0.049829293 -0.05432411 0.0009834468
0.11569982 -0.031001864 0.18044798 -0.14414236 -0.072427414 0.2233524 -0.04086967 -0.05345641
0.1975201 0.17352252 0.09093487 -0.015832698 -0.0037063342 -0.22290069 -0.1249142 0.1711502
0.076531954 0.15122606 -0.12680142 -0.022950405 0.15143143 0.04297976 -0.1398548 -0.16303621
0.15638132 -0.18764117 0.17263013 0.012215397 -0.024911428 0.20425218 0.1200108 0.20620929
0.00077882555 0.047015645 -0.052060537 -0.059691392 0.049092304 -0.17701629 -0.042047076 -0.18978992
0.15711915 -0.18952388 0.13985978 0.032997593 -0.04109741 -0.19830449 -0.07243297 0.17017639
-0.08660607 -0.2030801 -0.10966262 -0.17020151 0.10942198 0.108431116 -0.0024986754 -0.017395593
-0.1156203 0.22667007 -0.108142845 0.20482108 -0.20437838 -0.19249266 0.17237505 -0.17163688
-0.15811135 0.11915345 0.22492366 -0.20858194 0.19594051 -0.18712182 0.18182205 0.030930039
-0.22390638 -0.014293056 0.18219098 0.13094604 0.16018811 -0.18385085 0.029746596 0.053279974
0.20147967 0.22241357 0.19237371 -0.14357664 -0.023983046 -0.17281975 0.06388561 0.026298065
-0.08029003 -0.118530735 -0.136017 -0.07672361 -0.090994656 -0.17369077 0.059932042 0.15319249
0.19895397 0.14818902 0.025815615 -0.014621982 -0.13242656 0.10964219 0.013753512 -0.20012864
0.1171635 -0.10693027 0.13499954 0.20978698 -0.22881658 0.17861614 0.059558365 -0.18751065
-0.12748858 -0.056351777 0.070656456 0.19273385 0.041040853 0.10399799 -0.22249292 -0.112304695
0.08884557 -0.19457267 0.0348184 -0.1777397 -0.12332381 -0.2269635 -0.21640655 -0.06177269
0.13696052 0.07778387 -0.02894482 -0.1192143 -0.06572637 -0.18792331 0.20528562 -0.074174434
-0.041762665 -0.120136976 0.22207074 -0.20979625 -0.030045763 -0.09207103 0.028765248 0.13537434
-0.049645077 0.11880607 0.17022036 -0.0013544719 -0.15637037 0.09240197 -0.19745323 0.12852907
-0.122444466 0.019649249 -0.07263298 -0.13518146 0.18814893 0.0329082 0.18740228 0.09606762
0.20614304 -0.079859756 0.15602824 0.14179787 -0.21643765 -0.07676086 0.00821438 0.19021696
-0.06452741 -0.12594315 0.003268207 -0.13547048 -0.022980439 -0.2185687 0.13808085 0.22829399
-0.20700811 0.09193373 0.09282271 -0.12527344 -0.17904483 -0.044938564 -0.1453221 -0.14839816
0.06569436 0.17040196 -0.08355113 0.11055056 -0.2184016 0.1287231 0.1993965 -0.22795366
0.1269563 -0.1802862 0.07733361 0.11615085 0.12461209 0.11377623 0.03402508 -0.07894826
0.17116049 0.023864603 -0.0519428 -0.13428108 0.21015568 0.16866435 -0.04899656 -0.21339466

_layers.0.bias f4 [64]
00000000: d8af eabd ec5a 84bd a186 273e 13e2 323e
00000010: 27e8 f53b ed9c 373e 854a 36be a88d 9a3d
00000020: 9724 e9bd 8e1c 49be 5395 eb3d 29ee 90bd
00000030: 3568 26be 86f1 43be 65d7 2fbe 55cd 3d3e
00000040: 0eb6 21be 53ad f2bc 2f7b 5abe 0eeb 133e
00000050: 2f61 df3b 4ddd d93d 2b05 cfbd 2b2b e83a
00000060: 4c37 b9bd 2442 20be 1250 c83d 6f12 5dbd
00000070: 06a3 23be 30df 2a3e 81e9 003e 337e d6bc
00000080: c6ee e6bc ba56 2fbe 73cd 533d f264 423e
00000090: f359 d33d 2bd1 e73d 69d5 9dbd ec12 663d
000000a0: bea6 27bd 55f1 7ebd 7db2 d9bc fd84 54be
000000b0: 9c34 bcbd 6eac 183d 6445 b93d f9c5 b03d
000000c0: 74cc c3bc b7e3 a1bd 8bfd 48be 7f38 2abd
000000d0: ed14 263e 030a dd3d caf5 1b3e a3a3 22bd
000000e0: eae8 3ebe 3817 1e3e d899 d53c c2db 88bd
000000f0: cc2f 6c3c 1fdb d7bc 3f36 1f3d ae6e afbd
-0.11459321 -0.064626545 0.1635995 0.17469053 0.0075044814 0.17930956 -0.17801864 0.0754655
-0.11383932 -0.19639799 0.11503091 -0.070766754 -0.1625069 -0.19135103 -0.1717201 0.18535359
-0.15792105 -0.029623663 -0.21336053 0.14445135 0.006817005 0.10637913 -0.101084076 0.001771306
-0.0904375 -0.1565023 0.09780897 -0.053972658 -0.15980157 0.16686702 0.12589075 -0.026183223
-0.028190028 -0.17122927 0.051709604 0.1898382 0.10319891 0.113191925 -0.077067204 0.05617039
-0.040930502 -0.06224187 -0.026574368 -0.20753856 -0.09189722 0.037273817 0.09046438 0.0863151
-0.023901202 -0.07904761 -0.19627969 -0.041557785 0.1621892 0.10792925 0.1523048 -0.039706837
-0.18643537 0.15438545 0.026074335 -0.066825405 0.014415693 -0.026349602 0.038870092 -0.08566032

_layers.2.weight f4 [64, 64]
00000000: 617d 8b3d 7820 ea3c 9ed1 a3bd 9b7e d5bd
00000010: bc02 d13d 6b47 963d 3a17 953d 1987 b6bc
00000020: 3125 a2bd f477 2e3d e8a3 f93d 37d2 d7bc
00000030: feb7 bc3d 4af7 febd a013 d0bb c929 28bb
00000040: 0583 203c 51c9 b83d 97bb ac3b 2f2a c3bc
00000050: 71b6 16bd c189 66bd ba07 923d 404d a2bd
00000060: 480a 0abd 3863 5a3d 220c da3d 036c 8e3d
00000070: a1fa 2a3d d5dd 173d 2a50 163b 8c44 1c3d
00000080: 1d0f 523d 7cf0 5b3d 2c84 8ebd f8d1 33bd
00000090: a3b5 a8bd 70ed 563d 60c8 db3c 921f 0a3d
000000a0: 574e 953d 62b0 46bd 6fe6 e13d 672f eebc
000000b0: 589e 0dbd d93a b83d 02f4 f23d 1af0 ccbd
000000c0: 668a 353b 6612 88bd bb5a a53a 43dc c83d
000000d0: 6985 ae3c cf28 d23d 2c5a 1bbc 7b64 e9bd
000000e0: 3e04 eeb9 b99f 8bbd f0cb 5f3c 0a78 1ebd
000000f0: 22b0 ed3d cb31 753c fae0 c0bd 02ff 9b3d
00000100: 36d5 fdbd 204b d03c 5b32 da3d 541a b6bd
00000110: 963b 093d 66b5 ce3d 9128 093d 144f 17bc
00000120: 7752 8fbc bc41 65bd 764f 223d aae6 fb3d
00000130: 7eeb 89bd a018 a9bb e20c b03d 75d7 91bc
00000140: 1a5b c13d 352e ae3d e146 5b3d d8e5 51bb
00000150: 7c0c 18bd 01a3 fdbc 216b 8c3d e044 eebd
00000160: 52fb f1bd e0cd eb3c e60e ef3d 6779 cb3b
00000170: 4c35 ff3d d2c1 27bd 2a78 c8bd 38eb 9ebd
00000180: ef5d 9d3d 5c7b f0bd 6936 30bb b231 d3bd
00000190: 5b38 d0bd 7292 27bc 6f51 a93d 060b 863b
000001a0: aa89 24bc 4047 cf3a 76ee 0f3d 0fe8 d7bd
000001b0: f7f0 b3bd 755c c33d 44f1 863c d1b1 8d3d
000001c0: 3452 55bb 2b68 c93c 7fba 11bd b721 f53d
000001d0: e056 3d3d c907 e8bd c0d9 8abd 3d84 83bd
000001e0: e2c0 8e3d b853 ad3d 8aa3 e0bd 4aa1 ddbd
000001f0: 6697 773d 35f7 ac3d 4a6b cb3d 7b88 2cbc
00000200: 00cf 02ba 1a81 be3d 4cc3 8d3d e05f f2bb
00000210: f8bd 8e3d 9088 223d 60aa c63d be4d 90bd
00000220: 1077 813c 1a00 fb3d eeb0 ffbd 00b8 763c
00000230: 101f f8bc d45d ebbd 0c43 423d e6bb bdbd
00000240: 98d9 ebbc 2829 943c 8c65 1d3d 0093 02bc
00000250: 4848 8dbc 74a1 a33d 164b bebd d821 cd3d
00000260: e676 babd c09b 1b3d 98b4 e9bc fc72 6ebd
00000270: 200e c0bc f818 eebd ea81 dd3d 8075 b7ba
00000280: e04a bdbc f4a4 db3d 809a 66bb 3630 9cbd
00000290: fc21 55bd 9c40 71bd 9a47 d63d 52c7 e5bd
000002a0: 8a72 d8bd a8b3 94bd 043d 6e3d d0e4 103d
000002b0: 7c8a 153d 4039 503c c00d 0ebc b4f4 b4bd
000002c0: f8ef 203d d820 ed3d 00cf 7b3b 14f8 a33d
000002d0: 70ed bc3c 8003 e4ba d2b1 e8bd 8848 083d
000002e0: 0069 74bc 4652 f53d 16b3 e3bd 208b 97bd
000002f0: f286 cb3d 4670 a8bd 2e78 913d 4482 2fbd
00000300: 4852 d13d 1811 b9bc dcc7 df3c d09d d43d
00000310: 8d2c c4bd e997 9cbd c935 a23d fa59 f03d
00000320: 9550 e23d 1c52 8b3d 9287 d33d 94ee 0dbd
00000330: f0a6 8cbc c874 2d3d ac34 14bd 5860 eebd
00000340: b0f9 543c 9833 43bd 0859 2abd a641 f73d
00000350: bf3f 91bd 5b3a 453b d231 1c3c 440b 943d
00000360: 24ff 6b3d f22a b83d 76c5 97bd 3cfb b6bd
00000370: 8815 c5bd 277a 003c 5cff 44bd e07c 043d
00000380: 5839 fbbc 7ab7 d33d fb8f 693c 7585 cdbd
00000390: 45c7 2a3d c36a a4bd 70ad f83d 2817 2bbd
000003a0: 46e9 893d f925 cc3d 6895 15bd c01c 823c
000003b0: e421 b1bd f6b5 a2bd 87a2 3d3d df02 32bc
000003c0: 3ebe c73d 58ad 96bc 787a ffbd 98b4 f2bd
000003d0: c4c3 2a3d 2880 0c3d 6614 193d 048e 853d
000003e0: 5428 453d 83e2 133d f005 503d 62b4 833d
000003f0: ce41 54bd 954c ff3c 8684 debd 3d42 b03d
0.068110235 0.028579935 -0.07998966 -0.10424539 0.102056 0.07337841 0.07279821 -0.022281216
-0.0791725 0.042594865 0.12189466 -0.026345355 0.09214781 -0.124495104 -0.0063499957 -0.0025659672
0.0097968625 0.09022773 0.005271386 -0.023823826 -0.036795083 -0.056283716 0.0713038 -0.079248905
-0.03370121 0.05331728 0.106468454 0.06954195 0.041742925 0.03707679 0.0022935965 0.03815131
0.051283944 0.05369614 -0.069588035 -0.043901414 -0.082377695 0.05247253 0.026828945 0.033721514
0.07290333 -0.048508056 0.1103028 -0.029075338 -0.034574836 0.08995599 0.11862947 -0.10006733
0.00277009 -0.06644134 0.0012615541 0.098076366 0.02130385 0.1026169 -0.009481948 -0.11396118
-0.00045398058 -0.06817574 0.013659462 -0.038688697 0.1160586 0.014965485 -0.09417911 0.07616998
-0.123941824 0.025426447 0.10654136 -0.088917404 0.03350409 0.10093193 0.033485953 -0.009235162
-0.017495377 -0.055970892 0.03962656 0.12299855 -0.0673437 -0.005160406 0.08596207 -0.017802933
0.09441204 0.08504907 0.053534392 -0.0032027867 -0.03712128 -0.030961515 0.06856371 -0.116342306
-0.11815514 0.028784692 0.116727635 0.0062095406 0.124613374 -0.040956326 -0.097885445 -0.07759708
0.07683932 -0.11742279 -0.00268879 -0.10312213 -0.10166999 -0.010227786 0.08267485 0.0040906696
-0.010042587 0.0015814081 0.035139523 -0.105423085 -0.08786195 0.09539119 0.016472466 0.069186814
-0.0032550218 0.024585804 -0.035578247 0.11969321 0.04622543 -0.1132961 -0.06779814 -0.06421707
0.06970383 0.08463234 -0.109686926 -0.10821779 0.06044712 0.084455885 0.09932573 -0.010530586
-0.0004989952 0.09301968 0.069220155 -0.007396683 0.069698274 0.039681017 0.09700465 -0.07046078
0.015803844 0.12255879 -0.124849185 0.015058517 -0.03028825 -0.11492506 0.047427222 -0.092643544
-0.02879028 0.018086031 0.03842692 -0.007969618 -0.01724638 0.07989779 -0.09291665 0.10016221
-0.09104709 0.03799033 -0.028528497 -0.058215126 -0.023444235 -0.11625856 0.10815795 -0.001399681
-0.023106992 0.10724822 -0.0035187304 -0.07626383 -0.052034363 -0.058899507 0.10462876 -0.11219658
-0.105687216 -0.07260829 0.058163658 0.035374463 0.036509022 0.012708962 -0.00867027 -0.08835736
0.039291352 0.1157853 0.0038422942 0.080063015 0.023062438 -0.0017396063 -0.113620415 0.033272296
-0.014917612 0.11978583 -0.11118142 -0.07399583 0.09937848 -0.082245395 0.071030006 -0.04284884
0.10220772 -0.022591159 0.02731698 0.10381663 -0.0957881 -0.07646162 0.07920415 0.11735912
0.11050526 0.068027705 0.10328592 -0.034651354 -0.017169446 0.0423477 -0.036183044 -0.1163947
0.012998983 -0.047656626 -0.041588813 0.12073068 -0.07092237 0.0030094597 0.009533362 0.07228711
0.057616368 0.08992566 -0.074107096 -0.08934638 -0.096232474 0.007841623 -0.048095092 0.032345653
-0.030666992 0.1033773 0.014255519 -0.100352205 0.041693944 -0.08028176 0.121424556 -0.04177013
0.067339465 0.0996818 -0.036519438 0.01588285 -0.08649042 -0.079448625 0.046297576 -0.010864942
0.09753083 -0.018393204 -0.12474531 -0.11850852 0.041690603 0.034301907 0.03737297 0.06521228
0.048134163 0.03610469 0.050786912 0.0643089 -0.05182057 0.031164447 -0.108651206 0.08606384

_layers.2.bias f4 [64]
00000000: 0286 d03d efa9 6cbc 86fc dabd 2680 85bd
00000010: 3020 913c 3ae1 84bd 6a0e d5bd c39e a13c
00000020: aa1d bf3d 05f0 603d 5887 fcbd 9cdb a6bc
00000030: 6791 8fbc 0f13 b7bd 2dd9 b73a 40a5 43bd
00000040: f923 e33d da7c af3d 16c3 f2bd 0a43 e0bd
00000050: 8a40 733d 9e69 c9bd 204b 51bd 21e5 6e3d
00000060: ae04 df3d 1cf8 77bd 52bc d0bd 40cb f0bb
00000070: 7258 f33d 7dd7 d73d 85bc bf3d 88ae 8f3d
00000080: 8f78 77bd ccc4 30bd f85f 173d c98c 71bd
00000090: 96df d03d 80d3 45bd ad9f 9f3c 443d a6bd
000000a0: 744d 453d ff90 20bd 2ab6 dfbd 883a 00bd
000000b0: 6cc0 55bd b814 bbbb 78d5 673d 7c9e e73d
000000c0: bced 21bd a55c 46bd 93f7 f3bd be4c 0f3d
000000d0: bac9 85bd 38e9 66bd 8f25 8a3c 904f 6f3d
000000e0: b3ee f13c eec1 dd3d fcb0 ff3d f549 8abc
000000f0: 48e1 a93b 9ab2 acbd 470a b0bd d7fb 463c
0.1018181 -0.014444812 -0.10692696 -0.06518583 0.017715544 -0.06488271 -0.1040314 0.019729024
0.0933183 0.0549164 -0.12330502 -0.02036839 -0.017525388 -0.08939182 0.0014026515 -0.047765017
0.110908456 0.085687354 -0.11853616 -0.10950287 0.05938772 -0.09834598 -0.051097035 0.058323983
0.108895645 -0.06053935 -0.10192169 -0.007348448 0.11882104 0.10539148 0.09362129 0.07015711
-0.060417708 -0.04315643 0.036956757 -0.058972154 0.10198896 -0.048297405 0.019485319 -0.08117154
0.04816957 -0.03920078 -0.10923417 -0.03130582 -0.05218546 -0.005709257 0.056600064 0.11309525
-0.03953336 -0.048428196 -0.119124554 0.034985296 -0.06532617 -0.05637476 0.016863612 0.058425486
0.029532766 0.10828005 0.12484929 -0.016880969 0.0051843263 -0.08432503 -0.0859571 0.012145004

_layers.4.weight f4 [6, 64]
00000000: bb15 7f3d 13de e2bc 0e0e d8bd 41a4 243d
00000010: ab42 a1bd 65b5 08bc 2e18 9dbd 61c9 e3bd
00000020: 6ff5 bbbd c3e5 f9bd 9c37 3abd bc91 f7bd
00000030: f574 f23d 1b3d 613c 784f e63c 30ab bfbd
00000040: 71c7 a7bd 1298 5f3d 9d81 683d 1457 1e3d
00000050: b9a9 a5bd 409e d63b 5898 2cbd 2ebb d9bd
00000060: 33ca ee3c 1c5c fbbd 2013 d63d 8649 e43d
00000070: ce0b bc3d 00a0 83bd d475 d8bd a512 e93d
00000080: a6db 05bd b438 62bd 9f13 a33d a10b cb3a
00000090: 8598 1abc 54c1 1dbd f243 e93d 72d7 c9bd
000000a0: 4f18 f5bd fdf6 60bc 11da 54bd 8e27 c9bd
000000b0: 909c 543d 58b2 dabc 9c5f 65bd 2755 40bc
000000c0: 60e9 1d3d ca08 80bc c2e0 8ebd 5704 de3b
000000d0: 96da 40bd 5a99 abbd 1cf7 54bd becf 75bd
000000e0: ee74 d6bd 3286 e93d a1ba 5dbc e5d9 b83d
000000f0: 3124 92bd 50be a13d 5300 643d 6f54 9d3c
00000100: 31eb e63a c333 95bd a2f4 a3bd b984 b1bd
00000110: 4000 98bc 61ac 763c 3a4d ef3d 6dcb c33a
00000120: bb5f d03d bdd2 eb3d 8af2 be3d a3c7 9cbd
00000130: 51ee dcbd ac2f 6f3d cfaa 93bd a486 83bd
00000140: 67ad 733d 780c f03d e81a c0bb 709b 92bd
00000150: e84c f33b 569f f23d 8aee a43d c16c 6b3d
00000160: f54c 273d 8025 90bd 60b6 df3d 5807 febd
00000170: f2b9 b53d 70d8 c13a 0c46 d43c 0634 4dbc
00000180: cc6c 27bc a67c df3d d2d3 5dbd dd6f b33d
00000190: 3ae8 f6bd f24d bd3d 0ab8 473c 0717 8ebc
000001a0: 729b ccbb 3dae f23d b58d c3bd 085b 053d
000001b0: 801b 35bd edb0 7a3d 1f1b c5bd bab6 aabd
000001c0: 800a 5c3d 1dfc d9bd 211e 7d3d fa4c d33d
000001d0: 29c7 3dbd ebce 8e3c 91dd d13d 43e8 473d
000001e0: 4d54 eb3d 49f4 8ebd 2674 b3bc 42ca fcbd
000001f0: 1bed 4e3c be64 123d db0c 15bd 1567 b7bd
00000200: e9c7 cebc db1b a63d c689 adbd 684a 76bc
00000210: a3f7 d7bd e4eb 1b3d 2cf7 0b3d 21c0 c5bd
00000220: 91d1 af3d f19b 89bd 3058 a13c 4f5f 88bc
00000230: 44e8 b83d c397 f3bd bc0e 18bd 5c7c 3fbb
00000240: afaf f03b 9c60 62bd 6ddc 4e3b f4d8 6dbd
00000250: b208 983d 546c a53d 701c 6a3c 792a 6c3c
00000260: 0f9a 40bc 74c4 e53d 02bd a8bd f8e3 703d
00000270: d84f db3d e7d0 98bc 0244 c43d e377 cbbc
00000280: 09f4 d73d 948a 00bd 7dec d5bd 14e7 0c3d
00000290: 8d00 8d3b 000c 00bd 5a3c 8bbd b53c a6bd
000002a0: 36bc 6a3d d049 2bbd eaaa ef3d 7098 4b3d
000002b0: 781f 903d a34d efbd 6e03 21bd 8fb9 dfbd
000002c0: f42c 003d 84c2 af3d 8870 a13d 5a6b 293d
000002d0: a8ba 7c3b 3a4b aa3d 961d 3bbd f8c4 ecbd
000002e0: a7b1 e2bd 85ae 90bd 129c d9bd 45de d7bb
000002f0: 7cd4 a0bc 9350 043d 4953 acbd d96a ac3d
00000300: 162d 393d 2b69 d43d 462d fcbd 154a b13d
00000310: 3877 e0bd 1697 4abc 70da f13d 4e1b a83d
00000320: 44f6 d3bd f627 2a3d 8042 103d d766 eb3d
00000330: da0d fbbd e356 a93d c4eb bc3c a430 fcbd
00000340: ac62 8ebd 90bb 88bd 50ca 72bd b054 013d
00000350: 3b2b b0bb e4b5 74bd 1425 303d e92a 20bd
00000360: 4334 7a3d 64cf c93d 3ea3 83bd f2aa fbbd
00000370: 092a f33c c885 c3bd 98d3 f0bd eaa6 6e3d
00000380: 7c72 e93b 6056 ad3b 05dd 453d c81d 073d
00000390: 13af f6bc 3c90 d53d cbbb 5e3d 547c d03d
000003a0: 065d afbd e4c0 9abc 1946 9c3b d4d3 99bd
000003b0: 58c5 813c 5a8c d0bd 6633 c03d 920d fabd
000003c0: 408f 4ebb 5499 77bd 187c b7bd e963 cbbd
000003d0: 796d 813d 6555 bf3d ebc4 643d 5d0d 0e3d
000003e0: 89fd 80bd 400f bebd 0740 90bd 6aa5 fc3d
000003f0: 93bd 87bd 8d02 823d 90e5 25bd 113b 01bd
0.062276583 -0.027693784 -0.10549556 0.040195707 -0.07874044 -0.008344029 -0.076706275 -0.11122394
-0.09177672 -0.12202027 -0.04546319 -0.120883435 0.11838714 0.013747479 0.028114066 -0.09358823
-0.08192337 0.054588385 0.056764234 0.038657263 -0.08089013 0.0065496266 -0.042137474 -0.10631405
0.02914915 -0.12273428 0.104528666 0.11146836 0.09181939 -0.06427002 -0.10569349 0.11380509
-0.032680176 -0.055229858 0.07962727 0.0015491137 -0.009435778 -0.03851445 0.11389913 -0.09855546
-0.11967527 -0.013730762 -0.051965777 -0.098219976 0.051907122 -0.026696369 -0.055999383 -0.011739052
0.038552642 -0.015629191 -0.06976463 0.0067754197 -0.04708346 -0.08378859 -0.051993474 -0.06001257
-0.10471521 0.11402549 -0.013533265 0.09025935 -0.07135809 0.07897627 0.05566437 0.0192053
0.00176177 -0.072852634 -0.080056444 -0.08667893 -0.018554807 0.015055747 0.11684652 0.0014937945
0.10174509 0.115148045 0.093236044 -0.07655265 -0.10787643 0.058395073 -0.072103135 -0.06422165
0.05949154 0.11721128 -0.0058625825 -0.071585536 0.0074249394 0.11846797 0.0805331 0.057476763
0.040844876 -0.070384026 0.10923457 -0.124037445 0.08873357 0.0014789235 0.025912307 -0.01252461
-0.01021881 0.10912447 -0.054157086 0.087615706 -0.120560125 0.092433825 0.012189874 -0.017344965
-0.0062441165 0.118496396 -0.09548513 0.032557517 -0.04421568 0.061203886 -0.096243136 -0.083356336
0.05372095 -0.1064379 0.06179631 0.103174165 -0.046332512 0.01743265 0.102473386 0.048805486
0.114906885 -0.069801874 -0.02190597 -0.12343265 0.012629773 0.035740606 -0.036389213 -0.08955208
-0.025241809 0.08110782 -0.08473544 -0.015032388 -0.1054528 0.03806676 0.03417127 -0.09655786
0.085848935 -0.067191966 0.019695371 -0.01664701 0.09028676 -0.118941806 -0.037123427 -0.002921841
0.007345162 -0.055267915 0.003156449 -0.05806823 0.074235335 0.080773026 0.014289007 0.014414423
-0.01175548 0.11219111 -0.082391754 0.058811158 0.10708588 -0.0186543 0.09583284 -0.02483744
0.10544593 -0.03138216 -0.10445497 0.03440006 0.004303044 -0.031261444 -0.067986205 -0.08117048
0.0573084 -0.04181844 0.11702521 0.049705923 0.07037252 -0.1168473 -0.03930991 -0.10924064
0.03129287 0.08582023 0.07882792 0.041362144 0.0038563404 0.083151296 -0.045682512 -0.11561006
-0.11069041 -0.07064537 -0.10625471 -0.006587776 -0.01963257 0.032303404 -0.08414323 0.08418817
0.045209013 0.10371622 -0.12313323 0.08656708 -0.10960239 -0.012365123 0.11809242 0.08208333
-0.10349706 0.041542016 0.03521967 0.114942245 -0.12258501 0.082685255 0.02306164 -0.12313965
-0.06952414 -0.066764 -0.05927497 0.031574905 -0.005376247 -0.059743777 0.04300411 -0.039103422
0.061084997 0.0985401 -0.0642762 -0.122884646 0.02968313 -0.09547001 -0.11759108 0.05826465
0.0071242433 0.0052898377 0.048306484 0.032987386 -0.030112779 0.10427901 0.054378312 0.10179964
-0.08562665 -0.018890806 0.0047690985 -0.07511106 0.015841171 -0.1018302 0.093848035 -0.122096196
-0.003151849 -0.06044896 -0.08959216 -0.09931166 0.063197084 0.093424596 0.055851858 0.034680713
-0.06298358 -0.092802525 -0.07043462 0.12336238 -0.06627955 0.06348143 -0.04050213 -0.03155047

_layers.4.bias f4 [6]
00000000: 068e adbd 6e78 a6bd 8c28 ddbd 906b e93d
00000010: a886 e6bd e09b e93d
-0.084743544 -0.08128439 -0.10798749 0.11397469 -0.112561524 0.11406684
