models/gg-2023-11-10_09-36.pt (torch, 172816 bytes, 8 tensors)

_layers.0.weight f4 [256, 19]
00000000: a41e 2ebd 609b f83b c1fa 0a3e b79b 183e
00000010: 1823 ecbc 07f6 663e df20 fabd e0a4 7c3c
00000020: 103c 13be 34d4 193d 091d 563e f252 42be
00000030: 140d 5d3d 6ae6 57be 842a 52bd a8d1 dcbd
00000040: 00c2 ca39 c407 23be dca6 6e3d 3573 54be
00000050: 7798 6f3d a8a8 98bd 2fef 4fbe 3788 313e
00000060: 3630 1c3d f8ae 05be b1bb e1bd 1950 c7bd
00000070: 2141 1fbe 8b8b 9a3c aba4 733c d564 5a3e
00000080: 59b7 3dbb 570d eabd b7aa 423e 9bdd ef3d
00000090: 7d88 38bd 4db4 2a3e 3796 403e 73c5 45be
000000a0: c5c0 41be 3888 1abe fe05 4abe 02f7 8cbd
000000b0: 3efe ab3d 784c 56be 839a 65be 9049 4abe
000000c0: b125 f5bd 1b4a 133e 4b48 503e ab60 693e
000000d0: c0ca 233b 85f7 46be ef17 653e eae9 1dbe
000000e0: ce64 b13d 933c 023e d385 fc3d ff31 b53d
000000f0: 8488 52be 4c75 efbd ed64 0dbe fb13 293e
00000100: 9d2e 1ebe eab0 323a b1f2 5b3e 4bf6 713e
00000110: 5189 21be 9814 35be be87 453e 3daf a13d
00000120: 8a5f 34be e24b 643e 6923 1fbe 5af0 5f3e
00000130: 9fad 1e3e 00e8 553e 7963 49bd 0b77 ee3c
00000140: f012 69be 73a8 f73d dc25 8f3c 4d78 523e
00000150: c5fb e8bd 1946 563e 6826 523e 8ecc 84bd
00000160: d83c 683d c9da 85be 744d 21be 214b 26be
00000170: 1dc0 4fbe d40c 7d3d 57d6 e9bd d480 9bbd
00000180: b6e4 1f3e dbfd 123d 6d44 18be 69e9 1ebd
00000190: 006e 61bd aa76 c83d 87ec 173e 187d 413e
000001a0: 9e90 10be 2768 51bd 5e58 5a3d 8ab4 0abe
000001b0: a272 3b3e d8da b3bc 9216 ee3b 1c62 41be
000001c0: 5f34 393e dbdd 0cbe 3eb3 fbbb d051 41be
000001d0: 157b 303e 1983 4d3c 5f38 cf3d 44dd 3abe
000001e0: 208e 8e3c f576 bc3d 3daf 233e 30a9 2a3e
000001f0: 0466 31bd 019d d0bc 3005 983d 20a8 adbd
00000200: a79d c3bd ba1c 59be 16ec 67be fcd2 fbbd
00000210: b49d dc3c 80e6 b83c e628 5fbd 291d 243d
00000220: 5a63 7bbd cbbb 7bbe 6f24 563e 6dd7 24be
00000230: 2b6c a5bb 242e cb3d a414 973d 4f7b f0bd
00000240: ef29 4ebe 8b59 483e 1c6f 443d 6e52 5d3e
00000250: 3247 de3d 0f63 3b3e 6310 3f3d c1b1 f5bc
00000260: f3af eebd 9a61 fe3d adb2 713e 7060 1c3e
00000270: 3fec 5e3e bdac 6a3e ad7f 3a3e 7320 3ebe
00000280: 09d0 e4bd 2e0e 933b 3dbe a9bd 10f7 3ebd
00000290: 051b 92bd c2e1 843e a6ad 5dbb 5066 7c3e
000002a0: 64df 50be f807 58be 0a87 0d3d 4c43 3b3d
000002b0: 7498 bdbd acc5 edbd eed1 853d a04d 3c3c
000002c0: a0c7 fbbc 6e86 ee3d a2cf c7bd abca 383e
000002d0: c335 20be 867f f4bd ceba a23d 3b5f 103e
000002e0: 0017 38bb 9969 38be 5027 16bc 469f 9ebd
000002f0: 5821 96bd 78b0 2dbd 0415 623d 2cbc 5abd
00000300: 38be 24be 3f97 eabd 70c5 44be bfa6 6abe
00000310: ee0e e33d 0743 033e 8386 313e b0c6 943c
00000320: 2841 c1bd 9e4a 0dbe 8e03 ea3d 0af9 0dbe
00000330: 5b8f 2f3e 83d3 febd f526 5bbe 4e2e 29be
00000340: 1b55 3f3e 5110 393e 5d1f a73c 3c99 743c
00000350: aaab 573e f256 0d3e 7266 183e fb9b 13be
00000360: 8288 023e 7653 5e3e b32d 1ebe 01f4 613e
00000370: a861 0cbe f691 75bd 99c8 7ebd ca50 933d
00000380: 1417 8c3d 7fdf eebd 07b9 ec3d b218 913d
00000390: bae8 dbbc 1924 6bbe fd29 673e 546e b0bd
000003a0: a21a fdbd 2949 673e 59be f0bd a89c 1b3e
000003b0: 5403 0e3e 48e8 18be c0ca 3ebe eb0c 01be
000003c0: 1362 903d dc44 5c3e e30d 66bc cb01 8fbd
000003d0: 15cf 89bd cff1 24be d56d 693e 0218 523c
000003e0: 5a54 7abe 4b3d 0fbe ee49 233e 4a9a f23d
000003f0: 4627 2d3e f774 03bc c08f 703d c636 c13d
-0.04250969 0.0075868815 0.13572218 0.1490315 -0.028825328 0.2255479 -0.12213301 0.015420169
-0.14378381 0.03755589 0.20909514 -0.18976954 0.05396755 -0.2108399 -0.051310077 -0.10782176
0.00038672984 -0.15920931 0.0582646 -0.20747073 0.05849501 -0.074540436 -0.20306085 0.17337118
0.038131915 -0.13055027 -0.110221274 -0.09732074 -0.15552188 0.018865367 0.014870803 0.21327527
-0.0028948395 -0.114283256 0.19010435 0.1171219 -0.04505204 0.16670342 0.18807302 -0.19313602
-0.18921192 -0.15091026 -0.19728848 -0.068830505 0.08398102 -0.20927608 -0.22422223 -0.19754624
-0.1197008 0.14383738 0.20340078 0.22790782 0.0024992675 -0.19430359 0.22372411 -0.15421262
0.08661805 0.1271842 0.123302124 0.088474266 -0.20559889 -0.116922945 -0.13808031 0.16511528
-0.15447469 0.00068165234 0.21479298 0.2362911 -0.15775038 -0.17683637 0.19290063 0.07894752
-0.1761457 0.22294572 -0.15540852 0.2186903 0.15495919 0.20889282 -0.04916713 0.029109498
-0.2276113 0.12092676 0.017474107 0.20553704 -0.11376146 0.20925178 0.20522463 -0.06484328
0.05669865 -0.26143482 -0.15752202 -0.16239597 -0.20288129 0.061779812 -0.11417835 -0.075929314
0.1561459 0.035886627 -0.14869852 -0.038796816 -0.055036545 0.097882584 0.14836322 0.18895376
-0.14117667 -0.051124718 0.05330693 -0.13545433 0.18305448 -0.021954939 0.007265874 -0.18885082
0.18086384 -0.13756506 -0.0076812794 -0.18878865 0.17234452 0.012543463 0.10118174 -0.18248469
0.017401755 0.09202377 0.15984817 0.16666102 -0.04331018 -0.02546549 0.074228644 -0.08479333
-0.09551554 -0.21202365 -0.22648653 -0.122961015 0.026930667 0.022570848 -0.054482363 0.04006687
-0.061374046 -0.24583356 0.20912336 -0.16097803 -0.005048295 0.0992091 0.07376984 -0.11742269
-0.20133184 0.19565408 0.047957525 0.21613476 0.10853423 0.18299507 0.046646487 -0.029991986
-0.116546534 0.1242096 0.23603316 0.15271163 0.21769808 0.22917457 0.18212767 -0.18567066
-0.11172492 0.0044877743 -0.08288238 -0.046622336 -0.0713406 0.2595349 -0.0033825426 0.24648404
-0.20397717 -0.2109679 0.03455261 0.045718476 -0.09257594 -0.116099685 0.065341815 0.011493117
-0.030734837 0.11646734 -0.097564 0.18046062 -0.15645508 -0.11938386 0.079457864 0.14098828
-0.002808988 -0.18009032 -0.009164646 -0.07745223 -0.073305786 -0.04240462 0.055195823 -0.05340211
-0.16088188 -0.11454629 -0.19215941 -0.22915171 0.11086832 0.12818538 0.17336468 0.018161148
-0.09436256 -0.13797995 0.11426459 -0.13864532 0.1714453 -0.124426864 -0.2140158 -0.1652157
0.18684809 0.1807263 0.020400697 0.014929112 0.21061578 0.13802698 0.1488283 -0.1441497
0.12747386 0.21711525 -0.1544712 0.22065736 -0.13709128 -0.059953652 -0.062203024 0.07193144
0.06840339 -0.11663722 0.11558729 0.070847884 -0.026844371 -0.22962989 0.22574611 -0.086147934
-0.123585954 0.22586502 -0.11755056 0.15196478 0.13868457 -0.14932358 -0.1863203 -0.12602584
0.07049956 0.21510643 -0.014041397 -0.06982764 -0.06728951 -0.16107868 0.22795804 0.012823107
-0.2444624 -0.13988225 0.1594617 0.118458346 0.16909513 -0.008023492 0.05873084 0.09434275

_layers.0.bias f4 [256]
00000000: f1e8 3ebe c442 88ba 8c2d 07be bacf 433e
00000010: c17d 043e 858d aabd 619e b7bd 284a f3bd
00000020: d67f bbbd 9ebc cdbd dc7e 03bd 798d 263e
00000030: 09cf 46be d147 c03d 7338 68be ec4e a3bd
00000040: b103 d4bd 376a 063e a2c0 a83d 27de 74bd
00000050: 592e 47be 252a 03be ea3e 69be f83b 113d
00000060: 839c 063e 48e2 02bd 3e35 053e 7e6a a0bd
00000070: 393e 8c3d e4ab 03be 6785 7bbd f6fa 243e
00000080: 5c94 5e3e 1a00 c93d 2fc2 fabc ac3a d6bc
00000090: fad8 42be 76ba aebc ee9f 78bd 9a01 093e
000000a0: 7fd8 3ebe f7de b13d a2d6 583d 3cb1 41be
000000b0: 16d9 b6bd 57a2 1e3e 2da4 1cbd 3ff9 173e
000000c0: 2401 603e 2aab 1ebe 0ac4 9f3d b53e 113e
000000d0: 1cef c6bd df12 12be edc2 eb3d 1e37 8bbd
000000e0: 8080 75bc b0ae 7ebd 73b7 58be 4ffb 9c3d
000000f0: f712 183d 9df7 303e 2570 a2bc d794 803e
00000100: 13b4 29be 159b df3d 3dd5 663e e80d eb3d
00000110: a4d4 133d 364c 86bd 5d27 913c b3a6 643e
00000120: 9bab 50bd 1040 3e3e a298 31be a958 9a3d
00000130: 2bc4 eabd 8a29 39be 8841 683e 8345 3fbd
00000140: e8fc 12bd 04e9 aebc 734a 343e 4679 0abe
00000150: a41d acbd 9744 893c b9e3 1e3d 9cb8 37be
00000160: 9261 043e 6f94 5abe a12d 793e c549 393e
00000170: 32bb 543d 1312 3e3e 3f18 5dbe e5bc ef3d
00000180: 4e2b 4dbe e3d5 4a3e c8f8 cebd 3688 0f3e
00000190: 8d44 3c3d 6cd6 c4bd c4b1 a4bd a90c 573e
000001a0: b656 e5bd 01fd bd3d b000 5e3e ee17 e9bc
000001b0: eb8f ee3b 1183 c33d d162 2a3e 8256 973d
000001c0: 34c7 ff3c c874 30be aa65 18be dc31 f7bc
000001d0: 420e 1abe 465e f9bc 0d64 2a3e d6d1 e5bd
000001e0: 1367 233e 702b 40be 77d1 233e 3e70 dbbd
000001f0: d827 7d3e 5b97 22be a121 37be cf9f 553e
00000200: de9c f43d 76eb 4cbe ab5d 38be df6e 583e
00000210: ab90 e63d 03e6 46be b1d5 72bd 85ab 053b
00000220: 554b f3bd 589f f43c 95b4 eabd 164a d8bc
00000230: 1bf0 7f3d b760 553e 3af0 c0bd 81cc 883d
00000240: bd6b 5abe 419c 51bc d521 433d 3ce3 9cbd
00000250: db1b 3e3d 7e0d 223e 4b7d 293e ca79 a0bd
00000260: b0db e8bd 1937 363e e337 043d 259e 55be
00000270: d375 fcbd bc28 cf3d 6bc7 de3d 531f a63b
00000280: 9a98 1d3e 822b 603e 758c f33c bc26 2e3e
00000290: 3db5 703e 9d2f 5c3e ad78 7b3e cbd4 0dbe
000002a0: cec9 b4bd 4c4b a3bd 5af7 c43d b892 9b3c
000002b0: e013 9abb a3d8 993d 5b53 e5bd d80b 7c3e
000002c0: 7f73 5dbe 64b3 0d3e 0bf0 4a3e 0e44 c03d
000002d0: 40f9 613e 1cec 383e f5df 863c b545 0c3e
000002e0: 3f6a 89bd f887 c93d acbb 223e fa0e 1d3e
000002f0: 8aec 24be 2c45 303e a5a9 1abc 6d74 443e
00000300: b869 663e f08e 5b3c 307a e9bd d562 efbc
00000310: ba0f e63d 956e 263e 8a27 16be e950 47be
00000320: 330f 39be 5684 bd3d 60c1 133e 3897 4f3e
00000330: b784 53bc efa1 e03d bc04 1b3d a3a5 80bc
00000340: 2db4 31be 9c70 803d a556 8dbd cb4f 4d3e
00000350: df7c 3f3e 42d4 263e 3672 393e d610 8dbc
00000360: 7431 f13b b67a 343e f623 34be d30a f13d
00000370: 2d64 1c3e d979 6b3b d447 663d 6791 17be
00000380: e9e5 643e 376c fcbc 6800 20be 5430 1cbe
00000390: 0681 01bd e990 f13a 3446 e5bd 4ffa b5bd
000003a0: 3325 353e 127a afbd 4d03 2fbe 0ed8 e13d
000003b0: 800a bd3b dc8f 6c3d c2b0 27be 7dab 2ebe
000003c0: e5b0 953b 5c97 ebba c787 1fbe 1eaa febd
000003d0: 4cde fd3c f581 993d 48d5 973c 844f b13d
000003e0: b635 56be 5bf2 89bc 5029 413e a0de fcbd
000003f0: 84f4 523d fa4e 883d 64ff 0bbe f1e0 173e
-0.18643548 -0.0010395874 -0.13200969 0.1912221 0.12938596 -0.08327774 -0.08965755 -0.118793786
-0.09155242 -0.100457415 -0.032103404 0.16264905 -0.19414915 0.09388698 -0.22677784 -0.079740375
-0.103522666 0.13126455 0.08239867 -0.059782173 -0.19451274 -0.12809046 -0.22777906 0.03545758
0.13145642 -0.03195408 0.13008592 -0.07832812 0.068478055 -0.1285854 -0.06140652 0.16111359
0.21736282 0.098144725 -0.030610172 -0.026151024 -0.19028082 -0.021329146 -0.060699396 0.13379517
-0.18637274 0.08685105 0.052939065 -0.18915266 -0.089281246 0.15491615 -0.038242508 0.14841174
0.21875435 -0.15494981 0.07801063 0.14184077 -0.09713575 -0.14265011 0.115117885 -0.06797622
-0.01498425 -0.062178314 -0.2116373 0.07665121 0.03712746 0.17281957 -0.019828865 0.25113556
-0.16572599 0.109182514 0.22542281 0.11477262 0.03609146 -0.06557505 0.017718965 0.22329216
-0.050944906 0.18579125 -0.17343381 0.07536442 -0.11463197 -0.18082252 0.22681248 -0.04669715
-0.03588572 -0.021351345 0.17606525 -0.13522825 -0.08404091 0.016756339 0.038791392 -0.17941517
0.12927845 -0.21345685 0.24333812 0.18094547 0.051936336 0.18561582 -0.2159128 0.11705951
-0.2003605 0.19808154 -0.10106045 0.14016804 0.045963813 -0.0961121 -0.080417186 0.21000923
-0.111981794 0.09276772 0.2167995 -0.028453793 0.00728034 0.09546483 0.16639258 0.07389547
0.031222917 -0.17232049 -0.14882532 -0.030175142 -0.15044501 -0.03044046 0.16639729 -0.11221664
0.15957288 -0.1876657 0.15997873 -0.10714768 0.2472223 -0.1587805 -0.17883922 0.20861743
0.119439825 -0.20011696 -0.18004481 0.21136044 0.11258062 -0.1942368 -0.059285823 0.0020396423
-0.11879603 0.029861137 -0.114602245 -0.026402514 0.06248484 0.20837675 -0.094208196 0.06679631
-0.21330161 -0.0127936015 0.047639687 -0.07660529 0.046413284 0.1582546 0.16551702 -0.078357294
-0.11370027 0.17794456 0.03227986 -0.20861109 -0.12327161 0.10115191 0.1087788 0.005069652
0.15390244 0.21891597 0.029730061 0.17006963 0.23506637 0.21502538 0.24557753 -0.13850705
-0.08827554 -0.07973346 0.09617491 0.01899086 -0.0047020763 0.07512023 -0.111975394 0.24613893
-0.2162609 0.13837963 0.19818132 0.093879804 0.22067738 0.18058819 0.016464213 0.13698466
-0.06709718 0.09840387 0.15891904 0.15337744 -0.16105857 0.17213887 -0.0094398605 0.19185038
0.22501266 0.013400778 -0.114002585 -0.029221931 0.11233468 0.16253121 -0.1466352 -0.19464459
-0.18072204 0.09253757 0.14429235 0.20272529 -0.01291006 0.109683864 0.037846312 -0.015703982
-0.17353888 0.062714785 -0.06901292 0.2004997 0.18699978 0.16291907 0.18109974 -0.017219942
0.0073606316 0.17624936 -0.17591843 0.11769643 0.15272589 0.003593078 0.056220844 -0.1480156
0.22353329 -0.03081332 -0.15625155 -0.1525281 -0.031617187 0.0018430027 -0.11195031 -0.08885633
0.17689972 -0.08568205 -0.17091103 0.11027537 0.005769074 0.057754382 -0.16376022 -0.17057605
0.0045682066 -0.0017974186 -0.15579139 -0.12434791 0.030989788 0.074954905 0.018534318 0.086577445
-0.20918927 -0.016839197 0.18863416 -0.1234715 0.05150272 0.066556886 -0.13671643 0.14831902

_layers.2.weight f4 [128, 256]
00000000: d456 1b3d 54ca a53d 9282 503d 85e1 d53c
00000010: 8351 963a d487 e43c e3a2 23bd a0fc 273d
00000020: 86a6 88bc 4087 ecbb dc2b 7bbd 9c38 c8bc
00000030: c919 79bd d9d0 7e3d 1626 74bd ccea b23c
00000040: edeb 56bd fe78 1d39 6974 ae3c a845 2d3c
00000050: c65f 7ebd 13c1 90bc 3467 0fbd d8ab e53d
00000060: b03a 94bb 4024 18bb 3033 8a3d 58c9 17bd
00000070: a1b5 7fbc 1615 2d3d 63c4 383d 30fe a93d
00000080: 9d47 933d ae81 d1bd ad71 e43c 933a 6c3d
00000090: ddd2 8f3d 5f45 883b 0edd ddbd d085 883d
000000a0: 222f 103d 7fa4 83bd c952 3abd 63c4 cc3c
000000b0: 629e 71bd 3835 a13c 8c68 0fbd c6fc 50bc
000000c0: d2ea 9e3c b4af 013d 9035 ce3c 90cb b1bb
000000d0: b6ce 773d b440 fcbc 88ab 2d3c db01 2a3d
000000e0: 37a2 623d 30a0 953c 10d2 1ebd e01f fb3d
000000f0: c703 a9bc 46bd ce3c cd3f 103d ffb1 c83a
00000100: cbc8 813d 9439 91bd 2765 00be dbda 173d
00000110: 28c6 ebbc 6684 053d 601a fc3d 2404 603c
00000120: de6f 62bd f867 0bbd 72dd 23bd 7830 db3c
00000130: 62d2 6dbc 286e 8c3c f583 18bd 6b86 a93c
00000140: 9062 d0bb 1546 543d 09ab 8e3b 20ed e33c
00000150: 30cb bfbb 95ed 41bc 23a3 90bc b9af 1dbd
00000160: 749f 6a3d 05f9 1a3d b47a 733d d36c 48bd
00000170: 9f00 ce3d 0af4 46bd 5c8c 3e3d fcb7 15bc
00000180: 8ea5 403d e4d0 493d 463c 5bbd ed27 38bd
00000190: 212d c43c 7357 d4bd 4a1c 073d 69b4 1eba
000001a0: 6087 543c 1a1e a43d 1a2a 2d3d 1356 b03d
000001b0: dcc9 643b f7e5 ad3c ff20 8cba 5da9 86bd
000001c0: 7db9 0bbd e8c1 3f3d e2d9 843d ea77 9ebd
000001d0: 801a 45bc 2970 d9bd 809b 17bd 7e4a 0e3d
000001e0: 4b5e 07bd e08f 3abb 2f70 83bd 58c6 8e3c
000001f0: 632e fa3a b61f 5abd 44a8 483d f9fd 68bb
00000200: e473 f3bc c8a6 2cbc 4860 fc3c 83fc dabc
00000210: cfca 373c 6119 8bbd 23fe 023d f6b1 e03d
00000220: f2b0 62bd 3a4f 803d 44df 1bbd 0ea9 a93c
00000230: c56d 8bbd b355 393c 8607 8dbd 122e a93c
00000240: 9ff4 053d b190 603d 8e72 2e3c 7bd3 cf3d
00000250: c0d6 72bd a7d3 843d b304 de3c b46f 21bd
00000260: 4549 1cbd cc18 a53d 3758 313c 70eb 863c
00000270: 68d3 05bd 7cc8 403d dc92 4d3d 3a7b 2bbd
00000280: 12f7 913c fe48 b63d 213a 8b3d a6bc 783d
00000290: 0443 32bd 8dd5 89bd f53a bdbc ac48 9d3b
000002a0: 359a 8e3d a6bb 9d3c c2a6 4e3d cbc7 11bc
000002b0: 8cc8 4bbd 1e1f 303a ddd2 cbbd 03ba 0ebb
000002c0: 14f0 c9bc 66f5 9dbc 28c7 8b3d dd06 813d
000002d0: 96f5 603b 9334 afbd 4edc 003d 5790 8c3d
000002e0: 50aa 983b 4ef4 8fbd 1d74 b0bc 5122 f8bb
000002f0: 71fc 133a 07db b23d 7347 dabd 7b40 abbc
00000300: 9c53 943d 10a1 8c3b f2b9 d7bd 4cc6 95bc
00000310: c2c0 c13d 88a0 af3c 319d fcbb 1c1f 253d
00000320: c7c7 95bd 674c 503d abf6 743d 3e3a 053d
00000330: e258 603c 136a 1d3d 3622 7abc fa7c 8bbd
00000340: 9893 7f3d 64dc 653d 96af 6a3c a95a 053d
00000350: 0b98 973c 53de 35bd 0fcb 413d 696e 48bd
00000360: 0fd9 82bd 024b c33d 3f12 a8bd 3ec1 31bd
00000370: bcad 873c 5041 8bbd 8827 f9bc b837 61bd
00000380: 5188 98bc f3f1 9dbc 7b45 da3d 482e 883c
00000390: c4b3 6b3d 05f0 4ebd a3e1 25bc 129e 2ebd
000003a0: 8438 133d 8c87 86bd a170 3dbd 001b 68bb
000003b0: 1859 773c e5df f9bc 8464 69bc af31 51bd
000003c0: c232 36bc 4795 d53c 6832 7f3d 9b82 4a3d
000003d0: 5115 7e3c 7fcf 7c3d 8832 883c 9a40 96bd
000003e0: 1cbe cdbc 4644 61bc f32b 2e3b a0ab 943b
000003f0: e08d 2cbb 484d 823d 9ffc 2e3d 0db9 c2bc
0.037924603 0.08095232 0.05090577 0.026108513 0.0011468384 0.0278968 -0.039950263 0.041012406
-0.016680967 -0.0072182715 -0.061321124 -0.024441056 -0.060815606 0.06221089 -0.059606634 0.021840475
-0.05247109 0.0001501776 0.021295743 0.010575689 -0.062103055 -0.01767019 -0.03501053 0.11214417
-0.0045235977 -0.0023214966 0.067480445 -0.03705725 -0.015607269 0.042256437 0.045109164 0.083004355
0.071913935 -0.102298126 0.027886236 0.05767305 0.07022641 0.0041586603 -0.108331785 0.06666148
0.0352012 -0.064278595 -0.045489106 0.024995988 -0.058988936 0.019678697 -0.035011813 -0.012755578
0.01939908 0.031661704 0.025172025 -0.005425878 0.06049987 -0.030792572 0.010599978 0.041505676
0.05533048 0.01826486 -0.03877455 0.12261939 -0.020631684 0.025236737 0.035217095 0.0015311836
0.06337126 -0.0709106 -0.12538587 0.03707395 -0.028781012 0.032596968 0.12309718 0.013672862
-0.055282466 -0.0340347 -0.04000611 0.02675651 -0.014515491 0.01714237 -0.03723522 0.020693978
-0.006359406 0.051824648 0.004353885 0.027823031 -0.0058530793 -0.011836429 -0.017655915 -0.03849766
0.057280973 0.03783514 0.05944319 -0.048931908 0.10058712 -0.048572578 0.046520576 -0.009138104
0.047032885 0.04927148 -0.053524278 -0.04495995 0.0239473 -0.10368242 0.032985963 -0.0006054105
0.012971729 0.08013554 0.04227648 0.08610167 0.0034910357 0.02122782 -0.0010690986 -0.06575272
-0.034112442 0.046815783 0.0648687 -0.077377155 -0.012030244 -0.10617096 -0.03701353 0.03473901
-0.03304891 -0.0028467104 -0.06417882 0.017428562 0.0019087311 -0.0532529 0.048988596 -0.003555177
-0.029718347 -0.010537811 0.03080763 -0.026731735 0.011217787 -0.0679195 0.031980645 0.10971443
-0.05534453 0.06265111 -0.03805472 0.020710494 -0.06808046 0.011311936 -0.068862006 0.02065185
0.032703992 0.05482549 0.010647429 0.101477586 -0.059286833 0.06485682 0.02710185 -0.03941317
-0.038155813 0.0806137 0.010824255 0.016469687 -0.032672316 0.047066197 0.050188884 -0.041865565
0.017818008 0.08900641 0.067981966 0.060726784 -0.043520942 -0.06730185 -0.023099402 0.004799923
0.069630064 0.019254517 0.050452 -0.008897732 -0.049751803 0.0006718504 -0.09952328 -0.0021778352
-0.024650611 -0.019282054 0.068250954 0.06300137 0.0034326068 -0.085549496 0.0314601 0.06863468
0.0046589747 -0.07029019 -0.021539742 -0.00757245 0.00056452217 0.087331824 -0.10658159 -0.02090477
0.0724251 0.004291661 -0.10533513 -0.018283032 0.09460594 0.021438852 -0.0077091684 0.04031287
-0.07313495 0.050854113 0.059805553 0.032526247 0.013693066 0.03843124 -0.015266946 -0.06810947
0.062396616 0.056118384 0.0143240895 0.032557163 0.018505117 -0.044401478 0.047312792 -0.04893342
-0.06389057 0.09535791 -0.08206605 -0.04339718 0.016562335 -0.06799567 -0.030414358 -0.05498478
-0.018619688 -0.01928041 0.106577836 0.016623631 0.057544485 -0.05052187 -0.010124597 -0.042631216
0.03594257 -0.06568822 -0.04624999 -0.0035416484 0.015096925 -0.030502269 -0.014245156 -0.051072773
-0.0111205 0.026072158 0.06230393 0.04944096 0.015508012 0.06172132 0.016625658 -0.073365405
-0.025115065 -0.013749188 0.0026576489 0.004537061 -0.0026329681 0.063623965 0.042721387 -0.02376988

_layers.2.bias f4 [128]
00000000: f9e9 2cbd fe69 f93c 5c44 70bd c872 27bd
00000010: 20e7 1ebb dc9a 263d 7604 73bd 4940 0d3d
00000020: 7016 ee3b d76b 3b3d 13ce 2cbd 9ab6 2a3b
00000030: 0f25 31bd 20fa ab3c 2192 27bc e20c 113d
00000040: 8e12 9f3d 9c07 2fbd 9deb ff3c 0292 b3bc
00000050: ab39 87bc 9e19 3d3d 3e0b 4b3c 1d86 aabc
00000060: 9171 323d 7815 03bd e0c2 3abd d72d 11bd
00000070: 39ff 933d da98 9c3b a475 1b3d 81e4 353d
00000080: e3dc a53c 5910 183d f26d 3dbd 9e62 3abd
00000090: ac42 9e3d 4abb 583d 1a03 373c 66f8 2cbd
000000a0: 7706 063d 67af 2b3d a2d7 a43d d6c6 09bd
000000b0: 671e 883d 7678 e53c e1ba b63c 7c7c b4bc
000000c0: da1a 833c 08cb 7ebc 92f4 763d 58c3 ac3c
000000d0: f21e 713d 99dc 143c bd34 5f3d 4d72 ac3c
000000e0: bacb 8a3d 6ee2 c3bb 62fa 043d 897e 563d
000000f0: a2f9 84bc 3e2e 1abd 582c 0cbc 9f76 7b3d
00000100: e355 b0bc c44b df3c 4537 403d ffed 3cbc
00000110: c9bb 083c a606 67bc 1ab3 f83c 499b 443d
00000120: 33e5 513d fd84 f0bb d466 bdbc 77a8 6fbb
00000130: e87f 04bd 9243 0ebd 21bb c43c 0706 d8bc
00000140: 6139 803d f562 063d 1e35 56bd 1ef2 293d
00000150: e448 80bb 52a7 abbc 8efb 21bd 274b 823d
00000160: 3013 5e3d 1e96 c13c 4d23 1dbd 9071 1dbc
00000170: 84f8 7e3d de0a db3c a6de 20bd c6a4 b0bc
00000180: 7a54 49bd 7beb 7a3d e304 04bc 2400 543d
00000190: e6cf cdbb 0c6c 813d 4881 0c3d e569 fb3c
000001a0: 4fe7 30bd e489 88bc 6007 0c3c 6226 51bd
000001b0: a381 9dbc 7583 a2bc 4b91 063d 3276 0cbd
000001c0: 1ffc e4bc edfe 163d 7260 d03c 3cde 09bd
000001d0: 7d01 8e3d b6d2 19bd 554b d23b b3c5 64bc
000001e0: 38ce 0abd 74f7 fbbc ecc1 c33c f219 f83c
000001f0: da55 ddbc d2a7 5abd ed12 54bc b55c 1b3c
-0.04221532 0.030446049 -0.058658943 -0.04088095 -0.0024246648 0.04067503 -0.059330426 0.034485135
0.0072658584 0.04575714 -0.042188715 0.002604878 -0.043248232 0.020993292 -0.010227711 0.035412677
0.07767211 -0.042731866 0.031240279 -0.021920208 -0.01650699 0.04616701 0.012392817 -0.020815903
0.043565337 -0.032002896 -0.045596004 -0.035444107 0.07226414 0.0047789635 0.037953988 0.04440737
0.020246929 0.037124965 -0.04624743 -0.045504205 0.077275604 0.052912988 0.011170173 -0.04222908
0.03272101 0.041915324 0.08048941 -0.03363689 0.06646424 0.028011542 0.022305908 -0.022032015
0.016004015 -0.015551336 0.060291834 0.02108924 0.058867402 0.009085798 0.054493655 0.021050597
0.06777139 -0.0059779203 0.032465346 0.052366767 -0.016232315 -0.037641756 -0.008555494 0.061392423
-0.021525329 0.027257808 0.04692771 -0.011531352 0.008345553 -0.014100706 0.03035884 0.047999654
0.051243972 -0.007340072 -0.023120321 -0.0036568919 -0.032348543 -0.03473241 0.024015011 -0.026370062
0.06260944 0.032809217 -0.05229675 0.041490667 -0.0039149392 -0.020953808 -0.039546542 0.063619904
0.054217517 0.023631152 -0.038363744 -0.009609595 0.06224872 0.02673858 -0.039274834 -0.021562945
-0.04915283 0.061259728 -0.008057806 0.051757947 -0.006280887 0.063194364 0.03430298 0.030690143
-0.043189343 -0.016667314 0.00854668 -0.051061995 -0.019226855 -0.019838074 0.032853406 -0.034292407
-0.027952252 0.03686421 0.025436614 -0.033659205 0.069338776 -0.037554465 0.0064176717 -0.013963151
-0.03388807 -0.030757643 0.02389618 0.03028581 -0.027018476 -0.053382702 -0.012943965 0.009482552

_layers.4.weight f4 [32, 128]
00000000: 175d 3c3d 6b1e efbc dc88 7fbc f107 18bd
00000010: 28f1 053c d0a5 703d 7031 bbbc 536e 1f3c
00000020: a77c de3d 5be9 7cbd a220 563c 2c95 933c
00000030: da5f 80bd 08c4 063e 4b85 a9bd 8b0a 2a3e
00000040: ff9f 133d 7f9d 883d 5bd8 033e 1f70 ccbd
00000050: 9eaa 2a3e 4b8b e53c bd3f e13d c104 0ebe
00000060: 178a 893d a96c 9cbd aef7 2a3d 5b92 d7bd
00000070: beb1 613b dc01 b73d 6c5b 633d d429 813d
00000080: 1dbc 9fbc 972c aa3d 82e8 593d 07b6 7ebd
00000090: 0690 6b3d 11bb 9d3d c3fe 993c 1ed6 5fbb
000000a0: 86da 903d 7709 a5bd 0c33 423c 1d0f 93bd
000000b0: 9c91 2a3d 7cfa b03c 6397 5e3d 4dc2 67bd
000000c0: 7dbd c0bd 2cc4 f43c 382d bc3d 4d4b aabd
000000d0: 2f8b 77bc 839d 96bd 588a e03c 5729 64bd
000000e0: 0e9c c63d f111 f2bb fc57 a03c 1c26 88bd
000000f0: 5810 5bbd 1f57 adbd 45eb 9c3d d0ed 7e3d
00000100: de5c 6abd 9cf2 31bd 53c9 6c3a a404 193d
00000110: c729 8cbd 7900 cc3c b1c5 e33d 0720 de3c
00000120: 2b6c 90bd 9fc1 57bd f47a a2bc 49b9 e1bd
00000130: c0b9 153c 45c3 14bd 3181 bb3d ccf1 c1bd
00000140: f5c8 c4bd cc8f 1cba 536a 31be fb6d 8d3d
00000150: cf1f 34bb 82f7 0d3d 6457 c6bc 1c6c a63c
00000160: 06c3 073d 5749 953d 1d89 62bc c969 9f3d
00000170: 708a be3c 75bc 773d 4924 9e3d 4fe9 ec3d
00000180: b2b9 3a3d 4c96 943b e717 1e3e 4d35 13bc
00000190: 9c1c 033d 86ec a43d 9147 aabd c74d 4b3c
000001a0: 6a18 b93d ff74 7fbd e0d5 f4bb 6a0a f0bd
000001b0: e40e e2bd 0116 d2bc 51ec 4e3d 0e78 833c
000001c0: 2b79 b83d bcd2 f03b 89ad cb3c 967b 743d
000001d0: 095f 8e3d 8724 78bd 9c4f eebd d338 19bd
000001e0: ed67 123e dc8e ef3c 9fbe 9a3d 8156 af3b
000001f0: 8913 473d a7c8 28bd 2b94 2f3b efd2 54bd
00000200: f257 263d 449b 43bc 61f3 303d f9a1 9d3d
00000210: 4677 3b3d 6454 ca3d fafe 2d3d 8ee2 a2bd
00000220: 5e65 653d b1e7 a03d 7995 95bc dcb1 c03d
00000230: 0560 c8bc 5fdf c3bd 6e47 ba3d 1bf9 fabd
00000240: a10c 013d 8e17 273d 0c3c c8bc 125f 343d
00000250: 7fd0 adbd ab2f a33c 8ae5 82bd 795b ac3d
00000260: 86df 61bd 486a 153d affa 883d 2a3f 0a3d
00000270: afd8 0c3c a61f 15bc d8c4 dc3d d6ce e93d
00000280: 9498 f83d 2244 b2bc fced 993d 6ad4 363d
00000290: 999d cd3d 29f5 9bbd f3fd 9a3d e01c 45bd
000002a0: 2fa4 fe3d 90e7 503d d4c7 fe3c 0cd8 f53d
000002b0: 3b77 a93c c48c e83d 14a6 f33c 46ca d7bc
000002c0: 64d6 923c cc06 aa3c 85b1 ccbd 5b30 c93b
000002d0: 754f 36bd 89f9 053e d358 4d3d 2f19 b33d
000002e0: eaf6 abbc 103b fb3a c74c 873d 9c25 d83d
000002f0: 31d3 d83b 8747 9a3d 8196 833d a794 a9bd
00000300: b4c4 133e ac35 71bd 6cca a23d 5f55 d1bd
00000310: b6e6 e53d 8994 363b 0852 fb3c 73cd 01be
00000320: a652 1b3d 6507 023e 165d 6e3d 485e 993b
00000330: 0b42 77bd b802 b63c 2386 c63d 8f94 853d
00000340: 9ff1 193c d765 7dbb beb4 7fbb c0fb 06be
00000350: f5f8 1a3e 1f23 78bc b049 e5bc affa 0cbd
00000360: 1d0f a0b9 7344 a7bd 3a26 78bd 7804 21bd
00000370: a5fb 733d 1c4b 64bc 0034 593a 0c59 37bd
00000380: 81d6 abbd 8f4a de3d f88b 82bd 55de 4dbd
00000390: 8e05 9bbd c0e3 84bd 4838 6c3d 868b 033e
000003a0: da19 cc3d ba94 eeba 142d cf3c c4e8 253e
000003b0: 774d b23d ad2f 543d 8484 1e3d 7415 533d
000003c0: b8b5 033b e13c ad3d ea2f 243d 80c7 18ba
000003d0: 4ba2 b7bd 8fef 913d 0968 013d 6fb3 a53d
000003e0: d2d1 16be 509d b43c 2f70 81bd d83a 5d3d
000003f0: 61f5 1a3d 9826 88bc 630f 6e3d b41a 693c
0.045987215 -0.02918931 -0.015596595 -0.03711695 0.008175172 0.05875188 -0.022850722 0.009730893
0.10863619 -0.061745983 0.013069304 0.018015467 -0.06268282 0.13160717 -0.08277377 0.16605584
0.036041256 0.06670665 0.12875502 -0.09982323 0.16666648 0.028020522 0.10998485 -0.13869001
0.06715792 -0.07637913 0.041740112 -0.10525962 0.0034438218 0.089359015 0.05550711 0.06306806
-0.01949888 0.08309286 0.053200252 -0.062185314 0.0575104 0.07701696 0.018798238 -0.0034154723
0.0707293 -0.08058446 0.011852991 -0.07180617 0.04164277 0.021603815 0.054343592 -0.056581784
-0.09411142 0.029878698 0.09188312 -0.08315144 -0.015108868 -0.07354262 0.027409717 -0.055703487
0.09697734 -0.0073873927 0.019573204 -0.06647894 -0.053482383 -0.08463883 0.076620616 0.062238514
-0.05721747 -0.04344426 0.0009032685 0.03735794 -0.06843906 0.02490257 0.11121691 0.027114881
-0.070518814 -0.052674886 -0.01983402 -0.110216685 0.0091385245 -0.036319036 0.09155501 -0.09469947
-0.09608642 -0.0005972355 -0.17325716 0.06905743 -0.002748478 0.03465987 -0.024211593 0.020315222
0.033144973 0.07289379 -0.013826636 0.07783849 0.023259372 0.06048246 0.077217646 0.115679376
0.04558725 0.0045345183 0.15438806 -0.008984876 0.032009706 0.08052926 -0.083144315 0.01240868
0.0903786 -0.062367436 -0.007471785 -0.11720736 -0.110379964 -0.025645258 0.050518338 0.016048457
0.09007486 0.0073493402 0.024863021 0.059688173 0.0695172 -0.06058171 -0.11636278 -0.037407707
0.14297457 0.029242925 0.07555889 0.0053508882 0.048602615 -0.041206982 0.0026791196 -0.051958974
0.040611215 -0.011938874 0.043200854 0.076969095 0.045768045 0.098793775 0.042479493 -0.07953368
0.056004874 0.07856692 -0.01825975 0.09408924 -0.024459848 -0.09564089 0.090956554 -0.12254544
0.031506184 0.040793948 -0.024442695 0.04403598 -0.08487033 0.01992019 -0.06391437 0.084158845
-0.05514481 0.03647831 0.06688439 0.033751644 0.008596583 -0.009101784 0.107797325 0.11416404
0.12138477 -0.021761004 0.07516095 0.044636168 0.10039825 -0.0761512 0.07567968 -0.04812324
0.12433659 0.051002085 0.031101145 0.12004098 0.020686736 0.11354974 0.029742278 -0.026341569
0.017924495 0.020755194 -0.09994797 0.0061397976 -0.04450937 0.13083471 0.050133538 0.08745038
-0.020991761 0.0019167382 0.06606441 0.105540484 0.006616973 0.07533174 0.06425191 -0.08280306
0.14430505 -0.058889076 0.07948765 -0.10221361 0.11225645 0.002785953 0.030678764 -0.12676029
0.037920617 0.12698133 0.058194242 0.0046804287 -0.060365718 0.022218093 0.09693553 0.06522476
0.009395986 -0.0038665438 -0.0039017643 -0.13181973 0.15134032 -0.015145092 -0.027989239 -0.034418758
-0.00030528838 -0.081673525 -0.06058333 -0.039310902 0.05956616 -0.013933923 0.00082856417 -0.044762656
-0.08390523 0.10854065 -0.06374353 -0.05026086 -0.07569419 -0.06488752 0.05767086 0.12846193
0.09965868 -0.0018202283 0.02529005 0.16202074 0.087061815 0.05180328 0.038700595 0.05153413
0.0020097326 0.08458877 0.040084757 -0.00058280677 -0.08966502 0.0712577 0.031593356 0.08090865
-0.14728478 0.022047669 -0.063202254 0.054011196 0.037831668 -0.016619965 0.058120143 0.014227558

_layers.4.bias f4 [32]
00000000: 1eb1 323c a089 9f3d 2b6c 293d a432 853d
00000010: 38fe 6fbd 2356 62bd 10eb a93d 0946 b33c
00000020: 4c0b 89bc 80ef b43c a162 973c 72ae 7b3d
00000030: 8095 dd3c e243 6f3c 9c5b b93d 1729 9bbc
00000040: 6d8d 1fbd 8afb 183d ae8c 6d3d 61b7 193d
00000050: fa67 20bd d6bd 74bd 4cde c7bc ad65 443d
00000060: 6c52 ae3d b582 8c3d 6a2f 063d fe40 67bd
00000070: 8c8c 94bc be7e 8bbd 00bb 453b e2a6 c8bc
0.010906486 0.07789922 0.041362923 0.065037996 -0.05859205 -0.055257928 0.08296788 0.021883981
-0.01672902 0.022086859 0.018479647 0.06144566 0.027048826 0.014603587 0.09050676 -0.018940492
-0.038953234 0.03734926 0.05799549 0.0375284 -0.03916166 -0.059751354 -0.024397992 0.047948528
0.085118145 0.06860868 0.03276006 -0.056458466 -0.018133424 -0.068112835 0.0030171275 -0.024493638

_layers.6.weight f4 [6, 32]
00000000: 40ba c6bd eee3 ea3d aeb1 e13d ecb2 06be
00000010: cd55 f9bd bce3 9b3c b46c 813c 2b57 0b3e
00000020: 41a0 243e e9f1 46be 4e84 a23b 0b23 82bd
00000030: 28bb 983c 5bb4 36be da66 75be 7130 343d
00000040: 9d45 143e fd50 b7bd 0765 9cbc ee29 313e
00000050: ec9a 9ebd 9695 393e 638f 203e d762 32bd
00000060: a172 433e c05b 27be 0388 423e e251 d03c
00000070: c35c 93bd 4110 0d3e f67f d33d 0084 d1bd
00000080: 5790 773d 9390 10be bc24 ffbd 108b a43d
00000090: 56b6 17bd 781b b53d 03e5 4dbe f356 3b3d
000000a0: 407b 54bc 812a dc3d 122a 693d b173 c3bd
000000b0: a6f6 6bbd 371b 19be 7fa7 a93c 6565 a6bd
000000c0: 43be 22be 68a7 103e b375 1d3d 618e 12bd
000000d0: 0b90 2dbe 93e0 12be ca54 2cbe 8ff1 83bd
000000e0: 42fa 6a3d a939 c73d da4c be3d f4c2 16be
000000f0: 9579 9abd 9252 d03d c355 023e 0947 a2bd
00000100: 481e 6dbe d001 3b3e 01e9 63be 4d0a 333e
00000110: 1c47 1d3e 32af 893d 2a04 623d 4d58 683d
00000120: 6621 a93d 64ca 4c3d c37e 5fbe 0663 4d3e
00000130: a9cf 233e fe63 cbbd 8f3e 7f3e 34cd 69bd
00000140: f055 ba3c c046 9bbd b746 5c3e a0a8 63be
00000150: ddff 083e 6983 6abe 0c0d 40bd f031 5a3e
00000160: 1ac9 2abe 3139 613e 2dcb 113e 1dac d5bd
00000170: a4f6 bdbd 52ae c4bd b066 483c 52ac 823e
00000180: f7da 4dbd e587 56bd 9fda c33c d44e 313e
00000190: da21 6abe 6744 dcbd 8a35 ec3b 5a6c 113e
000001a0: 3088 7cbc 94b3 ea3d ad7e 873e 0477 1a3e
000001b0: 320e cb3d ce42 28be 3b7b 84be 6d9b 313e
000001c0: 38ae b6bd 5a1a 80bd 3021 d6bd 6faa 90bd
000001d0: 5d05 00be c28e fe3d 6afc f33d acc1 243d
000001e0: 6431 18be c62f 6fbe 634f 573d 2b7a c03d
000001f0: 7bfa 183e 88db f03c f8d5 273d 93cf 953c
00000200: 81f4 813e e569 61bd 9bd4 99bd 240a 83be
00000210: 5724 9a3c 0821 023d 7a5a 26be f11a 25be
00000220: f6e2 b63d c834 373e 21a3 b1bd 38b7 06be
00000230: 896f 243e 805b 593e 3d52 243e a137 62be
00000240: d6a7 e63d bdf2 f63d 7866 3fbe 8448 bf3d
00000250: 298d 19bd c4b8 14bb f395 8dbd 6b0d 2f3e
00000260: 18ad ab3d 6be1 50be 9616 843d 7df6 20be
00000270: f338 dd3d d839 253d 20bd 90bd 433b 0a3d
00000280: f75c c2bd d2b1 b33c 37b5 2b3e 8542 ecbd
00000290: 9534 113e d093 29bd 20e9 e73d 920e 14bb
000002a0: a008 883c f3d1 c73d bb82 50be 03f1 483e
000002b0: 79b3 e5bd 33a2 a43d f1a2 133e f347 e7bd
000002c0: 2463 8f3d 47aa 763d c084 6dbd aaf6 2fbe
000002d0: be41 dd3d 788c 183d a80a 303d aaec fabd
000002e0: c825 4dbe 811e f33d 0f58 c63d 8286 5bbe
000002f0: ec7c fa3d ef30 dbbd b6da fe3d 8f12 163e
-0.09703493 0.114692554 0.11020218 -0.13154191 -0.12174568 0.01902949 0.015798904 0.1360747
0.16076757 -0.19428219 0.0049596196 -0.0635434 0.01864393 -0.17842238 -0.23965016 0.04399151
0.1447968 -0.08950994 -0.019091142 0.17301151 -0.07744393 0.18123469 0.15679698 -0.043551292
0.19086696 -0.16343594 0.18997197 0.02542967 -0.07195427 0.13775732 0.10327141 -0.10230255
0.060440388 -0.1411765 -0.124581784 0.080343366 -0.037039123 0.0884313 -0.20106892 0.045737218
-0.012968838 0.107502945 0.056924887 -0.09543551 -0.05760827 -0.14951788 0.020709751 -0.08124808
-0.15892892 0.1412636 0.038442325 -0.035780314 -0.1694948 -0.14343481 -0.1682922 -0.06442558
0.05736757 0.09727795 0.09292002 -0.14722806 -0.07542721 0.10171999 0.12728028 -0.07923705
-0.23156083 0.1826241 -0.22256853 0.17484398 0.15359157 0.06722869 0.055179752 0.056724835
0.08258323 0.049997702 -0.218257 0.20057306 0.15997185 -0.09931181 0.24926208 -0.057080463
0.022746056 -0.07581854 0.2151135 -0.22232294 0.13378854 -0.22901691 -0.046887442 0.21308112
-0.16678277 0.21994473 0.14237662 -0.10433219 -0.092755586 -0.096035615 0.012231514 0.25522095
-0.05025765 -0.052375693 0.023907958 0.17315227 -0.22864476 -0.10755234 0.007208531 0.14201489
-0.015413329 0.11460033 0.26463833 0.15084463 0.09914817 -0.16431734 -0.25875267 0.17344446
-0.08919948 -0.06255026 -0.10455549 -0.07063758 -0.12502046 0.12429573 0.119133785 0.040223762
-0.14862591 -0.23358068 0.052565943 0.09398302 0.149393 0.029401556 0.04097554 0.018287456
0.25381854 -0.05503263 -0.075112544 -0.25593674 0.018816156 0.031769782 -0.16245452 -0.16123559
0.08930008 0.17891228 -0.086736925 -0.1315583 0.16058172 0.2122631 0.16046996 -0.22091533
0.11262481 0.120580174 -0.18691432 0.09340003 -0.037488136 -0.0022693137 -0.06913366 0.17094962
0.083826244 -0.2039849 0.064496204 -0.15719028 0.10801878 0.040338367 -0.07067323 0.033747923
-0.09490388 0.021935377 0.16768347 -0.11536125 0.14180215 -0.04140073 0.11323762 -0.0022591692
0.016605675 0.097568415 -0.2036237 0.19623189 -0.11215872 0.080387495 0.14417626 -0.1129302
0.070013314 0.060220983 -0.05798793 -0.17183939 0.10803555 0.037243336 0.042978913 -0.12252171
-0.20033944 0.118710525 0.096847646 -0.2143803 0.12230858 -0.10702693 0.124440596 0.14655517

_layers.6.bias f4 [6]
00000000: f4a0 4abd 5d6c 35be abff ffbc 444f dbbd
00000010: f1ad 763d 9f58 e33d
-0.049469903 -0.17717119 -0.031249842 -0.10708478 0.060224477 0.111008875
