models/gg-2023-11-10_15-17.pt (torch, 224656 bytes, 8 tensors)

_layers.0.weight f4 [256, 19]
0	0xbd2e1ea4	-0.04250969
1	0x3bf89b60	0.0075868815
2	0x3e0afac1	0.13572218
3	0x3e189bb7	0.1490315
4	0xbcec2318	-0.028825328
5	0x3e66f607	0.2255479
6	0xbdfa20df	-0.12213301
7	0x3c7ca4e0	0.015420169
8	0xbe133c10	-0.14378381
9	0x3d19d434	0.03755589
10	0x3e561d09	0.20909514
11	0xbe4252f2	-0.18976954
12	0x3d5d0d14	0.05396755
13	0xbe57e66a	-0.2108399
14	0xbd522a84	-0.051310077
15	0xbddcd1a8	-0.10782176
16	0x39cac200	0.00038672984
17	0xbe2307c4	-0.15920931
18	0x3d6ea6dc	0.0582646
19	0xbe399161	-0.18121864
20	0x3e0d4183	0.13794522
21	0xbd423979	-0.04741809
22	0xbe06b179	-0.13153638
23	0x3e8b1f23	0.27172193
24	0x3d31d3a4	0.043414727
25	0xbdf800f2	-0.12109555
26	0xbe053906	-0.13010034
27	0xbd8f9bdc	-0.0701215
28	0xbdc4322c	-0.09579882
29	0x3d3dc572	0.046330877
30	0xbb172893	-0.0023064956
31	0x3e805ee3	0.25072393
32	0x3d7dae6e	0.061933927
33	0xbdcc881d	-0.09986899
34	0x3e58d4a1	0.21174861
35	0x3dbb4b02	0.09145166
36	0xbd0dabba	-0.0345876
37	0x3e58994f	0.21152233
38	0x3e409637	0.18807302
39	0xbe45c573	-0.19313602
40	0xbe41c0c5	-0.18921192
41	0xbe1a8838	-0.15091026
42	0xbe4a05fe	-0.19728848
43	0xbd8cf702	-0.068830505
44	0x3dabfe3e	0.08398102
45	0xbe564c78	-0.20927608
46	0xbe659a83	-0.22422223
47	0xbe4a4990	-0.19754624
48	0xbdf525b1	-0.1197008
49	0x3e134a1b	0.14383738
50	0x3e50484b	0.20340078
51	0x3e6960ab	0.22790782
52	0x3b23cac0	0.0024992675
53	0xbe46f785	-0.19430359
54	0x3e6517ef	0.22372411
55	0xbe1de9ea	-0.15421262
56	0x3db164ce	0.08661805
57	0x3e0ce247	0.13758193
58	0x3d2e7f79	0.042602036
59	0x3dd7a856	0.105301544
60	0xbe4c8c22	-0.19975331
61	0xbdd4fe2e	-0.104000434
62	0xbe10c423	-0.1413732
63	0x3e42b9a9	0.19016136
64	0xbdd7e085	-0.105408706
65	0xbc3bf2c1	-0.011471451
66	0x3e64c822	0.2234197
67	0x3e93873d	0.28814116
68	0xbe2697f2	-0.162689
69	0xbe3050a9	-0.1721827
70	0x3e2f7eb9	0.17138185
71	0x3dcc4f7f	0.099761
72	0xbe38f2cc	-0.1806137
73	0x3e99d7fb	0.30047593
74	0xbe1c9039	-0.15289392
75	0x3e64b04b	0.22332875
76	0x3e1da3df	0.15394543
77	0x3e703578	0.23457897
78	0xbd68fda8	-0.05688253
79	0x3ca6cdf2	0.020361874
80	0xbea19f94	-0.3156706
81	0x3e0e371b	0.13888209
82	0xbc3dc55c	-0.011582699
83	0x3e4fdbf2	0.20298746
84	0xbe00345d	-0.12519975
85	0x3e5eec2d	0.21769781
86	0x3e41615f	0.188848
87	0xbd33499d	-0.043771375
88	0x3d87e07d	0.066346146
89	0xbe6b7063	-0.22992091
90	0xbe237576	-0.15962777
91	0xbe1edabb	-0.15513127
92	0xbe61d343	-0.22053246
93	0x3d85750a	0.06516464
94	0xbdfa92ee	-0.12235056
95	0xbd217ea1	-0.039427403
96	0x3e94dacc	0.2907318
97	0x3d8be579	0.06830878
98	0xbd9f5666	-0.07780151
99	0xbcc8ccda	-0.024511743
100	0xba29c1ca	-0.0006475715
101	0x3e0b0f29	0.13580002
102	0x3e3e139b	0.18562166
103	0x3e6bb8a5	0.23019655
104	0xbe042e8e	-0.12908384
105	0xbd345484	-0.044025913
106	0x3dd3985a	0.10331793
107	0xbd536523	-0.051610123
108	0x3e2a912e	0.16656944
109	0xbb30144b	-0.0026867564
110	0x3d9c36d2	0.07627644
111	0xbe638643	-0.22219186
112	0x3e54e199	0.20789184
113	0xbddf816d	-0.10913358
114	0x3b623662	0.0034517278
115	0xbdd9afd8	-0.10629243
116	0x3e5242ce	0.20533296
117	0x3d95a6a4	0.07307175
118	0x3cb9a26a	0.022660453
119	0xbe24264c	-0.16030234
120	0xbdee2583	-0.116282485
121	0x3e21bec3	0.15795426
122	0x3e1b33a8	0.15156424
123	0x3e3b3dc0	0.18285275
124	0xbe2d34f0	-0.16914725
125	0xbb83ed75	-0.00402611
126	0x3dd30540	0.10303736
127	0x3d6e3246	0.058153413
128	0xbdb5dbc9	-0.08879811
129	0xbed3f933	-0.4140106
130	0xbe93121d	-0.28724757
131	0xbde8500f	-0.11343395
132	0x3de1dc34	0.110283285
133	0x3c8f4f51	0.017493876
134	0xbdbde4b4	-0.09272137
135	0x3d223dc7	0.039609697
136	0xbdbc6db3	-0.09200611
137	0xbe98bbc7	-0.29830763
138	0x3e3e5844	0.18588358
139	0xbde6436e	-0.1124333
140	0xbbbed8a7	-0.005824167
141	0x3d9e808e	0.077393636
142	0x3d909ce9	0.07061178
143	0xbdad3eab	-0.084592186
144	0xbe56375a	-0.20919552
145	0x3e5af39c	0.21381992
146	0xbbc6872f	-0.0060585956
147	0x3e747d87	0.2387601
148	0x3e08b4c7	0.13350211
149	0x3e701925	0.23447092
150	0x3ca92ad0	0.020650297
151	0xbd39d856	-0.04537233
152	0xbde9295f	-0.11384844
153	0x3e0cb4ab	0.13740794
154	0x3e6de74b	0.23232763
155	0x3e075a55	0.13218053
156	0x3e8be237	0.27321026
157	0x3e7bc916	0.24588427
158	0x3e2cc9a5	0.16873796
159	0xbe24916f	-0.16071104
160	0xbdbd4071	-0.09240807
161	0xbc2b0c74	-0.010439981
162	0xbe3844c6	-0.17994985
163	0xbd686107	-0.056733157
164	0xbd5e2154	-0.054231003
165	0x3e965522	0.29361826
166	0xbd00665c	-0.031347618
167	0x3e760757	0.24026237
168	0xbe728827	-0.2368475
169	0xbe587286	-0.21137437
170	0x3d379382	0.04481841
171	0x3d3b434c	0.045718476
172	0xbdbd9874	-0.09257594
173	0xbdedc5ac	-0.116099685
174	0x3d85d1ee	0.065341815
175	0x3c3c4da0	0.011493117
176	0xbcfbc7a0	-0.030734837
177	0x3dee866e	0.11646734
178	0xbdc7cfa2	-0.097564
179	0x3e38caab	0.18046062
180	0xbe2035c3	-0.15645508
181	0xbdf47f86	-0.11938386
182	0x3da2bace	0.079457864
183	0x3e105f3b	0.14098828
184	0xbb381700	-0.002808988
185	0xbe386999	-0.18009032
186	0xbc162750	-0.009164646
187	0xbd9e9f46	-0.07745223
188	0xbd962158	-0.073305786
189	0xbd2db078	-0.04240462
190	0x3d621504	0.055195823
191	0xbd5abc2c	-0.05340211
192	0xbe24be38	-0.16088188
193	0xbdea973f	-0.11454629
194	0xbe44c570	-0.19215941
195	0xbe6aa6bf	-0.22915171
196	0x3de30eee	0.11086832
197	0x3e034307	0.12818538
198	0x3e318683	0.17336468
199	0x3c94c6b0	0.018161148
200	0xbdc14128	-0.09436256
201	0xbe0d4a9e	-0.13797995
202	0x3dea038e	0.11426459
203	0xbe0df90a	-0.13864532
204	0x3e2f8f5b	0.1714453
205	0xbdfed383	-0.124426864
206	0xbe5b26f5	-0.2140158
207	0xbe292e4e	-0.1652157
208	0x3e3f551b	0.18684809
209	0x3e35b7f3	0.17745952
210	0x3db476c7	0.088117175
211	0x3ca51d4e	0.020155575
212	0x3e5f0605	0.2177964
213	0x3e47597d	0.19467731
214	0x3e1fdaf5	0.15610869
215	0xbe2989f5	-0.16556533
216	0x3dc97f8a	0.09838779
217	0x3e6b7b81	0.22996332
218	0xbe30dd08	-0.17271817
219	0x3e42db19	0.19028892
220	0xbe010d46	-0.1260272
221	0xbd8fd1d4	-0.070224434
222	0xbdd7c76f	-0.10536086
223	0x3d8f7552	0.07004799
224	0x3da25a67	0.07927399
225	0xbe37a35c	-0.1793341
226	0x3e001ddb	0.12511389
227	0x3d604e62	0.05476225
228	0x3cab9056	0.020942848
229	0xbe7c4a6b	-0.24637763
230	0x3e8981d3	0.2685686
231	0xbd08276b	-0.033240717
232	0xbdc2f314	-0.0951902
233	0x3e8e8f68	0.27843785
234	0xbd57388f	-0.052544173
235	0x3e7fc816	0.2497867
236	0x3e54505b	0.20733778
237	0xbdcd3338	-0.10019535
238	0xbe4e3e38	-0.20140922
239	0xbd7cfb9e	-0.0617634
240	0x3dfe9c45	0.1243215
241	0x3e85059b	0.2598084
242	0x3d371221	0.044695023
243	0xbc93f294	-0.018060006
244	0x3c8da968	0.017292693
245	0xbddb74f4	-0.107156664
246	0x3e883906	0.26606005
247	0x3a56e925	0.00081981934
248	0xbe774059	-0.2414564
249	0xbe16c91d	-0.14725156
250	0x3e2cb9fa	0.1686782
251	0x3dc32c44	0.095299274
252	0x3e23aba4	0.15983444
253	0xbb9fb2dd	-0.004873617
254	0x3c95a066	0.01826496
255	0x3dc3aad4	0.09554067

_layers.0.bias f4 [256]
0	0xbe3ee8f1	-0.18643548
1	0x3cce96f1	0.025218459
2	0xbe072d8c	-0.13200969
3	0x3e4e751b	0.2016186
4	0x3e03742b	0.12837283
5	0xbd3f8fe9	-0.046768103
6	0xbda0caa9	-0.07851154
7	0xbdfdb03b	-0.12387129
8	0xbdb5f96b	-0.08885463
9	0xbdcdbc9e	-0.100457415
10	0xbd037edc	-0.032103404
11	0x3e2334fe	0.15938184
12	0xbe15d654	-0.14632541
13	0x3da7b21b	0.08188268
14	0xbe683873	-0.22677784
15	0xbd96e60c	-0.07368097
16	0xbddda585	-0.10822586
17	0x3e06b914	0.13156539
18	0x3dc7cd06	0.09755902
19	0xbd800cdc	-0.06252453
20	0xbe472e59	-0.19451274
21	0xbe0a5113	-0.1350749
22	0xbe693eea	-0.22777906
23	0x3cab4a2f	0.020909397
24	0x3e069c83	0.13145642
25	0xbd02e248	-0.03195408
26	0x3e1d0706	0.1533471
27	0xbda06a7e	-0.07832812
28	0x3d7c6607	0.06162074
29	0xbe03abe4	-0.1285854
30	0xbd6f5832	-0.05843372
31	0x3e2e0585	0.16994293
32	0x3e4d1113	0.20026045
33	0x3dd26cbd	0.102746464
34	0xbc9a8cf5	-0.018866042
35	0xbd01c5c4	-0.031682745
36	0xbe28503f	-0.16436861
37	0xbd03b7d1	-0.032157723
38	0xbd7cf414	-0.06175621
39	0x3e09f432	0.1347206
40	0xbe3ed87f	-0.18637274
41	0x3d8ba011	0.068176396
42	0x3d286b4a	0.041117944
43	0xbe48c5b9	-0.19606675
44	0xbdb6d916	-0.089281246
45	0x3e26323a	0.16230097
46	0xbd1ac1d4	-0.037782505
47	0x3e0b6a63	0.13614802
48	0x3e550e1f	0.20806168
49	0xbe1eab2a	-0.15494981
50	0x3d9fc40a	0.07801063
51	0x3e113eb5	0.14184077
52	0xbdd5f60e	-0.10447322
53	0xbe1212df	-0.14265011
54	0x3dc3d22c	0.095615715
55	0xbd48bf6a	-0.04901067
56	0xbbb9d6b1	-0.005671345
57	0xbd7eaeb0	-0.062178314
58	0xbe58b773	-0.2116373
59	0x3dac538b	0.08414372
60	0x3d5dceeb	0.05415241
61	0x3e2fa5c1	0.17153074
62	0xbbcbd86c	-0.006220868
63	0x3e71772a	0.23580614
64	0xbe19ac3b	-0.15007107
65	0x3dcb4db6	0.099269316
66	0x3e6747cc	0.22585982
67	0x3de88a17	0.113544635
68	0x3d13d4a4	0.03609146
69	0xbd864c36	-0.06557505
70	0x3c472bda	0.012156451
71	0x3e5c31e7	0.21503411
72	0xbd4e7ba4	-0.05041088
73	0x3e47221a	0.19446602
74	0xbe2b62f4	-0.16736966
75	0x3d9e0a05	0.07716755
76	0xbdf26386	-0.11835389
77	0xbe39298a	-0.18082252
78	0x3e67ca18	0.22635686
79	0xbd628ac2	-0.05530811
80	0xbd12fce8	-0.03588572
81	0xbbe590a1	-0.0070057665
82	0x3e4b7b60	0.19871283
83	0xbe0a7946	-0.13522825
84	0xbdac1da4	-0.08404091
85	0x3cea50df	0.028603015
86	0x3d5aa39a	0.05337868
87	0xbe2e522c	-0.17023534
88	0x3dff698f	0.124713056
89	0xbe4c75ca	-0.19966808
90	0x3e70a08e	0.23498747
91	0x3e3a1c6b	0.18174903
92	0x3d4b46ad	0.04962795
93	0x3e531e5a	0.20617047
94	0xbe5d183f	-0.2159128
95	0x3ddcab55	0.107748665
96	0xbe4d2b4e	-0.2003605
97	0x3e4ad5e3	0.19808154
98	0xbdcef8c8	-0.10106045
99	0x3e126075	0.14294608
100	0x3d1eabca	0.03873805
101	0xbdb00d59	-0.08596296
102	0xbda4b1c4	-0.080417186
103	0x3e593dca	0.21214977
104	0xbde556b6	-0.111981794
105	0x3db9a8ca	0.09065397
106	0x3e5efc5f	0.2177596
107	0xbd39d9b0	-0.04537362
108	0x3be881d5	0.0070955553
109	0x3dadec77	0.08492368
110	0x3e3147cb	0.17312543
111	0x3d9b01ea	0.075687245
112	0x3cccaf7e	0.024986025
113	0xbe3074c8	-0.17232049
114	0xbe28feef	-0.165035
115	0xbd8be09e	-0.06829952
116	0xbe1a0e42	-0.15044501
117	0xbd165505	-0.036702175
118	0x3e27687d	0.16348453
119	0xbde5d1d6	-0.11221664
120	0x3e27fd5f	0.16405247
121	0xbe402b70	-0.1876657
122	0x3e2748ac	0.16336316
123	0xbddb703e	-0.10714768
124	0x3e7c714d	0.24652596
125	0xbe22a7fa	-0.1588439
126	0xbe3721a1	-0.17883922
127	0x3e52026b	0.20508735
128	0x3dfcac25	0.123375215
129	0xbe4ceb76	-0.20011696
130	0xbe385dab	-0.18004481
131	0x3e6ef7e9	0.23336758
132	0x3def1853	0.11674561
133	0xbe4808ce	-0.19534609
134	0xbd4d7e35	-0.05016919
135	0xbba9e7a4	-0.0051850844
136	0xbdf34b55	-0.11879603
137	0x3ce31d09	0.027723806
138	0xbe064f46	-0.13116178
139	0xbccdaaaa	-0.025105793
140	0x3d72f457	0.059315052
141	0x3e582718	0.21108663
142	0xbdd578e3	-0.10423448
143	0x3dfd6bcf	0.123740785
144	0xbe59e043	-0.21276955
145	0xbcf7a99c	-0.030232243
146	0x3d7c2f82	0.061568744
147	0xbdacdcb8	-0.08440536
148	0x3d49bf56	0.049254738
149	0x3e2b5461	0.16731407
150	0x3e2cc186	0.16870698
151	0xbda079ca	-0.078357294
152	0xbe09332d	-0.13398428
153	0x3e596522	0.21229985
154	0x3cb30b14	0.021855868
155	0xbe559e25	-0.20861109
156	0xbdfc75d3	-0.12327161
157	0x3dcd8787	0.100356154
158	0x3e05e786	0.130766
159	0x3c0a77c1	0.008451403
160	0x3e2e20d0	0.17004704
161	0x3e79ec81	0.24406625
162	0x3d08a27b	0.03335808
163	0x3e371051	0.17877318
164	0x3e7f8891	0.2495444
165	0x3e57a67f	0.21059607
166	0x3e800b17	0.2500846
167	0xbe28bd74	-0.1647852
168	0xbdc2c175	-0.09509555
169	0xbd82dc78	-0.06389707
170	0x3dcaf684	0.099103004
171	0x3ca6fad9	0.020383285
172	0xbb9a13e0	-0.0047020763
173	0x3dc22fd2	0.09481777
174	0xbde2717a	-0.110568
175	0x3e803605	0.25041214
176	0xbe5d737f	-0.2162609
177	0x3e07d49d	0.132647
178	0x3e56aa56	0.20963416
179	0x3e13f28b	0.14447992
180	0x3e550e27	0.2080618
181	0x3e45f8d0	0.19333196
182	0x3c9a47ea	0.01883312
183	0x3df4a2d1	0.11945117
184	0xbd3f37ee	-0.046684198
185	0x3dd8019e	0.105471835
186	0x3dfd25cb	0.12360724
187	0x3e171f2a	0.14757982
188	0xbe19c891	-0.15017916
189	0x3e3251e5	0.17414053
190	0x3c067c55	0.008208354
191	0x3e4da74f	0.20083354
192	0x3e625ee6	0.22106513
193	0x3c181f35	0.009284784
194	0xbdee4ca4	-0.11635712
195	0xbd20e0e4	-0.039276972
196	0x3e03228b	0.12806146
197	0x3e31b794	0.17355186
198	0xbe192523	-0.14955573
199	0xbe4bd5b4	-0.1990574
200	0xbe37f652	-0.17965057
201	0x3dc47800	0.09593201
202	0x3e131937	0.14365087
203	0x3e4847df	0.19558667
204	0xbca6c835	-0.020359138
205	0x3dd12fc4	0.10214189
206	0x3d8392a8	0.06424457
207	0xbd049298	-0.032366365
208	0xbe2074c7	-0.15669547
209	0x3d8112d8	0.06302422
210	0xbd8fbd5d	-0.0701854
211	0x3e491649	0.19637407
212	0x3e4698f9	0.19394292
213	0x3e3f1ea8	0.18664038
214	0x3e2a3427	0.16621457
215	0xbcf34ffd	-0.029701227
216	0x3c796dd7	0.015223942
217	0x3e295f9b	0.16540377
218	0xbe3c25b9	-0.18373765
219	0x3dea775e	0.11448549
220	0x3e1c642d	0.15272589
221	0xbb713546	-0.0036805435
222	0x3d6647d4	0.056220844
223	0xbe2b576f	-0.16732572
224	0x3e5d8f8b	0.21636789
225	0xbd1f84b9	-0.038944934
226	0xbe26e94b	-0.16299932
227	0xbe1c3054	-0.1525281
228	0xbd360f1b	-0.044448
229	0xbc1d6679	-0.009606951
230	0xbde42815	-0.111404575
231	0xbdd100b7	-0.102052145
232	0x3e3aa1c0	0.18225765
233	0xbd16ae3a	-0.03678725
234	0xbe264d08	-0.16240323
235	0x3de1d80e	0.11027537
236	0x3bbd0a80	0.005769074
237	0x3d6865f5	0.05673786
238	0xbe25394f	-0.16135143
239	0xbe4ff0a5	-0.20306642
240	0x3c828ad3	0.015935337
241	0xba60b342	-0.00085716334
242	0xbe1cfb36	-0.15330204
243	0xbe0452b0	-0.12922168
244	0x3d29bf8e	0.041442446
245	0x3d95cb39	0.07314152
246	0x3c97d548	0.018534318
247	0x3d94a61f	0.072582476
248	0xbe617194	-0.22015983
249	0xbce55c59	-0.027998136
250	0x3e456c16	0.19279513
251	0xbdfcdea0	-0.1234715
252	0x3d52f484	0.05150272
253	0x3d87682c	0.06611666
254	0xbe02c914	-0.12772018
255	0x3e22584d	0.15853997

_layers.2.weight f4 [128, 256]
0	0x3d1b56d4	0.037924603
1	0x3c82b9dd	0.015957767
2	0x3d508292	0.05090577
3	0xbd0c265e	-0.034216277
4	0x3e0f89e0	0.14017439
5	0x3de28124	0.11059788
6	0x3e89199a	0.26777345
7	0xbdb2091e	-0.08693145
8	0x3c0a369b	0.0084358705
9	0xbbec8740	-0.0072182715
10	0xbd7b2bdc	-0.061321124
11	0xbb6b1b25	-0.0035874334
12	0x3c8fb9d4	0.017544664
13	0x3d8e8b4d	0.06960163
14	0xbd742616	-0.059606634
15	0x3df476ea	0.119367436
16	0x3c9fe2eb	0.019517383
17	0xbbedcc93	-0.007257053
18	0x3d299c8f	0.04140907
19	0x3d989f8c	0.07452306
20	0xbd7e5fc6	-0.062103055
21	0xbd821665	-0.06351928
22	0xbd0f6734	-0.03501053
23	0x3d7433de	0.059619777
24	0xbb943ab0	-0.0045235977
25	0xbb182440	-0.0023214966
26	0x3db0756b	0.08616146
27	0xbd17c958	-0.03705725
28	0xbdfffba5	-0.12499169
29	0x3d2d1516	0.042256437
30	0x3d37a562	0.044835456
31	0x3d85d23c	0.0653424
32	0x3db4c60d	0.08826838
33	0xbd8ee93d	-0.069780804
34	0xbd2a8bcd	-0.04163723
35	0x3d967517	0.07346552
36	0xbc297bab	-0.010344426
37	0x3debab07	0.1150723
38	0x3c123544	0.008923832
39	0x3d9ed272	0.07754983
40	0x3d102f22	0.0352012
41	0xbda47739	-0.080305524
42	0xbdd76009	-0.10516364
43	0x3dcc7b29	0.099844284
44	0xbd719e62	-0.058988936
45	0xbd04ca25	-0.032419343
46	0xbcc2a8bb	-0.023762098
47	0x3d5d8439	0.054081175
48	0xbd15be64	-0.036558524
49	0x3d01afb4	0.031661704
50	0x3cce3590	0.025172025
51	0xbbb1cb90	-0.005425878
52	0xbd66a236	-0.05630704
53	0xbcfc40b4	-0.030792572
54	0xbe056ed3	-0.13030557
55	0x3cb503e6	0.022096585
56	0x3cd5701f	0.02605444
57	0x3c95a030	0.01826486
58	0xbd1ed210	-0.03877455
59	0x3da37ab9	0.07982392
60	0xbca706c2	-0.020388965
61	0x3cd8acd1	0.026449593
62	0x3d8ac3e6	0.06775646
63	0xbb9dce83	-0.004815878
64	0xbd679f56	-0.05654844
65	0x3e10a785	0.14126404
66	0xbdb8d50b	-0.0902501
67	0x3d12eada	0.035868503
68	0xbcebc628	-0.028781012
69	0x3d058466	0.032596968
70	0x3da9743e	0.082741246
71	0x3cdfe11b	0.027329018
72	0xbe13fc07	-0.1445161
73	0xbdaa0233	-0.08301201
74	0x3c4614c8	0.012089916
75	0x3d3781d5	0.04480155
76	0x3d40955e	0.047017448
77	0x3c8c6e28	0.01714237
78	0xbd8490b8	-0.064729154
79	0x3d0c4fc6	0.034255765
80	0xbbd06290	-0.006359406
81	0x3ab002d5	0.0013428578
82	0x3d90147a	0.070351556
83	0x3ce3ed20	0.027823031
84	0xbbbfcb30	-0.0058530793
85	0x3c57893b	0.013155277
86	0xbda1b91e	-0.078966364
87	0xbe43bcc0	-0.19114971
88	0xbd0faeda	-0.03507886
89	0x3c3fe945	0.011713331
90	0x3dbcb996	0.09215085
91	0xbd440b19	-0.047862146
92	0x3db98f57	0.09060543
93	0xbd091199	-0.033464048
94	0x3d3e8c5c	0.046520576
95	0x3d2f7513	0.04283626
96	0x3d40a58e	0.047032885
97	0x3d49d0e4	0.04927148
98	0xbd5b3c46	-0.053524278
99	0xbd59fa25	-0.053217072
100	0x3ce49be9	0.027906375
101	0x3d943b81	0.07237912
102	0x3d071c4a	0.032985963
103	0x3c6bc85d	0.014391032
104	0x3c548760	0.012971729
105	0x3cd7585d	0.026287252
106	0x3d40bd33	0.047055434
107	0x3c97e62d	0.018542374
108	0xbd3f225f	-0.04666364
109	0xbbf20da5	-0.0073868805
110	0xbd47d2ad	-0.0487849
111	0xbd2fa8dc	-0.042885646
112	0x3e452d24	0.19255501
113	0x3d3fc1e8	0.046815783
114	0x3d09f8c0	0.033684492
115	0xbd46abc8	-0.048503667
116	0xbc451a80	-0.012030244
117	0xbdde86a6	-0.10865526
118	0xbe53f864	-0.20700222
119	0x3d0e4a7e	0.03473901
120	0xbd47e8c1	-0.048805956
121	0xbb3a8fe0	-0.0028467104
122	0x3e7c5320	0.24641085
123	0x3c8ec658	0.017428562
124	0xbc2a7e06	-0.010406023
125	0xbbe80d51	-0.0070816656
126	0x3d48a844	0.048988596
127	0xbcae9309	-0.021310346
128	0x3cb57f2e	0.02215537
129	0xbc2ca6c8	-0.010537811
130	0x3cfc6048	0.03080763
131	0xbcde0fe8	-0.027107194
132	0xbcb6345e	-0.022241767
133	0xbd1578da	-0.036492206
134	0x3cd4070f	0.025882272
135	0x3db87b8b	0.09007939
136	0xbd62b0f2	-0.05534453
137	0x3d7ec7bc	0.0622022
138	0x3dc37987	0.09544664
139	0x3d24942e	0.040180378
140	0x3d5a0f89	0.05323747
141	0x3d139560	0.036031127
142	0xbca130f4	-0.019676663
143	0x3ccf4ae0	0.025304258
144	0x3d078183	0.033082496
145	0x3d10075e	0.035163276
146	0x3d4430db	0.047898155
147	0x3cf8d757	0.03037612
148	0xbddd1d5a	-0.10796614
149	0x3da90f53	0.08254876
150	0x3d1dc3e4	0.038516894
151	0xbd216fb4	-0.03941317
152	0x3d488e62	0.04896391
153	0x3d91136d	0.07083783
154	0xbdb7e7e2	-0.08979775
155	0x3c86eb70	0.016469687
156	0xbd05d368	-0.032672316
157	0xbdb4828e	-0.08813964
158	0x3d81c0bb	0.063355885
159	0xbd518c28	-0.051159054
160	0x3a0d922e	0.00054005056
161	0x3d983dbb	0.07433649
162	0x3da2337f	0.07919978
163	0x3c993622	0.01870257
164	0xbd333a16	-0.043756567
165	0xbd18cfe2	-0.037307627
166	0x3e9c695f	0.30549142
167	0xbe54ef75	-0.2079447
168	0x3dbafbf0	0.091300845
169	0xbc70b8d5	-0.014692505
170	0xbd79821e	-0.060915105
171	0x3c7b3dbc	0.015334543
172	0xbd4bc88c	-0.049751803
173	0x3b52d9fb	0.0032173384
174	0x3c4933a0	0.012280375
175	0x3c78996f	0.0151733
176	0xbcc9f014	-0.024650611
177	0xbd6c68dd	-0.057717193
178	0x3d81604f	0.063171975
179	0x3d788093	0.060669493
180	0x3c57fbbc	0.013182577
181	0xbcb68176	-0.022278529
182	0xbd302bf4	-0.043010667
183	0x3dc040cb	0.09387358
184	0x3df65590	0.120280385
185	0xbd99dc66	-0.07512741
186	0xbd7545c8	-0.059881
187	0xbbf82ea1	-0.007573918
188	0xbdae8fec	-0.08523545
189	0x3e2514b1	0.16121174
190	0xbd8eb401	-0.06967927
191	0x3d925f51	0.071470864
192	0x3da283e7	0.079353146
193	0x3d8cecd6	0.0688111
194	0xbdb40e5e	-0.08791803
195	0x3c24f11c	0.010067251
196	0x3da4adb1	0.080409415
197	0x3a7fa792	0.0009752448
198	0x39a16aa9	0.0003078778
199	0x3deea20d	0.116520025
200	0xbdf4eb94	-0.119589955
201	0x3d20e27c	0.039278492
202	0x3d710d81	0.05885077
203	0x3d2b27c0	0.041785955
204	0x3e128519	0.14308585
205	0x3d26ff47	0.040770795
206	0xbed4bf34	-0.41552126
207	0xbdd00734	-0.10157624
208	0x3e8756f9	0.26433542
209	0x3caeaabb	0.021321645
210	0x3e5ef754	0.21774036
211	0x3d114733	0.03546829
212	0xbc9416f6	-0.018077355
213	0xbd993bb3	-0.0748209
214	0x3d8aa9c9	0.06770665
215	0xbd39cb7a	-0.045360066
216	0xbcc5bd2b	-0.024138054
217	0x3e1198be	0.14218423
218	0xbd2472d5	-0.040148575
219	0x3d3748db	0.044747215
220	0x3c87adbc	0.016562335
221	0xbd9ed2c3	-0.07755043
222	0xbcf92788	-0.030414358
223	0xbe6ad063	-0.22931056
224	0xbcad7247	-0.021172656
225	0xbc0777dc	-0.008268323
226	0x3d694e15	0.05695923
227	0x3c882e48	0.016623631
228	0x3d9e691c	0.07734892
229	0xbdaecb7d	-0.08534906
230	0x3dcae7ec	0.09907517
231	0xbd0925e4	-0.0334834
232	0x3ddaef9e	0.106902346
233	0xbc085eea	-0.0083234105
234	0xbe9b4dc0	-0.30332756
235	0xbb681b00	-0.0035416484
236	0x3c775918	0.015096925
237	0x3e20d884	0.15707594
238	0xbcf3dff7	-0.02976988
239	0x3cf4f7fc	0.029903404
240	0x3d356c83	0.044292938
241	0x3d3505f3	0.044195127
242	0x3dccb93a	0.09996267
243	0x3e1b5ee7	0.15172921
244	0xbd42047a	-0.04736755
245	0xbcc40245	-0.023926863
246	0x3c883288	0.016625658
247	0xbe12bdf2	-0.14330271
248	0x3d59d1db	0.05317865
249	0xbca72ebe	-0.02040803
250	0x3c4a46f3	0.012346017
251	0x3b94aba0	0.004537061
252	0xbb2c8de0	-0.0026329681
253	0x3e1b9302	0.15192798
254	0xbbb7da06	-0.005610707
255	0x3ad2e5d4	0.0016090223

_layers.2.bias f4 [128]
0	0xbd1fa403	-0.038974773
1	0x3d1f1918	0.03884229
2	0xbd1d0071	-0.0383305
3	0xbd2772c8	-0.04088095
4	0xbb1ee720	-0.0024246648
5	0x3cf874b7	0.030329091
6	0xbd730476	-0.059330426
7	0x3d430095	0.047607977
8	0x3ceac295	0.028657237
9	0x3d1ea8a2	0.03873504
10	0xbd46e3bf	-0.04855704
11	0x3b708d13	0.003670518
12	0xbd35e36f	-0.04440635
13	0x3c469040	0.012119353
14	0xbb835d16	-0.0040088994
15	0x3d0905e0	0.03345287
16	0x3da1d073	0.07901087
17	0xbd0b07f7	-0.033943143
18	0x3d123773	0.03569741
19	0xbcaf9c57	-0.021436853
20	0xbbfb0384	-0.007660331
21	0x3d1c44b6	0.038151465
22	0x3d014978	0.031564206
23	0xbc896a3d	-0.016774291
24	0x3d383982	0.04497672
25	0xbd031578	-0.032002896
26	0xbd3ac2e0	-0.045596004
27	0xbcba0697	-0.02270822
28	0x3d9a2092	0.075257435
29	0x3b8331e6	0.004003751
30	0x3cf8d00f	0.030372648
31	0x3d1eb4b9	0.03874657
32	0x3cdb565c	0.026774578
33	0x3d5ffd91	0.05468518
34	0xbd10ea87	-0.035379913
35	0xbd3a629e	-0.045504205
36	0x3da3239f	0.079657786
37	0x3d63b90a	0.05559639
38	0x3cd12520	0.025530398
39	0x3b5fb482	0.003413469
40	0x3c267d8f	0.010161771
41	0x3d161ffa	0.03665159
42	0x3d9d8217	0.07690828
43	0xbd38b793	-0.045096945
44	0x3d853f54	0.065062195
45	0x3ca3f0dc	0.020012312
46	0x3d32851f	0.043583985
47	0xbcb47c7c	-0.022032015
48	0x3c873acb	0.016507527
49	0xbc7ecb08	-0.015551336
50	0x3d8ead9b	0.06966706
51	0x3d192c6d	0.037395883
52	0x3da8443d	0.082161404
53	0x3af41751	0.0018622671
54	0x3d574550	0.052556336
55	0x3c72950f	0.014806046
56	0x3db19cdb	0.08672496
57	0xbcaa85c6	-0.020815741
58	0x3d2c7a32	0.042108722
59	0x3d2773b2	0.04088182
60	0xbb16b491	-0.002299581
61	0xbd1a2e3e	-0.037641756
62	0xbc0c2c58	-0.008555494
63	0x3d88ec3e	0.066856846
64	0xbcdd387f	-0.027004478
65	0x3d1f860b	0.038946193
66	0x3d2a5107	0.04158118
67	0xbc62c880	-0.013841748
68	0x3cb2b518	0.021814868
69	0xbcd43416	-0.025903743
70	0x3ceafe10	0.0286856
71	0x3d4ac9b1	0.049508754
72	0x3d17473d	0.036933172
73	0xbc9a1f4d	-0.018813754
74	0xbcbd66d4	-0.023120321
75	0xbc24b70d	-0.010053408
76	0xbd047fe8	-0.032348543
77	0xbcc0cf40	-0.023536325
78	0x3cb63582	0.022242311
79	0xbd05c562	-0.032658942
80	0x3d59bb68	0.05315724
81	0x3d04664a	0.032324113
82	0xbd6d2b1c	-0.05790244
83	0x3d59e599	0.053197477
84	0xbc7adc6c	-0.015311342
85	0xbcb96d46	-0.022635113
86	0xbd21fb8e	-0.039546542
87	0x3d926fad	0.07150207
88	0x3d2f8ee2	0.042860873
89	0x3c816e0c	0.015799545
90	0xbcb19fcd	-0.021682644
91	0x3b8d68be	0.0043154648
92	0x3d561813	0.052269053
93	0x3cff6da9	0.03118022
94	0xbd20dea6	-0.039274834
95	0xbc4dabf8	-0.012553208
96	0xbd381896	-0.044945322
97	0x3d5646da	0.052313663
98	0xbbad41cd	-0.005287385
99	0x3d8ae740	0.06782389
100	0x3b1306a5	0.002243438
101	0x3db0a056	0.08624332
102	0x3d44f63d	0.048086394
103	0x3c9b70d2	0.018974695
104	0xbd68bfbb	-0.056823473
105	0xbad9b65a	-0.0016610131
106	0x3c0c0760	0.00854668
107	0xbd6003d0	-0.054691136
108	0xbcad1791	-0.021129401
109	0xbc0dfb63	-0.008665892
110	0x3d31373e	0.043265574
111	0xbd0bf97c	-0.034173474
112	0xbcde6809	-0.027149217
113	0x3d0dbaf3	0.034602117
114	0x3ca0492b	0.01956614
115	0xbd09de3c	-0.033659205
116	0x3db2d8c8	0.08732754
117	0xbd19d2b6	-0.037554465
118	0x3c65ec0c	0.014033329
119	0xbc9ac454	-0.018892445
120	0xbc89a031	-0.016800018
121	0xbcfbf774	-0.030757643
122	0x3cc3c1ec	0.02389618
123	0x3d301bee	0.042995386
124	0xbd2bb337	-0.04191896
125	0xbd5aa7d2	-0.053382702
126	0xbbe77c33	-0.0070643662
127	0x3cb0aa33	0.021565532

_layers.4.weight f4 [128, 128]
0	0xbc3461ab	-0.011009614
1	0xbcf43f6c	-0.029815398
2	0xbc931e05	-0.01795865
3	0xbd1807f1	-0.03711695
4	0x3c05f128	0.008175172
5	0x3c4005f3	0.011720168
6	0xbcbb3170	-0.022850722
7	0x3c9f61fc	0.019455902
8	0x3da625f6	0.08112709
9	0xbda12ce8	-0.07869893
10	0xbb9c77f9	-0.004775044
11	0x3ca93dee	0.020659413
12	0xbdb2febd	-0.08739994
13	0x3d9280c3	0.071534656
14	0xbdae753a	-0.08518453
15	0x3d9cdfbc	0.076598614
16	0x3c0d8a5a	0.008638943
17	0x3d8cd3d7	0.06876343
18	0x3d7619e8	0.0600833
19	0xbd8dcee9	-0.069242306
20	0x3d86b864	0.065781385
21	0x3d24cab7	0.040232386
22	0x3d76a53b	0.06021617
23	0xbd5c67ac	-0.053809807
24	0x3d92f575	0.071757235
25	0xbd9c6ca9	-0.07637913
26	0x3d2af7ae	0.041740112
27	0xbdbe72c4	-0.092992336
28	0xbb489fff	-0.0030612943
29	0x3d525522	0.05135072
30	0x3d8b35fa	0.067974046
31	0x3d7d973b	0.061911803
32	0xbc7db135	-0.015484144
33	0x3d09a2df	0.03360259
34	0x3d662ca2	0.05619491
35	0xbd7eb607	-0.062185314
36	0x3d5fd276	0.05464407
37	0x3dc6207d	0.096741654
38	0x3c4d1194	0.012516398
39	0xbd8c9e09	-0.0686608
40	0x3d64889e	0.05579435
41	0xbddc0503	-0.107431434
42	0x3c672215	0.014107247
43	0xbc9068ab	-0.017628035
44	0x3cef7d24	0.029234476
45	0x3c06d355	0.008229096
46	0x3d730053	0.05932648
47	0xbd67c24d	-0.056581784
48	0xbd255ca8	-0.040371567
49	0x3cf4c42c	0.029878698
50	0xbc2c5bcb	-0.010519932
51	0xbd86df41	-0.06585551
52	0xbc8115cd	-0.015757466
53	0xbdd41712	-0.10355963
54	0x3c2203ff	0.009888648
55	0xbd893d58	-0.067011535
56	0x3c7889a9	0.0151695395
57	0x3bb712e0	0.005586967
58	0x3d145e25	0.036222596
59	0xbd8104d1	-0.06299747
60	0xbdc85d4e	-0.097834215
61	0xbdad571f	-0.08463883
62	0x3d9ceb45	0.076620616
63	0x3c519c9a	0.012793684
64	0xbd5b4347	-0.053530958
65	0xbd566bdf	-0.052348968
66	0x3dc3056d	0.09522519
67	0x3e1a2b27	0.15055524
68	0xbd8b2df6	-0.06795876
69	0xbc62d858	-0.013845526
70	0x3d81a1d0	0.063296914
71	0x3d0e3567	0.034718897
72	0xbe015125	-0.1262861
73	0xbd0a76d3	-0.033804726
74	0xbca27af4	-0.01983402
75	0xbdb541c4	-0.088504344
76	0x3c15b9c0	0.0091385245
77	0xbd5bb9f4	-0.053644136
78	0x3d8bffe8	0.068359196
79	0xbce6ec78	-0.028188929
80	0xbd44bbed	-0.048030782
81	0xbd6da4f5	-0.058018643
82	0xbd2289ec	-0.039682314
83	0xbc6ded25	-0.014521872
84	0x3ca00d48	0.019537583
85	0xbc263bd6	-0.010146102
86	0xbcc65764	-0.024211593
87	0xbc91e8b9	-0.017811166
88	0xbcff2c8f	-0.031149177
89	0x3cacf0d3	0.021110928
90	0xbcca31dc	-0.024681978
91	0x3e31a745	0.17348965
92	0x3d4d9b35	0.050196845
93	0x3d1a5309	0.037676845
94	0x3d9e2449	0.077217646
95	0x3d2e1719	0.042502496
96	0x3d91da26	0.07121687
97	0xbc984ea9	-0.018592196
98	0x3d7edec5	0.06222417
99	0xbd84e630	-0.06489217
100	0xbd6da087	-0.05801442
101	0x3d04561c	0.032308683
102	0xbe2476eb	-0.16060989
103	0x3d8e53e5	0.06949595
104	0x3d9df24c	0.0771223
105	0xbda9e19b	-0.08294984
106	0xbbf4d5e0	-0.007471785
107	0xbc80db6d	-0.01572963
108	0xbd0c3207	-0.034227397
109	0xbd428931	-0.047494117
110	0xbe4933fc	-0.19648737
111	0xbd065aa5	-0.03280129
112	0x3db4adbd	0.088222004
113	0x3c7c12ef	0.0153853735
114	0x3d93d7aa	0.07218869
115	0x3d747b96	0.059688173
116	0x3c4cb0c6	0.012493318
117	0xbd782487	-0.06058171
118	0xbdafc149	-0.08581788
119	0x3d1f24bb	0.03885339
120	0x3d12d735	0.03584977
121	0x3cef8edc	0.029242925
122	0x3d9abe9f	0.07555889
123	0xbcaab0e0	-0.020836294
124	0x3d90e59d	0.07075045
125	0xbd28c8a7	-0.041206982
126	0xbd61453c	-0.054997668
127	0xbdf23bf7	-0.11827844
128	0x3d82699a	0.06367798
129	0xbdf2178a	-0.11820896
130	0xbc8b6ce2	-0.017019693
131	0x3d9da1f9	0.076969095
132	0x3d3b7746	0.045768045
133	0x3d8369a9	0.064166375
134	0x3d2dfefa	0.042479493
135	0xbe237abc	-0.15964788
136	0x3d668b1e	0.056285016
137	0x3da58ebe	0.080838665
138	0x3e111724	0.14168984
139	0x3dee7adf	0.116445296
140	0xbe3ef380	-0.18647575
141	0xbd91c8d0	-0.0711838
142	0x3d242821	0.040077332
143	0x3ce36d2a	0.027762014
144	0x3d706f32	0.058699794
145	0x3e2a00e8	0.16601908
146	0xbce3de4c	-0.02781596
147	0xbe1c781e	-0.15280196
148	0x3c6b5ab9	0.014364892
149	0x3d6eb915	0.058281977
150	0xbe085f41	-0.13317586
151	0xbe0cd545	-0.13753231
152	0xbe80dacf	-0.25166938
153	0x3d156a48	0.03647831
154	0x3d88faaf	0.06688439
155	0xbd895492	-0.06705584
156	0x3c5d33d8	0.01350113
157	0x3d2bf853	0.041984867
158	0x3ddd1091	0.107941754
159	0x3da52db3	0.08065357
160	0x3d86ceed	0.06582437
161	0xbca6ea4b	-0.020375391
162	0x3e052073	0.1300066
163	0x3d36d46a	0.044636168
164	0x3d6d5f24	0.05795206
165	0xbc26f515	-0.010190268
166	0x3e25e979	0.16202344
167	0xbc95936b	-0.01825877
168	0x3dfbeb6c	0.123007625
169	0x3d4317ca	0.04763011
170	0x3d6f9d0b	0.058499377
171	0x3e3b67fd	0.18301387
172	0x3d0bb1af	0.034105
173	0x3e327913	0.17428999
174	0x3c6b85e6	0.014375186
175	0xbcd7ca46	-0.026341569
176	0xbd44bd8c	-0.04803233
177	0x3caa06cc	0.020755194
178	0xbe310b20	-0.172894
179	0xbd42ff98	-0.047607034
180	0xbdedbfd7	-0.11608856
181	0x3e2ffcdc	0.17186302
182	0x3d73c158	0.05951056
183	0x3dfe9d40	0.12432337
184	0x3c6fd450	0.014638022
185	0xbd33d166	-0.04390087
186	0x3e2a8d85	0.16655548
187	0x3e0926bc	0.13393682
188	0x3d8a0461	0.067391165
189	0x3d9a4787	0.07533174
190	0x3d839681	0.06425191
191	0xbe21aa40	-0.15787601
192	0x3c9f02ed	0.019410575
193	0xbcfadf7e	-0.030624148
194	0x3e360ab8	0.17777526
195	0xbe0a70b8	-0.13519561
196	0x3dd0d124	0.101961404
197	0x3c82be66	0.01595993
198	0x3e14cac2	0.14530471
199	0xbe73f5de	-0.2382426
200	0x3d82247f	0.06354617
201	0x3e3ec40a	0.1862947
202	0x3d6e5d16	0.058194242
203	0x3dee81b9	0.116458364
204	0xbd77420b	-0.060365718
205	0xbc194f62	-0.009357305
206	0x3e11a647	0.14223586
207	0xbc85b85c	-0.016323261
208	0x3dd7fb85	0.105460204
209	0x3e2d6092	0.1693137
210	0x3d49c9b0	0.04926461
211	0xbe648aa1	-0.22318508
212	0x3e399383	0.18122678
213	0x3ae5a5e4	0.0017520753
214	0xbce549b0	-0.027989239
215	0xbe82db6a	-0.25558025
216	0x3dd8c7be	0.10584973
217	0x3d7a8caa	0.061169304
218	0xbe1c8c98	-0.15288007
219	0xbe1a2189	-0.15051855
220	0x3dee015d	0.11621354
221	0xbc648407	-0.013947493
222	0x3a593400	0.00082856417
223	0x3e03d395	0.12873681
224	0x3e2b6047	0.16735946
225	0x3e0cba4a	0.13742939
226	0xbd961f3d	-0.07330177
227	0xbd0ac13f	-0.0338757
228	0xbe2bcd8d	-0.1677763
229	0xbddba06f	-0.1072396
230	0xbc58e4f2	-0.013238179
231	0x3eb7e9fd	0.35920706
232	0x3e28098a	0.16409889
233	0xbd077065	-0.033066172
234	0x3ccf2d14	0.02529005
235	0x3e750972	0.23929384
236	0x3e1d8306	0.15382013
237	0xbd664141	-0.056214575
238	0x3c4ed8ec	0.01262496
239	0x3d0c9875	0.03432508
240	0x3bae4f04	0.005319478
241	0x3db4abbc	0.08821818
242	0x3d3032ca	0.043017186
243	0xba18c780	-0.00058280677
244	0xbe300850	-0.17190671
245	0x3d91ef8f	0.0712577
246	0x3b3c3433	0.0028717637
247	0x3e13f403	0.14448552
248	0xbe159ce1	-0.14610626
249	0x3cb49d50	0.022047669
250	0xbd81702f	-0.063202254
251	0xbd175b7b	-0.036952477
252	0xbcd1c6dd	-0.02560752
253	0xbc882698	-0.016619965
254	0xbc935fac	-0.017989956
255	0xbde9376f	-0.11387526

_layers.4.bias f4 [128]
0	0xbd04160d	-0.03224759
1	0xbc1cc9f0	-0.00956963
2	0x3c98998e	0.018627908
3	0x3d27abd7	0.040935364
4	0xbca7f1b5	-0.020500997
5	0x3d82976e	0.06376539
6	0x3dac1e09	0.08404166
7	0x3dc0e3b2	0.094184294
8	0x3d8b9883	0.06816199
9	0x3ddd30c8	0.1080032
10	0xbd7e95e7	-0.062154677
11	0xbdbc20b1	-0.09185923
12	0x3d3d1003	0.046157848
13	0x3dfc3714	0.12315193
14	0x3def2a30	0.116779685
15	0xbcfd07e3	-0.03088755
16	0x3b96ed60	0.004605934
17	0x3d9e9b9b	0.07744523
18	0xbd3f1e6a	-0.046659864
19	0xbd4edb1b	-0.050501924
20	0xbc8097b3	-0.015697336
21	0xbd3fb366	-0.046801947
22	0xbcdf1667	-0.027232362
23	0x3c47f9c2	0.012205543
24	0x3d8a6d42	0.067591205
25	0x3d3f0c74	0.046642736
26	0x3cde0a71	0.027104588
27	0x3d2e336b	0.042529505
28	0x3da57e2b	0.08080705
29	0x3c0732d8	0.008251868
30	0x3d59d591	0.05318219
31	0xbd5aaa7d	-0.053385247
32	0xbd8e630b	-0.06952485
33	0xbdad8806	-0.0847321
34	0xbd04de97	-0.03243884
35	0x3cf9a396	0.030473512
36	0x3dbce35b	0.09223052
37	0x3d9ac74d	0.07557545
38	0xbbdba4cd	-0.0067029954
39	0x3d846cf6	0.06466095
40	0xbd8ae8e7	-0.06782704
41	0x3c12320b	0.008923064
42	0xbd8bee72	-0.06832589
43	0x3d3b70d9	0.045761917
44	0x3d897bd9	0.06713075
45	0xbbcbdd8e	-0.0062214797
46	0xbce527c7	-0.027973069
47	0xbd8f6f40	-0.07003641
48	0xbd928968	-0.071551144
49	0xbda60ebb	-0.08108278
50	0xbdb25d4f	-0.087092035
51	0x3cbbb279	0.02291225
52	0xbd7e389c	-0.062065706
53	0x3b028807	0.0019917504
54	0x3dce8602	0.10084154
55	0x3d9a54a0	0.07535672
56	0x3d7571c2	0.05992294
57	0xbd09b43f	-0.03361916
58	0x3d062499	0.032749746
59	0x3d3c0c73	0.04591031
60	0x3bb5c4de	0.00554715
61	0xbd491195	-0.049089033
62	0xbad86200	-0.0016508698
63	0x3dcb6fbb	0.0993342
64	0x3dc661bd	0.09686611
65	0x3d0ff563	0.03514613
66	0xbcef69f1	-0.029225321
67	0xbdb2deb6	-0.08733885
68	0xbc8e714c	-0.017388009
69	0x3d47c87b	0.048775177
70	0x3cf900e5	0.030395934
71	0x3d31afb1	0.043380443
72	0xbc139930	-0.009008691
73	0x3c83cf07	0.01608993
74	0x3d3b4098	0.0457159
75	0x3d661b4c	0.056178376
76	0xbc4ac183	-0.012375238
77	0x3d7df8b2	0.062004752
78	0x3d942831	0.072342284
79	0x3cfd7c97	0.030943198
80	0xbd4dfe66	-0.05029144
81	0x3db01c7f	0.08599185
82	0x3dc9a4e2	0.09845902
83	0xbd146614	-0.03623016
84	0x3dd38422	0.10327937
85	0x3ced78bc	0.028988235
86	0x3d78632d	0.060641456
87	0xbc9e3342	-0.019311551
88	0xbd5191d3	-0.05116446
89	0xbcd95837	-0.026531322
90	0x3d633f28	0.055480152
91	0xbcd7f7c6	-0.026363265
92	0x3d88d587	0.06681352
93	0x3d909e63	0.0706146
94	0xbabd9af0	-0.0014465731
95	0x3cf96818	0.030445144
96	0x3dbc4b6a	0.091940716
97	0x3d53f5c1	0.05174804
98	0xbd3c4a3f	-0.045969244
99	0xbd2bf12b	-0.041978043
100	0x3cf39ac0	0.029736876
101	0xbd8688e5	-0.06569079
102	0xbd84d2fe	-0.06485556
103	0x3d19c775	0.037543733
104	0x3b5065fa	0.0031799064
105	0xbcbde8c0	-0.023182273
106	0x3cf701a2	0.030152146
107	0xbdbb98ee	-0.091600284
108	0x3c7521b4	0.014961649
109	0xbd08a297	-0.033358183
110	0xbd6c7c5c	-0.057735786
111	0x3d1558e6	0.036461733
112	0x3cd7a636	0.026324373
113	0xbd1e72ff	-0.038683888
114	0x3cccc36e	0.024995532
115	0xbd852b13	-0.065023564
116	0x3de2c255	0.11072222
117	0x3cda03e8	0.02661319
118	0x3a7eccc8	0.0009719846
119	0xbcc683bb	-0.024232736
120	0x3da735f4	0.081645876
121	0xbd93fca5	-0.072259225
122	0xbcb98a89	-0.022649067
123	0x3d24d54b	0.040242475
124	0x3d466840	0.048439264
125	0x3d4a2c85	0.049358863
126	0xbd5e48d1	-0.054268662
127	0x3d936762	0.07197453

_layers.6.weight f4 [6, 128]
0	0x3e3ebb2d	0.1862609
1	0xbd7baddb	-0.0614451
2	0x3ddfa612	0.10920347
3	0x3de73924	0.112901956
4	0x3e214a20	0.15750933
5	0x3e0aa48b	0.1353933
6	0xbe4c952b	-0.19978778
7	0x3dd84642	0.105602756
8	0xbdaf1338	-0.085485876
9	0xbe509693	-0.2036994
10	0x3d875534	0.06608048
11	0xbcd1b9e2	-0.025601331
12	0xbd09e277	-0.03366324
13	0x3d9a79e2	0.075427786
14	0xbcf4fae1	-0.029904785
15	0x3e1b9134	0.1519211
16	0x3b40fc60	0.0029447302
17	0x3e367398	0.17817533
18	0xbe9344d7	-0.28763458
19	0x3d968ce7	0.07351094
20	0x3dc6988e	0.09697066
21	0x3e004c4b	0.12529103
22	0x3d469d80	0.048490047
23	0xbc3f501d	-0.011676815
24	0xbc3dddea	-0.011588553
25	0xbda889c4	-0.08229402
26	0x3cd05f00	0.025435925
27	0xbd82320d	-0.06357203
28	0xbc4c7101	-0.012478114
29	0x3d5b39e6	0.053522013
30	0x3d9b4407	0.075813346
31	0xbde6a382	-0.112616554
32	0xbc30cf74	-0.010791648
33	0x3d8e42de	0.06946348
34	0x3e13ad28	0.14421523
35	0xbe503255	-0.203317
36	0xbdd5b691	-0.104352124
37	0xbdb7e94e	-0.08980046
38	0xbd14aa80	-0.036295414
39	0x3d090a83	0.03345729
40	0x3da6a5cd	0.08137093
41	0x3e26f81d	0.16305585
42	0x3cba72fc	0.022759907
43	0xbe7c06d2	-0.24611977
44	0x3d9d4012	0.07678236
45	0x3e1263ea	0.14295927
46	0x3d695b5b	0.05697189
47	0xbe89f783	-0.2694665
48	0x3e47edc0	0.19524288
49	0xbc5cb4e1	-0.013470859
50	0x3c2a745c	0.010403719
51	0xbd00cf26	-0.031447552
52	0xbde3fafb	-0.11131855
53	0xbe4322d8	-0.1905626
54	0x3dd12b49	0.10213334
55	0x3df78f20	0.12087846
56	0x3b132ae0	0.0022455975
57	0x3c035c81	0.00801766
58	0xbbad9794	-0.0052976105
59	0x3dd814f1	0.10550869
60	0x3dbffb59	0.09374113
61	0x3dce333f	0.10068368
62	0xbd9b8132	-0.075930014
63	0xbe280bed	-0.164108
64	0x3e298dca	0.16557994
65	0xbde20224	-0.110355645
66	0xba9b0146	-0.0011825941
67	0xbd1f53d4	-0.038898304
68	0x3e0cdb0b	0.13755433
69	0x3b225257	0.0024768317
70	0x3c4f6bc2	0.012659969
71	0x3df312d7	0.11868828
72	0x3da454c3	0.080239795
73	0x3df748d5	0.120744385
74	0x3e1413cc	0.14460677
75	0xbd68a3b5	-0.05679675
76	0xbcb0126a	-0.021493156
77	0x3bb3fc62	0.005492733
78	0xbd7f5bb6	-0.06234332
79	0x3e08de4a	0.13366047
80	0xbd32eabe	-0.0436809
81	0x3d2dfe43	0.04247881
82	0xbdfa785b	-0.12229987
83	0x3bc4a09e	0.0060005924
84	0x3d23bf7a	0.03997753
85	0x3d8ce3bf	0.068793766
86	0x3c86fbd9	0.016477512
87	0xbd74d2cf	-0.059771355
88	0xbdbe4ced	-0.09292016
89	0xbf00a8a6	-0.5025734
90	0x3d700105	0.058594722
91	0x3d88597f	0.06657695
92	0x3dcf75c8	0.10129887
93	0xbe89ae0d	-0.26890603
94	0x3e344483	0.1760426
95	0xbca20d78	-0.019781813
96	0x3e1fb39b	0.15595858
97	0x3dc9da08	0.09856039
98	0xbe6cb4a5	-0.23115785
99	0xbd627004	-0.055282608
100	0xbd547203	-0.051866543
101	0xbd8d25a6	-0.068919465
102	0x3e087722	0.13326696
103	0x3d9575c6	0.07297854
104	0xbe4b3ec3	-0.1984816
105	0xbc9c6d68	-0.019095138
106	0xbd0dd277	-0.034624543
107	0x3c6b586b	0.014364342
108	0xbcb8f5fb	-0.02257823
109	0x3df13a69	0.11778719
110	0x3d9ad9c5	0.075610675
111	0xbe520067	-0.20507966
112	0x3d7f9b87	0.06240418
113	0xbde4d955	-0.11174265
114	0xbe2a03e6	-0.1660305
115	0x3da8e9c8	0.08247715
116	0x3e1bea58	0.15226114
117	0x3b7076cd	0.0036691905
118	0xbdd54762	-0.10414006
119	0xbd6a8e36	-0.05726453
120	0xbdc33db8	-0.09533256
121	0x3e1c3f1b	0.15258448
122	0xbc2bd33b	-0.010487373
123	0x3e0d4d36	0.13798985
124	0xbe2bf373	-0.16792087
125	0x3e0248cd	0.12723084
126	0xbd648d32	-0.055798717
127	0x3d51b8c6	0.051201604
128	0x3eb5adf5	0.3548428
129	0xbdfd9c3f	-0.12383317
130	0xbe071bce	-0.131942
131	0x3d692c24	0.05692686
132	0xbb0226c0	-0.0019859523
133	0x3dbf48bd	0.093400456
134	0x3e2ca3b0	0.16859317
135	0xbdf89ccb	-0.12139281
136	0x3d5b6912	0.053567
137	0x3dcae0cb	0.09906157
138	0xbdd95aff	-0.10613059
139	0xbcd6750c	-0.02617886
140	0x3ba1c1bf	0.0049364264
141	0xbc1a917e	-0.009434102
142	0x3e16b613	0.14717893
143	0xbe9c0300	-0.3047104
144	0xbd562e10	-0.052290022
145	0x3d913b8a	0.07091434
146	0xbda65f6b	-0.08123668
147	0xbc429b75	-0.011877884
148	0xbe27ad88	-0.1637479
149	0xbe8f9e82	-0.2805062
150	0x3ad5334e	0.00162659
151	0xbe0626e2	-0.1310077
152	0x3c866b6d	0.016408646
153	0xbd6a2b85	-0.05717041
154	0xbcdaf066	-0.026725959
155	0x3dbcdcad	0.09221778
156	0xbdb0e61c	-0.0863764
157	0xbca858e0	-0.020550191
158	0xbda9e979	-0.082964845
159	0xbe5ba781	-0.21450616
160	0xbd2ed22f	-0.042680915
161	0xbc6cfd17	-0.014464638
162	0xbdbb85c3	-0.091563724
163	0xbdaee973	-0.08540621
164	0x3e01a9a4	0.12662369
165	0xbdb47215	-0.08810822
166	0x3de98005	0.11401371
167	0xbd9a562c	-0.07535967
168	0xbc9542b0	-0.018220276
169	0xbe040292	-0.12891605
170	0x3d9392fd	0.0720577
171	0x3d7b396c	0.06133406
172	0xbc46f44d	-0.012143207
173	0x3e137832	0.1440132
174	0x3c6365e5	0.013879274
175	0xbcea86fb	-0.028628817
176	0xbe47e82a	-0.19522157
177	0x3c9e6137	0.019333465
178	0x3eb30cf2	0.34970814
179	0x3dd00b4a	0.10158403
180	0x3d0f1a3e	0.034937136
181	0xbe269d75	-0.16271003
182	0x3e8fb954	0.28071082
183	0xbcbc8c7a	-0.023016203
184	0xbd542d37	-0.051800933
185	0xbdca6811	-0.0988313
186	0x3e597950	0.21237683
187	0x3dab43a8	0.08362514
188	0xbd5a245c	-0.05325733
189	0xbd8c1d18	-0.06841487
190	0xbc4ad1c0	-0.01237911
191	0x3e4cb559	0.19991054
192	0xbc88acb4	-0.016683914
193	0x3d161520	0.03664124
194	0x3d82078d	0.063490964
195	0x3d9cb14f	0.076510064
196	0x3e0183b5	0.12647898
197	0xbe4f6cf0	-0.202564
198	0x3e3338a8	0.17502081
199	0xbd3b1e82	-0.04568339
200	0xbd871ec3	-0.06597664
201	0xbe77fc97	-0.24217449
202	0xbdf4a4b3	-0.119454764
203	0xbdeff828	-0.11717254
204	0x3dff69f6	0.12471382
205	0x3e26dbef	0.16294836
206	0x3d923e45	0.07140783
207	0xbe8c34bb	-0.2738398
208	0xbcf300fa	-0.029663552
209	0xbe7533bb	-0.23945515
210	0x3dfeb50f	0.12436878
211	0x3dc53e9a	0.09631081
212	0x3d99247a	0.074776605
213	0x3d9430c3	0.07235863
214	0xbc7afff0	-0.015319809
215	0xbd878f30	-0.06619108
216	0x3d4a942d	0.049457718
217	0xbea41599	-0.32047728
218	0xbde9e470	-0.11420524
219	0x3da3eb83	0.08003905
220	0x3dc22efa	0.09481616
221	0x3dac4532	0.084116355
222	0x3c01bf9c	0.007919218
223	0x3c9af2cc	0.018914603
224	0x3c5bf311	0.013424651
225	0xbe15e262	-0.1463714
226	0x3e10c745	0.14138515
227	0xbd038e1c	-0.032117948
228	0x3da3d277	0.07999127
229	0x3d90454d	0.07044468
230	0xbd8cdd5d	-0.06878159
231	0xbc78920e	-0.015171541
232	0xbd4e7f6b	-0.050414484
233	0x3c907468	0.017633632
234	0xbd6fa998	-0.058511347
235	0x3c777185	0.015102749
236	0xbe4f9f1f	-0.20275544
237	0xbe575da3	-0.21031813
238	0x3dde9cde	0.10869764
239	0xbd07352d	-0.033009697
240	0x3ddf4f3a	0.10903783
241	0xbe631ce3	-0.22178988
242	0xbd95d279	-0.07315535
243	0xbda6c460	-0.08142924
244	0xbdae2462	-0.08503033
245	0x3d6919e9	0.056909475
246	0xbe4baecc	-0.19890898
247	0xbc8e348e	-0.017359044
248	0x3debc673	0.115124606
249	0xbe9b5a9a	-0.3034256
250	0xbdcf0f82	-0.1011038
251	0x3e802233	0.25026092
252	0x3d03e315	0.032198984
253	0xbe8229b0	-0.2542243
254	0x3cdfae64	0.027304836
255	0x3b18ad7d	0.0023296766

_layers.6.bias f4 [6]
0	0x3cd6d859	0.02622621
1	0x3df400bc	0.119142026
2	0x3d9bfd67	0.07616692
3	0xbd9616c0	-0.07328558
4	0xbc2e6a36	-0.01064544
5	0xbdd14650	-0.10218489
