models/gg-2023-11-07_18-24.pt (torch, 27840 bytes, 6 tensors)

weight f4 [64, 19]
0.2044546 0.03988455 0.16810042 -0.102219604 0.21693605 0.059177592 0.18388487 -0.17058262
-0.026373718 0.09892308 -0.013177004 -0.1335212 -0.0821939 -0.15307097 0.14905871 -0.06313101
0.0652532 -0.10763342 -0.003501246 -0.080371946 -0.13768741 -0.015106008 -0.22538255 0.16434802
0.027556129 -0.02492989 0.0998615 0.07567835 -0.20757045 -0.02543443 -0.039032526 -0.037269454
0.22310717 0.08933636 0.11734081 0.091904975 0.21468331 0.037943617 0.05185545 -0.08741018
0.10086909 0.16161491 -0.051321045 0.015600691 0.04771395 0.12791313 0.054688673 0.11729501
0.0783737 -0.049171332 0.09233314 -0.013153243 0.06297116 -0.12997144 0.0675306 -0.0477837
-0.22542371 0.13015735 0.20013551 -0.07932791 0.107020184 0.13857399 0.07998694 -0.11027088
-0.14675911 -0.20463838 -0.19370556 0.22087486 0.17468946 0.22856733 -0.18102957 -0.0029263943
-0.017871486 -0.050790157 0.22058497 0.061495807 -0.22454938 -0.16301572 0.023489026 0.10014088
-0.045496777 -0.103977606 0.02484963 -0.19260108 0.16544837 0.21080275 -0.07287539 0.16281487
0.09518454 -0.1132841 -0.17620923 -0.087136626 0.09382262 0.17383166 -0.06521118 0.22228129
-0.064986095 -0.10487236 0.18528911 0.21523206 -0.0863942 0.1514102 -0.14129232 -7.776351e-05
0.19940937 -0.067886055 0.06560438 -0.18433449 0.21260048 -0.056926083 0.103555314 -0.018785657
0.20931378 -0.038602453 0.22871251 -0.041056395 0.17621937 -0.09789149 0.00565057 -0.16732368
0.11091248 0.14851074 0.19414978 -0.21083605 0.1698002 -0.21340092 0.14111555 0.1753927
-0.0532323 -0.0025298751 0.012447455 0.19851166 -0.18815885 -0.12576321 0.061710905 -0.16189308
-0.11052323 -0.1758497 -0.14676738 0.22208661 0.21637014 -0.2216408 0.0989768 -0.21099101
0.2055362 0.20696451 -0.122715324 0.2254003 -0.14616214 -0.12933564 -0.02503908 0.21327606
-0.065935135 -0.07281532 -0.22847927 -0.017989647 0.0844328 0.102432765 -0.08895357 -0.20010562
-0.13862263 0.0746183 0.22888708 0.2101234 0.118871085 -0.16952614 -0.07991859 0.035401918
0.035027627 0.15762068 0.19725546 -0.12047347 0.21307279 -0.08593581 -0.06283666 -0.12153655
0.0029395951 -0.040394515 -0.13649252 -0.1752203 -0.20182179 -0.1295795 -0.05416202 0.18060215
-0.083348095 0.1480758 0.22707467 -0.13803968 -0.008986261 0.006554241 -0.024522496 0.052255847
-0.038846336 0.020966982 -0.1757722 -0.094370864 -0.1519739 -0.100230746 0.05005923 -0.046843857
-0.17866564 0.09143184 0.22261159 0.015774967 -0.1727718 0.17202505 -0.10088403 0.11994557
0.1409653 0.055733424 0.2197507 0.11237968 0.019795498 0.016775945 -0.14162654 -0.20808837
-0.038989387 0.05334031 0.1905427 -0.21678606 0.0020060127 0.20141217 0.20057204 -0.012313596
0.0037208651 -0.22357932 -0.052895688 0.14056814 -0.20880166 -0.008458839 0.0940353 -0.1257388
0.025625866 -0.08828866 -0.1572433 0.19021428 -0.18970115 0.10968246 -0.20296727 0.06432463
0.02948548 -0.00753616 -0.18214741 0.14769168 0.18276769 0.10950478 0.07623895 -0.028920414
0.081753634 -0.20043021 0.11472618 0.12207844 -0.09749594 -0.19047558 0.061992243 -0.1320797
00000000: 8c5c 513e fb5d 233d 8422 2c3e 8358 d1bd
00000010: 7c24 5e3e 3464 723d 514c 3c3e 36ad 2ebe
00000020: b20d d8bc 2f98 ca3d 5ce4 57bc c8b9 08be
00000030: 4755 a8bd a3be 1cbe d9a2 183e d54a 81bd
00000040: 78a3 853d e96e dcbd 2975 65bb 0c9a a4bd
00000050: eefd 0cbe 317f 77bc afca 66be d94a 283e
00000060: 64bd e13c c539 ccbc 3084 cc3d 40fd 9a3d
00000070: 598d 54be de5b d0bc 92e0 1fbd dba7 18bd
00000080: 3576 643e fbf5 b63d 6150 f03d ad38 bc3d
00000090: f1d5 5b3e c46a 1b3d 6166 543d 1c04 b3bd
000000a0: 7494 ce3d 617e 253e 0436 52bd 0a9a 7f3c
000000b0: b46f 433d a9fb 023e 3b01 603d 5e38 f03d
000000c0: 6482 a03d e167 49bd 2819 bd3d b380 57bc
000000d0: 06f7 803d 3c17 05be 7c4d 8a3d d7b8 43bd
000000e0: 79d5 66be f847 053e 53f0 4c3e ac76 a2bd
000000f0: 662d db3d 57e6 0d3e 31d0 a33d b3d5 e1bd
00000100: 0548 16be b98c 51be c05a 46be 052d 623e
00000110: cbe1 323e 8e0d 6a3e d15f 39be c0c8 3fbb
00000120: 3967 92bc 5709 50bd 07e1 613e 07e3 7b3d
00000130: 46f0 65be 98ed 26be 0f6c c03c a916 cd3d
00000140: d45a 3abd 36f2 d4bd 7491 cb3c 3839 45be
00000150: 4c6b 293e addc 573e b13f 95bd f1b8 263e
00000160: 1df0 c23d 7f01 e8bd 3170 34be b074 b2bd
00000170: 1326 c03d ed00 323e 708d 85bd b59d 633e
00000180: 6e17 85bd 52c7 d6bd 6ebc 3d3e cb65 5c3e
00000190: 71ef b0bd 470b 1b3e efae 10be f714 a3b8
000001a0: f831 4c3e d807 8bbd 975b 863d 2ec2 3cbe
000001b0: f1b3 593e 532b 69bd cf14 d43d 61e4 99bc
000001c0: 5a56 563e 9b1d 1ebd 9d33 6a3e c02a 28bd
000001d0: da72 343e 557b c8bd 6b28 b93b e656 2bbe
000001e0: 1526 e33d 3313 183e 33cf 463e 68e5 57be
000001f0: 1be0 2d3e c585 5abe 9880 103e 259a 333e
00000200: 1d0a 5abd 43cc 25bb 69f0 4b3c a446 4b3e
00000210: b7ac 40be 12c8 00be 93c4 7c3d 4dc7 25be
00000220: 015a e2bd f211 34be 304a 16be ac6a 633e
00000230: 2290 5d3e cef5 62be 59b4 ca3d 070e 58be
00000240: 1578 523e 81ee 533e 2c52 fbbd 56cf 663e
00000250: 87ab 15be 9070 04be c21e cdbc 0a65 5a3e
00000260: 0009 87bd 3320 95bd 78f6 69be 065f 93bc
00000270: 1beb ac3d 45c8 d13d 4a2d b6bd 7de8 4cbe
00000280: 17f3 0dbe 7bd1 983d 6061 6a3e 972a 573e
00000290: af72 f33d 4398 2dbe 5cac a3bd 9a01 113d
000002a0: 2179 0f3d 5167 213e 56fd 493e cbba f6bd
000002b0: c12f 5a3e 1dff afbd 82b0 80bd 28e8 f8bd
000002c0: 39a6 403b b874 25bd b2c4 0bbe f36c 33be
000002d0: 5faa 4ebe 7db0 04be ffd8 5dbd c5ef 383e
000002e0: 68b2 aabd 2fa1 173e 4386 683e 465a 0dbe
000002f0: 1c3b 13bc f5c4 d63b 67e3 c8bc 3a0a 563d
00000300: 561d 1fbd f3c2 ab3c a1fd 33be 8345 c1bd
00000310: 0c9f 1bbe c745 cdbd e80a 4d3d 58df 3fbd
00000320: 20f4 36be 9e40 bb3d 4bf4 633e 813a 813c
00000330: 17eb 30be 5627 303e 499c cebd 06a6 f53d
00000340: 3559 103e bb48 643d 5406 613e 5127 e63d
00000350: 2b2a a23c b56d 893c 8c06 11be 1e15 55be
00000360: 56b3 1fbd 5e7b 5a3d a01d 433e 2afd 5dbe
00000370: 4f77 033b fe3e 4e3e c262 4d3e f7be 49bc
00000380: c2d9 733b faf1 64be 26a9 58bd 18f1 0f3e
00000390: 1ad0 55be f196 0abc 9495 c03d acc1 00be
000003a0: 56ed d13c afd0 b4bd 6304 21be 88c7 423e
000003b0: 0541 42be 33a1 e03d a7d6 4fbe a2bc 833d
000003c0: 898b f13c e4f1 f6bb da84 3abe 7d3c 173e
000003d0: 7427 3b3e 0b44 e03d 2b23 9c3d 81ea ecbc
000003e0: 736e a73d 943d 4dbe 8ff5 ea3d 4304 fa3d
000003f0: f4ab c7bd 080c 43be 94eb 7d3d e73f 07be

bias f4 [64]
0.08266913 -0.102986775 0.026469959 -0.10762767 0.08922108 -0.15794551 -0.07321014 0.14727934
-0.052223917 0.041575193 -0.2002047 -0.093963355 0.115073755 0.196621 -0.022974463 -0.17645857
-0.11171108 0.06823198 -0.22441588 0.060493838 0.06744855 0.18917464 -0.18923599 -0.18889132
0.019613698 0.049742147 0.11338465 0.081196755 0.03626739 -0.22935088 -0.22508164 0.21003179
0.09822175 -0.17094684 0.11232293 -0.009614088 0.077699676 0.21770215 -0.04143919 0.22334556
-0.010105833 0.20322718 0.03703346 -0.020270519 0.052456364 0.083136395 -0.2280758 -0.042734504
0.21589015 0.05858993 -0.08297241 -0.1902268 -0.16243236 0.040407967 -0.06457734 0.031580288
-0.1485382 -0.09561672 0.048013747 0.123815045 -0.21742705 -0.055557296 0.17685953 0.055665504
00000000: 6f4e a93d bbea d2bd 87d7 d83c e56b dcbd
00000010: 8bb9 b63d 78bc 21be 33ef 95bd 65d0 163e
00000020: bfe8 55bd c04a 2a3d 7602 4dbe dc6f c0bd
00000030: caab eb3d 0457 493e f134 bcbc 8eb1 34be
00000040: c7c8 e4bd 35bd 8b3d 47cd 65be 63c8 773d
00000050: 7722 8a3d ffb6 413e 14c7 41be ba6c 41be
00000060: e8ac a03c 6cbe 4b3d 3636 e83d 7c4a a63d
00000070: 1d8d 143d f5da 6abe cd7b 66be 9312 573e
00000080: 7c28 c93d b00c 2fbe 9009 e63d 6884 1dbc
00000090: 0221 9f3d 50ed 5e3e 24bc 29bd b3b4 643e
000000a0: f092 25bc c91a 503e 66b0 173d 5c0e a6bc
000000b0: 7cdc 563d 6a43 aa3d b48c 69be 600a 2fbd
000000c0: 4f12 5d3e fffb 6f3d 70ed a9bd d0ca 42be
000000d0: ab54 26be d382 253d 2041 84bd 555a 013d
000000e0: 661a 18be b3d2 c3bd 10aa 443d be92 fd3d
000000f0: 32a5 5ebe 0c90 63bd aa1a 353e 8301 643d

weight f4 [64, 64]
0.038148686 0.06150295 -0.114106715 -0.07228732 0.0039452314 -0.03789316 -0.09020561 -0.07314728
0.08819604 0.11265643 0.018266276 0.104714856 0.069476545 -0.08690466 -0.009804249 -0.024814576
-0.09784208 0.040034592 -0.03762074 -0.12140998 0.059225366 -0.09921813 -0.016233698 0.01306811
0.0009766966 0.09306879 0.09689833 0.06941165 -0.07703455 -0.107262775 -0.10629599 -0.08872302
-0.08341068 0.04840605 -0.02228655 0.111196354 -0.0301615 0.07820356 -0.067245245 -0.09553622
0.066247776 0.09992948 -0.07137716 -0.054367453 0.009744018 -0.031065106 -0.10430634 -0.06832187
-0.052517235 -0.042300418 -0.08794604 0.0813286 -0.1114161 -0.075318456 0.11548787 -0.07102522
-0.11825141 0.119944826 -0.06328043 -0.013425559 -0.003970787 -0.11466287 0.094533145 0.0077997744
-0.1162819 0.06545158 0.012709975 -0.08660361 0.09328799 -0.120131835 0.02733767 0.11300033
-0.011096358 0.111335546 -0.09618433 0.02450502 -0.02661641 -0.029961497 -0.0985305 -0.11776288
-0.10096873 0.11336604 -0.036418065 -0.030315533 0.09076069 0.074103445 0.085060716 -0.05952573
-0.038315564 -0.015276551 -0.12121768 0.089032605 -0.046060205 0.10218269 0.09352568 -0.077527106
-0.032137975 -0.068526864 0.08599505 -0.10098639 0.1081066 -0.03676723 0.088930845 0.10945928
-0.04207912 -0.11840172 -0.07052286 0.075124174 0.022849083 -0.012182742 -0.04448794 -0.11225094
-0.020186141 -0.091373906 0.0954036 0.088526025 0.01473479 0.02723518 -0.077546015 0.03428717
-0.017481148 -0.045880944 0.015880436 -0.12271115 0.033976138 0.103977665 -0.113363534 -0.109840184
0.08800382 0.038000315 -0.0846672 -0.08161394 0.08457122 -0.057780247 -0.017941043 -0.020629909
-0.013963148 -0.10478099 -0.0926846 -0.0607989 -0.11064306 -0.113830976 -0.10461502 0.106656075
0.047262758 -0.08908069 0.055983204 0.05018331 -0.054750666 0.04349566 0.03160104 0.026981384
0.031084226 -0.025892287 -0.10232889 -0.072392404 0.020815117 0.0414173 0.060408443 -0.016937379
-0.028602762 -0.11207065 0.11965835 -0.04464878 -0.024701431 -0.11924146 -0.011347488 0.050882604
-0.09453353 0.07195871 -0.0076247603 0.016828695 0.052016824 -0.09684799 -0.061276987 0.11723332
-0.059707213 -0.063619085 0.043610305 0.12098034 0.021899866 0.0020519197 0.0018996596 -0.013144627
0.09265866 0.040984467 -0.056991372 -0.070645705 -0.09119035 0.028894562 -0.07422593 0.1074053
-0.11472747 0.11121845 -0.09336065 -0.061740186 -0.07133545 0.026184514 -0.055122983 0.0060313176
0.09478913 0.04546371 0.05813577 0.06464191 0.05025291 0.1132479 0.09915746 -0.0059747696
-0.02481859 0.12029728 -0.017121617 -0.06896321 -0.11066536 0.042951908 0.099337295 0.048083186
-0.04876381 0.09695256 0.085821085 0.11852638 -0.04448883 0.10511774 -0.0817502 -0.01902021
-0.08901439 0.106746525 -0.09958083 -0.07469067 -0.037593592 -0.022732677 -0.10931936 0.06309729
-0.09986979 0.02278747 -0.0550472 -0.0045792777 0.07408275 -0.10802742 -0.11388844 -0.10650425
-0.10323875 -0.06802131 0.056665897 0.02869527 0.09987846 -0.009874344 0.031843275 -0.008563459
-0.086110294 -0.09863296 0.019154133 0.025290104 0.019555792 -0.09870663 0.0959602 -0.033280127
00000000: cc41 1c3d 84ea 7b3d c8b0 e9bd 600b 94bd
00000010: 0047 813b dc35 1bbd b8bd b8bd 3ece 95bd
00000020: 20a0 b43d 6ab8 e63d 28a3 953c be74 d63d
00000030: b849 8e3d 12fb b1bd 00a2 20bc f047 cbbc
00000040: 6e61 c8bd 50fb 233d 3418 1abd cca5 f8bd
00000050: 4c96 723d e032 cbbd 88fc 84bc a01b 563c
00000060: 8004 803a da9a be3d a272 c63d b227 8e3d
00000070: 4ac4 9dbd 96ac dbbd b6b1 d9bd 6ab4 b5bd
00000080: 38d3 aabd 6c45 463d 4892 b6bc eaba e33d
00000090: 4015 f7bc 3029 a03d e0b7 89bd 7ea8 c3bd
000000a0: eaac 873d d4a7 cc3d 302e 92bd 68b0 5ebd
000000b0: 60a5 1f3c 407c febc 909e d5bd 56ec 8bbd
000000c0: 501c 57bd 3443 2dbd 0e1d b4bd 9c8f a63d
000000d0: 202e e4bd 9040 9abd e884 ec3d ac75 91bd
000000e0: cc2d f2bd a2a5 f53d 2c99 81bd e0f6 5bbc
000000f0: 601d 82bb 5ed4 eabd 989a c13d 4095 ff3b
00000100: 3425 eebd 7a0b 863d 803d 503c 3c5d b1bd
00000110: c60d bf3d ae07 f6bd 40f3 df3c b86c e73d
00000120: 80cd 35bc e403 e43d 4afc c4bd c0be c83c
00000130: a80a dabc d071 f5bc 5cca c9bd aa2d f1bd
00000140: b2c8 cebd 742c e83d 1c2b 15bd 4858 f8bc
00000150: bee0 b93d 8cc3 973d 5034 ae3d 40d1 73bd
00000160: c8f0 1cbd 804a 7abc fa40 f8bd ba56 b63d
00000170: a0a9 3cbd 2845 d13d 648a bf3d 88c6 9ebd
00000180: 1ca3 03bd d057 8cbd 2c1e b03d f4d1 cebd
00000190: fe66 dd3d 3c99 16bd 6021 b63d 302c e03d
000001a0: 285b 2cbd 9a7c f2bd 4a6e 90bd b4da 993d
000001b0: 002e bb3c 209a 47bc fc38 36bd d2e3 e5bd
000001c0: 685d a5bc 3e22 bbbd f662 c33d 224d b53d
000001d0: 306a 713c 501c df3c 72d0 9ebd b470 0c3d
000001e0: a034 8fbc a8ed 3bbd b017 823c fc4f fbbd
000001f0: 902a 0b3d 3ef2 d43d 242b e8bd e4f3 e0bd
00000200: 593b b43d 38a6 1b3d ff65 adbd 3625 a7bd
00000210: ad33 ad3d fbaa 6cbd 18f9 92bc 0e00 a9bc
00000220: b0c5 64bc 6a97 d6bd 6cd1 bdbd 4408 79bd
00000230: d498 e2bd 3720 e9bd 6640 d6bd 806e da3d
00000240: 9896 413d f06f b6bd a54e 653d 048d 4d3d
00000250: 3c42 60bd 8128 323d 1870 013d 1008 dd3c
00000260: 59a4 fe3c 101c d4bc cf91 d1bd 7842 94bd
00000270: 7784 aa3c 30a5 293d d86e 773d 42c0 8abc
00000280: 5750 eabc 4c85 e5bd 700f f53d a4e1 36bd
00000290: a85a cabc de34 f4bd d0ea 39bc 476a 503d
000002a0: cc9a c1bd 175f 933d 20d9 f9bb 55dc 893c
000002b0: 980f 553d 3d58 c6bd 94fd 7abd 0618 f03d
000002c0: 8d8f 74bd b94a 82bd b8a0 323d 8ac4 f73d
000002d0: 5967 b33c 8079 063b 00fe f83a 905c 57bc
000002e0: d3c3 bd3d 54df 273d c96f 69bd b2ae 90bd
000002f0: 02c2 babd 4ab4 ec3c c403 98bd 4ff7 db3d
00000300: 3cf6 eabd 80c6 e33d de33 bfbd 47e3 7cbd
00000310: 5218 92bd e880 d63c a3c8 61bd 5ca2 c53b
00000320: ce20 c23d 2838 3a3d c61f 6e3d fa62 843d
00000330: ffd5 4d3d 84ee e73d 1113 cb3d 00c8 c3bb
00000340: 5b50 cbbc 6c5e f63d a242 8cbc 953c 8dbd
00000350: 85a4 e2bd 57ee 2f3d 5a71 cb3d e0f2 443d
00000360: 90bc 47bd 108f c63d f7c2 af3d f5bd f23d
00000370: eb39 36bd f847 d73d a66c a7bd 45d0 9bbc
00000380: 2d4d b6bd ec9d da3d 09f1 cbbd 6cf7 98bd
00000390: bdfb 19bd e139 babc d4e2 dfbd 2739 813d
000003a0: 8888 ccbd caac ba3c 2c79 61bd c40d 96bb
000003b0: b2b8 973d 7b3d ddbd 583e e9bd e61e dabd
000003c0: d66e d3bd c24e 8bbd 801a 683d 5812 eb3c
000003d0: 148d cc3d 00c8 21bc 186e 023d c04d 0cbc
000003e0: 985a b0bd 1400 cabd 21e9 9c3c 312d cf3c
000003f0: 7833 a03c b426 cabd c886 c43d be50 08bd

bias f4 [64]
-0.047372192 -0.025584072 -0.014206831 0.022655 -0.10146071 -0.05269896 -0.046034746 0.018180376
0.08243561 0.05473555 -0.049748216 0.109908506 -0.06361228 -0.122566715 -0.07039182 0.12217763
0.051511716 0.115187876 0.020689651 -0.055051196 -0.086125955 -0.042176407 -0.059083622 -0.018165356
0.016602114 -0.018959606 0.012063931 0.06197058 -0.109575644 0.06937608 0.07347959 0.026528463
0.0529166 0.012337286 -0.119902894 -0.08434627 -0.057991683 0.048416197 0.07097642 0.05214051
-0.1143447 -0.043412972 0.08225638 0.11697349 -0.10952938 -0.004604891 0.039809942 0.023702413
-0.09595994 0.115684226 -0.00798643 -0.035487074 0.10457896 0.03865165 -0.093031675 -0.088995695
0.08696562 0.101181984 0.079113066 -0.10345204 -0.072084114 -0.103189334 -0.02522627 -0.028307322
00000000: 5809 42bd b095 d1bc c5c3 68bc fb96 b93c
00000010: a2ca cfbd ddda 57bd ee8e 3cbd 03ef 943c
00000020: 00d4 a83d 6232 603d c9c4 4bbd b617 e13d
00000030: 2847 82bd 4204 fbbd 9629 90bd 4438 fa3d
00000040: f3fd 523d 9fe7 eb3d 587d a93c 5d7d 61bd
00000050: ce62 b0bd 2bc1 2cbd ab01 72bd 83cf 94bc
00000060: 2801 883c 2d51 9bbc cba7 453c ddd4 7d3d
00000070: 3269 e0bd 0c15 8e3d 787c 963d 3852 d93c
00000080: 14bf 583d 5422 4a3c a68f f5bd bdbd acbd
00000090: b088 6dbd 1050 463d 165c 913d 4a91 553d
000000a0: 8e2d eabd cdd1 31bd 0876 a83d cc8f ef3d
000000b0: f150 e0bd a0e4 96bb c00f 233d 902b c23c
000000c0: a586 c4bd daeb ec3d 84d9 02bc e55a 11bd
000000d0: 7e2d d63d 3151 1e3d 6487 bebd 6043 b6bd
000000e0: 081b b23d 8038 cf3d 0806 a23d aade d3bd
000000f0: d6a0 93bd ee54 d3bd 53a7 cebc c2e4 e7bc

weight f4 [6, 64]
-0.09251827 0.060847968 0.071462676 0.095332384 0.07638786 -0.10120248 0.01805641 0.084400155
-0.052328613 0.06407221 0.048003957 -0.058481492 0.003605917 0.010760218 -0.0558064 0.08611036
-0.006917113 0.09570246 0.01622893 -0.023115445 0.08454995 0.06908733 -0.02592298 0.047583703
-0.115319535 -0.014172112 0.100319065 0.024517227 -0.044801194 0.033839334 0.066843085 0.11595639
-0.01135972 0.0920054 0.030391797 -0.06604829 -0.06301299 -0.079552025 0.10945889 0.08948907
-0.11535984 0.007604962 -0.08108146 -0.06450081 0.11013198 0.061844233 0.024768077 0.087479904
-0.05742312 -0.09060341 -0.11360336 0.025684718 0.097110756 -0.11375636 -0.040959105 0.06239274
0.07857919 -0.11617568 0.03734299 0.046081617 -0.116775334 -0.09822407 0.08854339 0.10211574
-0.052621216 0.12401122 0.00973189 0.027046213 0.049977887 0.045444623 -0.044911224 -0.048722032
-0.03270601 0.0685931 0.03704987 0.007139169 0.024302572 0.024993032 0.07548006 -0.0069712563
0.040079094 0.032416742 -0.0076323906 -0.029299755 -0.09361768 0.116506815 0.103302404 0.0010099743
-0.07803105 -0.09758816 -0.05429177 -0.07907001 0.08561533 0.120683394 0.097120225 -0.081338
-0.018505236 -0.04785087 -0.0020840466 0.05486642 0.03749837 -0.0064622937 0.053590722 -0.08255215
0.061339572 -0.024814341 -0.118193835 -0.068009496 -0.08855923 0.012165166 0.10923369 0.10386425
0.10825092 0.00860165 -0.10503824 0.08559627 -0.036284592 0.093038976 0.01666613 0.016799517
-0.09630408 0.055516563 -0.015257897 -0.095626086 0.11877442 0.08083388 -0.017934565 0.056726933
0.04987578 -0.055595383 -0.018610602 0.05449106 -0.028004594 -0.083204426 0.06639675 -0.045357957
-0.11214604 -0.059284482 0.07348391 -0.008048859 0.07352485 0.052625775 -0.022509173 0.048341602
0.12156833 -0.10400123 0.046839967 -0.118502825 0.016071558 0.03589146 -0.00550074 -0.0031178342
0.042300727 -0.109458126 -0.0059117074 0.12419806 -0.020314734 -0.008053906 -0.023636596 0.08581409
-0.05795607 0.07391854 0.060699716 0.06928736 -0.096913695 0.119440995 -0.09216056 -0.07238482
-0.107153445 -0.05963441 0.12196605 -0.06001543 -0.124048844 -0.118002236 -0.08884647 0.07417442
-0.032100867 0.040488005 0.10601454 0.12473191 -0.06444107 0.06831832 0.1095348 -0.09158072
0.07906028 -0.01635925 0.078833066 -0.12485416 0.06601608 0.0027967244 -0.014685832 -0.0128070135
-0.06391272 0.1082253 -0.12373414 -0.054516967 -0.09824473 -0.050934818 -0.054759484 0.045341384
-0.028332878 0.0953441 -0.07032967 0.007962025 -0.097784236 -0.06826936 -0.026287705 -0.07955609
0.063199684 0.057279337 -0.0011071046 0.12226688 0.102746174 -0.011395484 -0.1178962 -0.060893446
0.021294175 0.08999116 0.06447938 0.09621802 -0.040943734 0.104555234 0.09913739 0.0504146
0.02416666 -0.08382351 0.111283496 0.03646755 0.081870064 -0.017357966 -0.051284865 -0.09230119
-0.049177498 -0.024580836 0.016471988 0.009711238 -0.06652293 0.0006198286 0.07570405 0.05053988
0.05347477 -0.09801865 0.012935147 0.017206177 -0.014234077 -0.087877564 0.051862374 -0.09978086
0.059447546 0.066287294 0.0560979 -0.056255713 0.06430105 0.09461495 -0.11374089 0.09056424
00000000: 387a bdbd b83b 793d 065b 923d a03d c33d
00000010: 3d71 9c3d 3f43 cfbd 09eb 933c fdd9 ac3d
00000020: 8756 56bd 4a38 833d cc9f 443d 4a8a 6fbd
00000030: 4051 6c3b a04b 303c 4095 64bd a15a b03d
00000040: f3a8 e2bb a7ff c33d 88f2 843c 9a5c bdbc
00000050: 8628 ad3d a87d 8d3d 6e5c d4bc 21e7 423d
00000060: a62c ecbd 2532 68bc 1574 cd3d 5ad8 c83c
00000070: 7581 37bd 1d9b 0a3d 07e5 883d 8b7a ed3d
00000080: 1e1e 3abc 546d bc3d 38f8 f83c 5344 87bd
00000090: f40c 81bd 2cec a2bd fc2b e03d 0c46 b73d
000000a0: c841 ecbd 0c33 f93b 090e a6bd 0019 84bd
000000b0: e08c e13d 6150 7d3d 6ce6 ca3c aa28 b33d
000000c0: 8134 6bbd 488e b9bd e1a8 e8bd c268 d23c
000000d0: 01e2 c63d 18f9 e8bd bcc4 27bd 888f 7f3d
000000e0: 20ee a03d 84ed edbd f7f4 183d 14c0 3c3d
000000f0: e827 efbd b429 c9bd 3d56 b53d 0f22 d13d
00000100: 5889 57bd 98f9 fd3d 8172 1f3c 0590 dd3c
00000110: 9db5 4c3d 2424 3a3d d5f4 37bd c190 47bd
00000120: bdf6 05bd 8a7a 8c3d 9bc1 173d b1ef e93b
00000130: 3016 c73c 30be cc3c 4a95 9a3d 236f e4bb
00000140: fa29 243d 6bc7 043d 2219 fabb 0a06 f0bc
00000150: a0ba bfbd 209b ee3d 3690 d33d 1d61 843a
00000160: bece 9fbd 4ddc c7bd 0c61 5ebd 75ef a1bd
00000170: 1757 af3d db28 f73d f8e6 c63d 8a94 a6bd
00000180: 4b98 97bc 46ff 43bd 8094 08bb 9cbb 603d
00000190: e497 193d a6c1 d3bb f281 5b3d 1a11 a9bd
000001a0: 343f 7b3d 7247 cbbc 9c0f f2bd 9048 8bbd
000001b0: 8b5e b5bd 6850 473c eab5 df3d c8b6 d43d
000001c0: a9b2 dd3d efed 0c3c 4a1e d7bd 194d af3d
000001d0: 279f 14bd 388b be3d 6887 883c 249f 893c
000001e0: 133b c5bd 5665 633d 42fc 79bc 9cd7 c3bd
000001f0: 0140 f33d 3c8c a53d 82eb 92bc 805a 683d
00000200: 8c4a 4c3d fcb7 63bd 4375 98bc 0532 5f3d
00000210: e469 e5bc 1567 aabd 05fb 873d 44c9 39bd
00000220: d3ac e5bd 49d4 72bd bb7e 963d 5ddf 03bc
00000230: 3294 963d 208e 573d 2865 b8bc d801 463d
00000240: d1f8 f83d 99fe d4bd 44db 3f3d 9cb1 f2bd
00000250: 80a8 833c ec02 133d 8d3f b4bb 9454 4cbb
00000260: 8743 2d3d 952b e0bd ffb6 c1bb 8d5b fe3d
00000270: 166b a6bc 88f4 03bc 89a1 c1bc 4cbf af3d
00000280: 5863 6dbd 9a62 973d 44a0 783d 88e6 8d3d
00000290: b07a c6bd 7b9d f43d adbe bcbd 7e3e 94bd
000002a0: 4473 dbbd 3643 74bd 56c9 f93d bdd2 75bd
000002b0: 520d febd 28ab f1bd 23f5 b5bd c2e8 973d
000002c0: 337c 03bd c0d6 253d 271e d93d 7273 ff3d
000002d0: aef9 83bd 7aea 8b3d c853 e03d ac8e bbbd
000002e0: 5bea a13d d503 86bc 3b73 a13d 8ab3 ffbd
000002f0: 7033 873d 4049 373b d89c 70bc 82d4 51bc
00000300: ace4 82bd 3aa5 dd3d 5368 fdbd 2f4d 5fbd
00000310: 8834 c9bd 07a1 50bd 7b4b 60bd e3b7 393d
00000320: 5a1a e8bc c443 c33d 0109 90bd 2773 023c
00000330: 1a43 c8bd ced0 8bbd 5059 d7bc 4eee a2bd
00000340: d66e 813d bd9d 6a3d 441c 91ba 0f67 fa3d
00000350: 966c d23d 20b4 3abc 9073 f1bd 686b 79bd
00000360: 1f71 ae3c 494d b83d c40d 843d f40d c53d
00000370: 9eb4 27bd 0e21 d63d 8b08 cb3d 8a7f 4e3d
00000380: 29f9 c53c a9ab abbd 9ae8 e33d ff5e 153d
00000390: 7eab a73d 4b32 8ebc 1410 52bd 6808 bdbd
000003a0: 586e 49bd c05d c9bc 43f0 863c e21b 1f3c
000003b0: 2d3d 88bd fe7b 223a ba0a 9b3d e802 4f3d
000003c0: 5c08 5b3d 01be c8bd f0ed 533c f8f3 8c3c
000003d0: 0c36 69bc 27f9 b3bd a46d 543d e859 ccbd
000003e0: 457f 733d a2c1 873d e9c6 653d 646c 66bd
000003f0: 45b0 833d 7cc5 c13d fcf0 e8bd bf79 b93d

bias f4 [6]
-0.040960833 -0.050713435 -0.020708814 0.060312882 0.083970055 -0.03250274
00000000: 8cc6 27bd e4b8 4fbd 88a5 a9bc a40a 773d
00000010: 7ef8 ab3d 9821 05bd
