models/gg-2023-11-09_20-53.pt (torch, 43408 bytes, 8 tensors)

_layers.0.weight f4 [64, 19]
0.20597006 0.17165282 0.049195513 0.09047065 0.15486035 0.21375713 -0.022793008 0.34317434
0.20198153 0.09288692 -0.20326577 0.22033028 0.15859425 -0.18895306 -0.17098576 0.20891024
-0.07659454 -0.09099783 -0.023486253 0.22621499 -0.2487236 0.2126804 0.19088323 0.08463753
0.15832801 -0.033274967 0.22544135 0.18013443 -0.029264668 0.070844255 0.23109874 0.11619163
-0.05932117 0.088497676 0.10750479 -0.30896595 0.15080827 0.059664693 0.120557435 -0.43908328
-0.10868722 0.0809761 0.15858859 -0.08302746 -0.04467557 0.1867128 0.14826497 0.18802112
0.040035114 0.0987337 -0.14508004 -0.21730648 0.22113916 0.1991694 0.30478242 -0.093038574
0.09194948 0.01899168 -0.23982318 0.1572182 0.19051856 -0.24399222 0.08474164 0.3089337
-0.06370118 -0.21951202 -0.15844244 0.26906198 -0.068362564 -0.007995717 -0.048109308 0.18857764
0.04297642 -0.052530266 -0.26939982 -0.07444582 0.114300214 0.29113615 0.040313452 -0.027626757
0.17657004 0.08258018 -0.09846611 0.3465701 0.22414616 -0.14280981 -0.5700535 0.031173525
-0.23551153 0.1950649 0.020988032 0.05465014 -0.005133066 0.18903974 -0.13639008 -0.21223786
-0.27178234 0.11279432 -0.004396711 -0.06640921 0.17159794 0.27451897 0.32779032 -0.19114555
-0.10596464 -0.3751717 0.23579341 0.11534893 -0.032491613 0.0021388899 -0.08766183 -0.06456417
0.23805217 0.07579133 -0.20102575 0.09791209 0.09872184 0.17122729 0.057998065 -0.031899616
-0.085796274 -0.2980781 -0.03768061 -0.037048835 0.28305537 -0.083642945 0.15466315 -0.12020953
0.1648177 -0.10662147 0.12762599 -0.04605778 0.12026766 0.22005396 0.10833819 -0.18613048
0.17424625 0.22635253 -0.06514072 -0.106875084 0.23192139 0.14307982 0.003869023 -0.41966593
-0.1377667 0.20279908 -0.10765083 0.1071731 0.008529982 0.4454004 0.18661924 -0.009592727
-0.08437486 0.3733888 0.1736122 -0.02790634 0.07259172 -0.22222611 -0.12428287 -0.31349984
0.08320532 0.13852333 -0.0051789237 -0.21393387 -0.17193584 0.107498236 0.11751519 0.23323989
0.056229293 -0.008216517 0.06954046 0.11882536 0.24296245 -0.013662832 0.28235966 -0.003368396
-0.18159488 -0.08688909 -0.09659337 -0.22762695 0.112344444 -0.03689611 0.055546097 0.22657213
-0.21598968 -0.11597336 0.16671427 0.07209348 -0.23425372 0.22279738 0.0067680734 0.1347686
0.07232659 -0.05745725 0.037529312 0.26726943 -0.280447 0.31291837 0.12981275 0.27982697
-0.13955438 -0.10630995 -0.10662217 0.03512497 0.2369945 -0.23833054 0.060886595 0.11047431
-0.013222651 0.18492106 -0.21037686 -0.19129534 0.08631807 -0.17563683 -0.03186807 0.20514017
0.27237424 0.15777841 0.30159333 -0.11498594 0.2412389 -0.18695061 0.15600672 -0.17509863
-0.111044645 0.27463287 0.18549623 -0.080732115 0.07866649 0.22741397 0.077751786 -0.19463636
-0.29675576 -0.11607484 -0.101584464 0.085711144 -0.12336979 0.15498368 0.009414391 -0.115569964
-0.24081507 0.2433146 -0.229697 0.18651967 0.07303804 0.045456275 0.13925728 0.04697509
-0.41817918 0.16899438 0.02600616 -0.20467225 0.04106842 -0.080446355 0.05273781 -0.13341507
00000000: d1e9 523e c2c5 2f3e 3c81 493d ad48 b93d
00000010: b693 1e3e 26e3 5a3e 67b8 babc 8cb4 af3e
00000020: 3fd4 4e3e 7f3b be3d e724 50be 439e 613e
00000030: 8866 223e e97c 41be e416 2fbe 91ec 553e
00000040: 99dd 9cbd 125d babd 3e66 c0bc e7a4 673e
00000050: 66b1 7ebe e4c8 593e e576 433e 7156 ad3d
00000060: bd20 223e 554b 08bd 19da 663e 2975 383e
00000070: 75bc efbc cb16 913d 26a5 6c3e e1f5 ed3d
00000080: c1fa 72bd 453e b53d 792b dc3d c930 9ebe
00000090: 7c6d 1a3e f762 743d d1e6 f63d 86cf e0be
000000a0: 6897 debd ccd6 a53d 0c65 223e 4d0a aabd
000000b0: bbfd 36bd a431 3f3e c6d2 173e 9c88 403e
000000c0: dcfb 233d e534 ca3d dd8f 14be 9785 5ebe
000000d0: 4e72 623e 10f3 4b3e 710c 9c3e 028b bebd
000000e0: 0250 bc3d 7194 9b3c 3594 75be cffd 203e
000000f0: 4c17 433e 19d9 79be 068d ad3d 8f2c 9e3e
00000100: c475 82bd c2c7 60be bc3e 22be 7ec2 893e
00000110: ac01 8cbd 7800 03bc 440e 45bd 7f1a 413e
00000120: 0b08 303d fa29 57bd c6ee 89be 0d77 98bd
00000130: 3b16 ea3d cc0f 953e b81f 253d 8251 e2bc
00000140: c7ce 343e cc1f a93d 9aa8 c9bd a371 b13e
00000150: 9286 653e bc3c 12be 07ef 11bf 9f5f ff3c
00000160: ef29 71be 18bf 473e 18ef ab3c d3d8 5f3d
00000170: 4733 a8bb a293 413e d7a9 0bbe e254 59be
00000180: 0e27 8bbe b500 e73d 4912 90bb 8d01 88bd
00000190: 5fb7 2f3e c08d 8c3e 22d4 a73e a9bb 43be
000001a0: fd03 d9bd 8116 c0be d473 713e 0f3c ec3d
000001b0: ed15 05bd 9e2c 0c3b 0c88 b3bd 383a 84bd
000001c0: f3c3 733e 7c38 9b3d b2d9 4dbe 2286 c83d
000001d0: ad2e ca3d 3556 2f3e 618f 6d3d 2ca9 02bd
000001e0: f5b5 afbd b19d 98be fc56 1abd 85c0 17bd
000001f0: a2ec 903e fe4c abbd 0460 1e3e 6a30 f6bd
00000200: f9c5 283e 5b5c dabd 63b0 023e 15a7 3cbd
00000210: e44e f63d d355 613e 6ae0 dd3d fd98 3ebe
00000220: 9c6d 323e f5c8 673e 7f68 85bd 53e1 dabd
00000230: cd7c 6d3e 8483 123e 6f8f 7d3b 74de d6be
00000240: b712 0dbe 90aa 4f3e 0a78 dcbd 927d db3d
00000250: 56c1 0b3c 850b e43e 1d19 3f3e d02a 1dbc
00000260: bacc acbd d12c bf3e 66c7 313e d69b e4bc
00000270: f8aa 943d 3e8f 63be 0488 febd 0d83 a0be
00000280: 8d67 aa3d 0fd9 0d3e f6b3 a9bb 7b11 5bbe
00000290: f30f 30be 0928 dc3d ceab f03d 70d6 6e3e
000002a0: b050 663d 929e 06bc 3b6b 8e3d b65a f33d
000002b0: 26cb 783e 12da 5fbc 7291 903e 4fc0 5cbb
000002c0: 02f4 39be e8f2 b1bd bfd2 c5bd 0a17 69be
000002d0: d814 e63d 6020 17bd 4e84 633d 8602 683e
000002e0: 662c 5dbe 7183 edbd 25b7 2a3e bfa5 933d
000002f0: 35e0 6fbe ff24 643e b7c6 dd3b c800 0a3e
00000300: f71f 943d 4b58 6bbd 56b8 193d 8ad7 883e
00000310: c096 8fbe d636 a03e a2ed 043e 7b45 8f3e
00000320: 58e7 0ebe 08b9 d9bd b95c dabd 33df 0f3d
00000330: b0ae 723e ec0c 74be 3964 793d 5b40 e23d
00000340: d1a3 58bc f25b 3d3e 086d 57be ede2 43be
00000350: 87c7 b03d 24da 33be 1888 02bd 4410 523e
00000360: a374 8b3e aa90 213e 716a 9a3e c07d ebbd
00000370: 5507 773e fb6f 3fbe 3ac0 1f3e 0e4d 33be
00000380: 606b e3bd ae9c 8c3e b9f2 3d3e e156 a5bd
00000390: e61b a13d 35df 683e 543c 9f3d c14e 47be
000003a0: 5ff0 97be a5b8 edbd 840b d0bd 5389 af3d
000003b0: 4da9 fcbd 0bb4 1e3e d13e 1a3c f2af ecbd
000003c0: 3a98 76be 7627 793e b135 6bbe 03ff 3e3e
000003d0: f894 953d 5c30 3a3d 7699 0e3e f468 403d
000003e0: 951b d6be dd0c 2d3e df0a d53c 9a95 51be
000003f0: 5c37 283d 0fc1 a4bd 9a03 583d f69d 08be

_layers.0.bias f4 [64]
0.17805983 -0.05332831 -0.08889701 -0.11590328 0.074226655 -0.077907935 0.091766454 0.2017754
0.13926809 -0.2171144 -0.17320019 -0.12961327 0.024116797 0.034486167 0.15316084 0.14237858
-0.13160947 -0.22989532 0.02940252 0.13152087 -0.01340967 0.14574753 -0.15899564 -0.11596897
-0.12369385 -0.22480866 0.23367724 0.21924816 -0.09052246 0.24279624 0.027783966 0.1701294
-0.22662444 0.22032246 0.1108114 -0.1420964 -0.04732985 0.13947557 0.01919422 -0.12747523
-0.052708622 -0.21894123 -0.07313898 -0.13388103 0.116683654 0.028789278 0.17910038 -0.08415212
-0.055373147 0.06787652 -0.05416529 -0.15735303 0.1229749 -0.0832206 0.08698661 -0.185719
0.03394734 -0.025263246 0.041249033 -0.15206267 0.16600628 -0.012379007 0.060706414 -0.048356544
00000000: 5155 363e c96e 5abd a30f b6bd b35e edbd
00000010: 2504 983d 328e 9fbd 0df0 bb3d 369e 4e3e
00000020: 4b9c 0e3e 3d53 5ebe 645b 31be 57b9 04be
00000030: 9790 c53c 5e41 0d3d 32d6 1c3e b1cb 113e
00000040: a2c4 06be ae69 6bbe 8edd f03c 68ad 063e
00000050: 3cb4 5bbc d73e 153e c1cf 22be 2481 edbd
00000060: 3453 fdbd 3e34 66be 1649 6f3e 9782 603e
00000070: d763 b9bd 949f 783e 339b e33c 6736 2e3e
00000080: 3d10 68be 369c 613e 16f1 e23d b881 11be
00000090: f2dc 41bd afd2 0e3e 323d 9d3c de88 02be
000000a0: ffe4 57bd 2132 60be e4c9 95bd 1c18 09be
000000b0: d7f7 ee3d 7ed7 eb3c 1766 373e f257 acbd
000000c0: f4ce 62bd d802 8b3d 6cdc 5dbd 2721 21be
000000d0: 44da fb3d 906f aabd 0926 b23d 1f2d 3ebe
000000e0: 5e0c 0b3d def4 cebc bff4 283d 51b6 1bbe
000000f0: 8dfd 293e 52d1 4abc 4aa7 783d 8311 46bd

_layers.2.weight f4 [64, 64]
0.14533196 -0.0017053665 -0.12813303 -0.61368763 0.2768507 0.11309572 -0.13666767 0.024200317
0.15515526 -0.16659965 -0.19045027 -0.024756135 -0.0120360255 -0.28124076 -0.60735524 -0.13474898
-0.08321683 -0.4996438 -0.088916734 0.031289935 0.10342084 0.18182786 0.007893778 0.05740845
-0.0056425617 0.030360147 -0.05085662 0.0837898 0.10702899 0.14848255 0.122256 0.26065904
-0.09643737 0.18787326 0.24626201 -0.017489508 -0.06949967 -0.15827543 -0.1263056 -0.35671237
0.0691114 0.10158618 -0.23580056 -0.07746425 0.08095374 -0.004697713 0.16496441 0.02746053
0.22084281 -0.009566628 0.15137032 -0.1311845 -0.06325318 -0.04158494 0.057040777 0.08833839
-0.29657787 0.024083313 0.280254 0.17206144 -0.015058749 0.17459273 -0.0610956 0.340794
0.15143648 0.16107193 0.1285648 0.3789033 -0.112390116 0.2739973 -0.023448218 0.0843142
-0.1529166 -0.4049847 0.06576556 -0.0239249 -0.35999238 -0.09430242 -0.23598962 0.049392696
-0.094144315 -0.05709104 0.10205389 -0.36901882 0.028762197 0.09876985 0.01627448 -0.2664189
-0.0059749344 -0.075453825 -0.112153485 -0.08767113 -0.03897274 -0.003303251 0.20713238 0.16986182
0.068934865 -0.0028949385 0.46660963 0.1100644 -0.21667795 -0.022618514 0.07000612 0.057344366
0.115647525 -0.05338435 -0.0058379387 -0.09213416 -0.15603271 0.10756882 0.08638384 0.0962497
0.15138707 -0.20050411 0.12972005 -0.076700985 -0.12443877 -0.09516313 0.08431914 -0.105454065
-0.5059703 -0.029051676 0.17706555 0.07418901 0.335972 -0.030612402 0.20469205 0.17160009
-0.012667335 -0.12232273 0.08616304 0.057452004 -0.09817787 0.026515696 0.20163031 0.118748695
0.07204455 0.44342998 -0.081922665 0.20560059 0.13584295 0.18019809 0.37052044 0.015197309
-0.00837817 0.3148992 0.05494757 0.3244355 0.010591634 -0.037288565 -0.08293232 0.004711176
0.21236925 0.0014281869 0.11799195 -0.011796049 -0.058490172 -0.059528653 -0.1860907 -0.20560248
-0.11202955 -0.18240014 -0.8603148 -0.041490197 0.25808778 0.10796984 -0.10615511 0.12084177
-0.019676799 0.11921482 0.15250005 0.038523585 -0.026927724 0.08626547 -0.009114562 -0.10995123
-0.027007947 0.19316715 0.015979743 0.091957346 0.25043684 -0.02995032 0.036802366 0.16115385
0.48553997 0.06517665 -0.108892605 0.057278994 -0.39646056 -0.09339312 -0.042820524 -0.11714233
-0.0337961 -0.009924245 0.085870296 -0.09654319 0.0746206 -0.05504523 -0.025437197 0.092850775
-0.04913808 -0.039149314 0.07168447 0.045299914 -0.08880902 -0.0406555 0.10183641 0.0332438
0.122644156 -0.112756126 -0.1318252 0.06799325 -0.08886668 -0.06328996 -0.042393833 -0.06144426
-0.068308435 -0.0022960752 -0.01106938 -0.11609803 -0.0068608965 -0.11715381 0.09830494 0.029072931
-0.082274914 -0.061728273 0.10746278 0.10180423 0.046988998 -0.015728405 -0.022896461 0.042569816
0.09886961 -0.10019188 -0.029104197 -0.09090014 0.09011107 0.04877301 0.08669269 -0.0021494627
0.022262875 -0.12320173 0.015647884 -0.11101216 -0.06621837 0.05604397 -0.12972762 0.08564702
0.12238231 -0.038704593 -0.1110886 -0.052090425 0.1148047 0.010575814 -0.009855255 0.082282715
00000000: e7d1 143e 9b86 dfba 4e35 03be a21a 1dbf
00000010: 60bf 8d3e bb9e e73d 9cf2 0bbe be3f c63c
00000020: 05e1 1e3e 1999 2abe 6505 43be 61cd cabc
00000030: c032 45bc cafe 8fbe a27b 1bbf a3fb 09be
00000040: 966d aabd 50d1 ffbe fa19 b6bd e029 003d
00000050: 4ece d33d 1531 3a3e e854 013c 1f25 6b3d
00000060: 3de5 b8bb d8b5 f83c 084f 50bd fd99 ab3d
00000070: 0432 db3d cf0b 183e 5b61 fa3d 1a75 853e
00000080: f580 c5bd d961 403e 1c2c 7c3e 2846 8fbc
00000090: d855 8ebd f412 22be 4156 01be 01a3 b6be
000000a0: 478a 8d3d 6a0c d03d b475 71be 94a5 9ebd
000000b0: 13cb a53d 46ef 99bb 6eec 283e e8f4 e03c
000000c0: 9e24 623e 59bd 1cbc d200 1b3e 3b55 06be
000000d0: e28a 81bd f854 2abd 97a3 693d c2ea b43d
000000e0: 0ed9 97be 5e4a c53c 747d 8f3e e030 303e
000000f0: f9b8 76bc 70c8 323e 613f 7abd 8d7c ae3e
00000100: 2a12 1b3e 0af0 243e 7ea6 033e 9dff c13e
00000110: ca2c e6bd 6049 8c3e 7a16 c0bc ecac ac3d
00000120: 2b96 1cbe 285a cfbe 18b0 863d 27fe c3bc
00000130: ec50 b8be a121 c1bd 43a7 71be ff4f 4a3d
00000140: bcce c0bd 4bd8 69bd a101 d13d 09f0 bcbe
00000150: b39e eb3c d947 ca3d 0f52 853c 0f68 88be
00000160: 62c9 c3bb 8987 9abd bab0 e5bd ec8c b3bd
00000170: e1a1 1fbd 5b7b 58bb 831a 543e 42f0 2d3e
00000180: b92d 8d3d 02b9 3dbb 75e7 ee3e 7269 e13d
00000190: d3e0 5dbe 764a b9bc 5e5f 8f3d ede1 6a3d
000001a0: 9cd8 ec3d 8ca9 5abd 2e4c bfbb d6b0 bcbd
000001b0: 0ac7 1fbe 0b4d dc3d 03ea b03d 901e c53d
000001c0: 3605 1b3e f350 4dbe 55d5 043e 6815 9dbd
000001d0: c1d9 febd e3e4 c2bd 83af ac3d 4df8 d7bd
000001e0: 4587 01bf c8fd edbc ac50 353e 68f0 973d
000001f0: 8604 ac3e dcc6 fabc cb9a 513e efb7 2f3e
00000200: a78a 4fbc 5784 fabd 3f76 b03d cb52 6b3d
00000210: 7b11 c9bd 7237 d93c 2d78 4e3e 8432 f33d
00000220: 188c 933d 4109 e33e 12c7 a7bd f688 523e
00000230: 6a1a 0b3e d985 383e dbb4 bd3e 22fe 783c
00000240: 9844 09bc 783a a13e b410 613d 691c a63e
00000250: 8888 2d3c e5bb 18bd 6cd8 a9bd 3560 9a3b
00000260: 5377 593e 0032 bb3a c3a5 f13d 3744 41bc
00000270: 6493 6fbd 51d4 73bd 8f8e 3ebe 7589 52be
00000280: c06f e5bd 1ac7 3abe 973d 5cbf a0f1 29bd
00000290: 1524 843e 4b1f dd3d da67 d9bd e47b f73d
000002a0: 3d31 a1bc e626 f43d f928 1c3e e8ca 1d3d
000002b0: 8897 dcbc f3ab b03d 3e55 15bc 1c2e e1bd
000002c0: c53f ddbc 9ccd 453e f3e7 823c 2254 bc3d
000002d0: 4239 803e 605a f5bc 14be 163d 8405 253e
000002e0: b298 f83e 567b 853d 1603 dfbd 619d 6a3d
000002f0: e1fc cabe e444 bfbd 9364 2fbd 51e8 efbd
00000300: c86d 0abd 4d99 22bc c4dc af3d 70b8 c5bd
00000310: afd2 983d 1b77 61bd ab61 d0bc 8c28 be3d
00000320: 0345 49bd 085b 20bd 4fcf 923d 678c 393d
00000330: 81e1 b5bd 6286 26bd 9c8f d03d a72a 083d
00000340: dc2c fb3d afec e6bd 2ffd 06be 0c40 8b3d
00000350: bcff b5bd 2b9e 81bd 28a5 2dbd faac 7bbd
00000360: 4be5 8bbd c079 16bb 585c 35bc cec4 edbd
00000370: 5fd1 e0bb 56ee efbd 1a54 c93d 5b2a ee3c
00000380: c07f a8bd c9d6 7cbd 7215 dc3d bc7e d03d
00000390: 8977 403d dbd8 80bc 5c91 bbbc b05d 2e3d
000003a0: 267c ca3d 6631 cdbd ed6b eebc da29 babd
000003b0: 278c b83d 35c6 473d f08b b13d 00de 0cbb
000003c0: a260 b63c 3051 fcbd fe2f 803c 585a e3bd
000003d0: 7f9d 87bd 5d8e 653d 51d7 04be b467 af3d
000003e0: 94a3 fa3d b588 1ebd 6b82 e3bd c55c 55bd
000003f0: ba1e eb3d 2e46 2d3c ef77 21bc d783 a83d

_layers.2.bias f4 [64]
0.08985232 -0.05378177 0.016977783 -0.10691434 0.1187237 0.121775575 -0.014984 -0.017155375
0.04846945 -0.0085825985 0.12653251 -0.032117575 0.078221895 0.15461715 -0.04500717 0.153754
-0.010591967 -0.08291702 0.06183901 -0.041314393 0.012387514 -0.027007189 0.0078074653 0.01763201
-0.049830146 0.1221292 -0.10301261 -0.08246875 -0.08334248 0.11258893 0.030742776 0.14970587
0.058265924 -0.11715864 0.016209707 0.004036412 0.12349435 -0.0662249 0.06804817 0.05066415
-0.10703763 -0.051301267 0.02496485 -0.030812653 0.022103408 0.17667046 -0.07470015 0.04247744
-0.0028806338 -0.055633843 0.04892488 -0.008828931 0.121021315 -0.04288446 0.03504193 0.04364954
0.08806716 0.05454352 0.08200916 -0.10457128 0.052825823 0.0068106055 0.10053886 0.10185759
00000000: 7e04 b83d 464a 5cbd fe14 8b3c e8f5 dabd
00000010: 6925 f33d 7965 f93d 737f 75bc 6e89 8cbc
00000020: e787 463d 079e 0cbc bd91 013e b88d 03bd
00000030: cd32 a03d f553 1e3e 7059 38bd b071 1d3e
00000040: ee89 2dbc 66d0 a9bd e74a 7d3d 4839 29bd
00000050: 00f5 4a3c 2e3e ddbc c4d5 ff3b 0171 903c
00000060: b21a 4cbd e01e fa3d 46f8 d2bd 60e5 a8bd
00000070: 76af aabd 0695 e63d 46d8 fb3c 7f4c 193e
00000080: 40a8 6e3d def0 efbd 38ca 843c e143 843b
00000090: 9bea fc3d eca0 87bd d75c 8b3d 3685 4f3d
000000a0: 8c36 dbbd 4721 52bd 1683 cc3c d16a fcbc
000000b0: 3512 b53c 1ae9 343e 64fc 98bd d3fc 2d3d
000000c0: 04c9 3cbb 50e0 63bd 7465 483d 38a7 10bc
000000d0: 06da f73d 9ea7 2fbd 2088 0f3d dcc9 323d
000000e0: 8e5c b43d 0769 5f3d 6bf4 a73d 7829 d6bd
000000f0: e45f 583d 802b df3b 51e7 cd3d b69a d03d

_layers.4.weight f4 [64, 64]
-0.09621227 0.041257635 0.05505085 -0.0023663938 -0.057069615 -0.10110061 0.054640234 0.10187906
0.016150862 -0.07457852 -0.025585055 0.11374377 0.0036578625 0.0042960644 0.08842613 0.035581127
0.08367592 0.09803614 -0.04136704 0.10025938 -0.11968683 -0.052705258 -0.01681988 -0.08223297
0.114391804 -0.050906792 -0.08882801 0.07053763 -0.093437955 -0.119255334 -0.007783428 -0.021416828
0.10484804 -0.07003152 0.0168335 -0.11460887 -0.046622038 -0.01335074 0.0650861 0.05841981
0.015124187 -0.06740014 -0.07974988 -0.083490714 -0.016440764 0.12194225 0.07572332 0.08542082
0.06824061 0.06315786 0.09848127 0.021117315 -0.08867794 -0.01673314 -0.07396959 -0.08527838
-0.00703457 0.056591406 -0.07315649 0.05585979 -0.046421304 0.008221418 -0.012358502 -0.009532511
-0.092701495 0.1342756 -0.09954574 0.027385982 0.16012113 -0.45746857 0.17074803 -0.2715872
0.30977896 0.05337433 0.012290809 0.16011551 0.20770335 0.10263962 -0.08362133 0.05558694
-0.261317 -0.022036314 0.10388655 0.10199375 0.0009531379 0.37927783 -0.016330913 -0.10326503
-0.12451021 -0.18758796 0.04154844 0.13932814 0.063814476 0.12913194 0.37062305 0.03627146
0.031669617 -0.061060756 -0.011200909 0.077457294 0.044658184 -0.0099666715 -0.09437253 -0.02797991
0.06948177 -0.105594836 0.3561534 0.01653608 -0.23262908 -0.14243177 0.10484269 -0.061206903
-0.20840776 0.043854058 0.11811959 0.09885138 -0.3902456 -0.06021321 -0.068076156 0.28735423
0.10536626 0.18205929 -0.2356304 -0.07584362 -0.124167055 -0.1055592 -0.366997 0.13684303
0.07846705 0.127407 -0.16074085 0.09127257 -0.003300605 0.51921386 -0.18259399 0.21794525
-0.12466083 0.034309264 0.09607503 -0.24796195 0.060091015 0.016523909 0.14255205 -0.0340906
-0.129705 0.009045407 0.12530631 -0.10255518 -0.12083259 -0.2476733 -0.084627144 -0.17991275
0.37087682 0.24487326 0.026249573 -0.4044804 0.03772749 -0.06951092 -0.3666552 0.07498889
0.22429065 -0.11602217 -0.039157197 0.034663796 -0.13115554 -0.09950833 0.42496917 -0.16871583
0.18418884 0.017615471 -0.32431167 -0.16919681 0.35117164 0.34103805 -0.051445022 0.06887985
0.17417818 -0.021643922 -0.028232122 0.120384865 0.25757962 0.30770183 0.32536983 -0.29835257
-0.074908525 0.30589154 0.23487274 0.0018681437 0.113500506 -0.012700453 0.39988896 -0.083752505
-0.11189334 0.095771864 0.18642342 -0.07383583 0.10475766 -0.2786049 0.44266185 -0.21032377
0.14508967 0.25918007 0.06602967 0.2846755 0.33588508 -0.022329096 0.13796902 0.015721861
0.221906 -0.031772852 0.0904186 -0.07757304 0.08103222 0.09943071 0.027286626 0.31962377
-0.32526043 -0.27618203 0.019078437 0.35554636 0.14227563 -0.21329786 0.27587214 0.19193904
0.018299391 0.053353935 -0.032053154 0.39421538 0.064315245 -0.031902656 -0.2003919 0.10597893
-0.015892463 -0.0997083 0.11047776 0.25550556 0.06555417 -0.21957402 -0.10953514 -0.054834504
-0.007819356 -0.06624372 -0.012515077 0.14583759 -0.11649107 0.5192401 -0.27503526 0.21444084
0.1628384 0.09585875 -0.16548824 -0.09664166 0.06793441 0.029919207 -0.3616034 -0.044605177
00000000: f00a c5bd c4fd 283d 007d 613d 8015 1bbb
00000010: d4c1 69bd d60d cfbd 70ce 5f3d f8a5 d03d
00000020: d04e 843c a0bc 98bd c097 d1bc 7ef2 e83d
00000030: c0b8 6f3b 00c6 8c3b c218 b53d 84bd 113d
00000040: 485e ab3d 2cc7 c83d 7c70 29bd ca54 cd3d
00000050: 5e1e f5bd 78e1 57bd d8c9 89bc c269 a8bd
00000060: 4046 ea3d a483 50bd 76eb b5bd 0876 903d
00000070: 665c bfbd 243c f4bd 200c ffbb 5872 afbc
00000080: 92ba d63d b06c 8fbd 68e6 893c 0eb8 eabd
00000090: c0f6 3ebd 10bd 5abc dc4b 853d 9c49 6f3d
000000a0: 70cb 773c 1609 8abd e853 a3bd 2efd aabd
000000b0: c8ae 86bc dcbc f93d d414 9b3d 1cf1 ae3d
000000c0: bcc1 8b3d e858 813d 8cb0 c93d 38fe ac3c
000000d0: c89c b5bd f013 89bc 5e7d 97bd 6ea6 aebd
000000e0: 4082 e6bb 64cc 673d 12d3 95bd 3ccd 643d
000000f0: 4424 3ebd 20b3 063c 507b 4abc 402e 1cbc
00000100: 48da bdbd 8b7f 093e a3de cbbd 9158 e03c
00000110: cbf6 233e 5239 eabe 92d8 2e3e 7a0d 8bbe
00000120: 599b 9e3e 0b9f 5a3d 645f 493c 52f5 233e
00000130: 30b0 543e b934 d23d a941 abbd 22af 633d
00000140: 58cb 85be 8085 b4bc 79c2 d43d 19e2 d03d
00000150: 00dc 793a b430 c23e 68c8 85bc 9e7c d3bd
00000160: 35ff febd 0f17 40be b22e 2a3d 09ac 0e3e
00000170: 2ab1 823d 2a3b 043e 4ec2 bd3e 6291 143d
00000180: 00b8 013d d81a 7abd 0484 37bc eea1 9e3d
00000190: 80eb 363d 404b 23bc 6346 c1bd 2036 e5bc
000001a0: 754c 8e3d 1b42 d8bd bd59 b63e ac76 873c
000001b0: 5136 6ebe a2d9 11be c4b7 d63d 17b4 7abd
000001c0: d868 55be 50a0 333d afe8 f13d 9872 ca3d
000001d0: 45ce c7be 20a2 76bd 836b 8bbd 1820 933e
000001e0: 44ca d73d c06d 3a3e 1849 71be e653 9bbd
000001f0: 4c4b febd 6c2f d8bd 08e7 bbbe 9420 0c3e
00000200: 55b3 a03d fb76 023e 4099 24be 1ded ba3d
00000210: f74e 58bb 33eb 043f ebf9 3abe 0a2d 5f3e
00000220: 2d4e ffbd df87 0c3d fcc2 c43d bde9 7dbe
00000230: ff21 763d 265d 873c 2af9 113e 96a2 0bbd
00000240: 63d1 04be 3033 143c 4c50 003e 7308 d2bd
00000250: 1477 f7bd 129e 7dbe ff50 adbd 0c3b 38be
00000260: 91e3 bd3e 0ec0 7a3e 5809 d73c 0e18 cfbe
00000270: 2488 1a3d be5b 8ebd 3bba bbbe c693 993d
00000280: 73ac 653e 089d edbd 4c63 20bd a0fb 0d3d
00000290: a34d 06be 06cb cbbd 8f95 d93e d8c3 2cbe
000002a0: 009c 3c3e 524e 903c 2e0c a6be ee41 2dbe
000002b0: c5cc b33e 8a9c ae3e 04b8 52bd e110 8d3d
000002c0: c45b 323e 984e b1bc 0d47 e7bc 578c f63d
000002d0: 7ae1 833e 188b 9d3e e096 a63e abc1 98be
000002e0: a469 99bd d19d 9c3e 7b82 703e 80dc f43a
000002f0: f472 e83d 9015 50bc 3fbe cc3e 6f86 abbd
00000300: 5628 e5bd 0a24 c43d c8e5 3e3e 3d37 97bd
00000310: 2f8b d63d 4da5 8ebe 93a4 e23e 1d5f 57be
00000320: 6392 143e 40b3 843e 903a 873d fdc0 913e
00000330: 21f9 ab3e 82eb b6bc c047 0d3e 22cb 803c
00000340: 543b 633e 4024 02bd 632d b93d 9dde 9ebd
00000350: 38f4 a53d 54a2 cb3d 3488 df3c baa5 a33e
00000360: 8988 a6be bb67 8dbe 624a 9c3c 2c0a b63e
00000370: b4b0 113e c16a 5abe 1d3f 8d3e ab8b 443e
00000380: 9be8 953c a889 5a3d 2b4a 03bd 99d6 c93e
00000390: b6b7 833d 5cac 02bd 8933 4dbe 7b0b d93d
000003a0: e930 82bc dd33 ccbd 2a42 e23d a0d1 823e
000003b0: 4441 863d 03d8 60be f653 e0bd 259a 60bd
000003c0: c21c 00bc caaa 87bd 0a0c 4dbc 7356 153e
000003d0: df92 eebd ebec 043f 6cd1 8cbe 6196 5b3e
000003e0: 1cbf 263e 9851 c43d c075 29be 10ec c5bd
000003f0: 3221 8b3d 2019 f53c 1524 b9be ebb3 36bd

_layers.4.bias f4 [64]
-0.08736725 0.06631026 0.07951003 0.036327373 -0.053420417 0.15286529 0.04829155 0.110509545
0.08743643 -0.08022827 -0.039888922 -0.09657597 0.17040516 0.025569502 0.16592768 0.054404072
0.07141941 0.10262455 0.12906893 0.069361106 -0.09367974 -0.068056844 -0.035007436 -0.12047173
0.12772508 -0.02233559 0.07250078 0.12517688 0.0721891 0.17579253 0.0022430061 -0.10434601
0.12628432 -0.061983608 0.05374594 0.11857416 -0.030142179 0.22803232 0.05567921 -0.08214313
0.056180123 -0.01071453 -0.05235738 -0.04363884 0.053411163 -0.016464308 -0.1213444 0.04644492
0.092945926 -0.09992902 0.034981873 0.09399538 0.08011585 0.14073656 0.024636183 0.05578673
0.02081567 -0.11597854 -0.010752877 0.08908486 -0.07835422 -0.0704981 -0.013234376 0.052697852
00000000: 9aed b2bd accd 873d 28d6 a23d 03cc 143d
00000010: 5ecf 5abd b888 1c3e 5ccd 453d d452 e23d
00000020: df11 b33d b84e a4bd 9162 23bd 9fc9 c5bd
00000030: b17e 2e3e 2277 d13c f2e8 293e ced6 5e3d
00000040: 5744 923d d22c d23d a52a 043e 320d 8e3d
00000050: 2adb bfbd 6361 8bbd f563 0fbd e2b9 f6bd
00000060: 5dca 023e 21f9 b6bc 4a7b 943d 5e2e 003e
00000070: e1d7 933d f502 343e 66ff 123b 5cb3 d5bd
00000080: ad50 013e 86e2 7dbd b424 5c3d 02d7 f23d
00000090: bbec f6bc 4e81 693e e20f 643d a83a a8bd
000000a0: 211d 663d ff8b 2fbc b174 56bd a4be 32bd
000000b0: aac5 5a3d 28e0 86bc 6a83 f8bd 073d 3e3d
000000c0: 6f5a be3d 96a7 ccbd 2749 0f3d a680 c03d
000000d0: c713 a43d 3f1d 103e d2d1 c93c a080 643d
000000e0: a085 aa3c 2886 edbd d62c 30bc 2072 b63d
000000f0: 2d78 a0bd 4f61 90bd ffd4 58bc b4d9 573d

_layers.6.weight f4 [6, 64]
0.040844053 -0.064208016 0.25174284 -0.0062924344 -0.28807205 -0.16393901 -0.30720252 -0.19066602
0.043103103 -0.08314453 0.1850906 0.16684827 -0.32899413 0.082700424 0.23908378 0.08125151
-0.37581274 0.29734442 0.107424155 0.33481896 -0.094548136 0.32190588 -0.20442136 0.116153345
0.23614582 0.25003183 0.09492009 0.28133512 -0.3706707 -0.14716895 -0.34200695 0.066693395
-0.17527558 0.26097986 0.0100048 0.0943163 0.18943922 -0.014062865 -0.20781823 0.052500144
0.046751976 -0.3872979 -0.083519846 0.072298646 0.0032110175 -0.035034224 0.4711941 -0.33392054
0.29200947 0.06486586 0.04589743 -0.24941656 0.121919826 0.25725996 0.009272637 0.22453335
0.04909718 -0.11706191 0.18439972 -0.22361429 -0.07769513 -0.41015357 0.02870695 0.030789856
-0.0086120665 0.029421095 0.0016064348 -0.044470184 -0.15738568 0.18453844 0.24192171 -0.15584324
-0.34271023 -0.10414247 0.02795267 -0.11154859 -0.20932254 0.050784886 0.06608631 0.020276004
-0.22306994 0.17148912 0.13117714 0.051715266 -0.121424094 0.0599907 -0.05028527 -0.092179336
-0.0062614824 0.03478928 -0.002001409 -0.06931242 0.016477799 0.14152576 0.1626113 -0.044902846
0.33381313 -0.30963266 0.04723969 0.028850801 0.19908722 0.13501471 0.04107846 0.12233722
-0.25144458 0.08648355 0.047546245 -0.20195378 0.052658856 0.086260065 -0.34387448 -0.0065024723
-0.069991805 -0.07041619 -0.012798507 -0.13091834 -0.2901743 0.11992485 -0.15403824 -0.04132632
-0.05103132 0.02758241 -0.17273213 -0.1715348 0.054141447 -0.24728012 -0.2429033 0.19631627
0.08938627 0.39575362 -0.45088494 0.21100618 -0.042715434 -0.26283637 -0.20048057 0.09324584
0.3748194 -0.08057181 -0.47360206 0.43119273 -0.053862948 -0.09947156 -0.5595699 -0.074511364
0.1815472 -0.5272784 0.025685867 -0.10957905 -0.006218657 0.17866789 0.30316976 -0.05421577
0.097533286 -0.37929875 -0.30229902 -0.41002 0.15612502 0.28465694 -0.2164799 0.077719346
0.23797403 0.12577203 0.11845221 0.28867808 -0.16699697 -0.39413905 0.2787356 0.08339505
0.3112898 0.3349415 0.13049768 0.3497978 -0.26195982 0.10995765 -0.40392402 0.21302508
-0.17038421 0.091361776 -0.037008286 0.23852627 0.40066913 -0.46461672 -0.16159959 -0.5115388
0.11667605 0.04780735 0.3077239 -0.14863501 0.11748271 0.03005 0.4607251 -0.30837888
0.073104635 -0.45214975 0.19012065 -0.48730722 -0.34437138 0.26658678 -0.10584592 0.2306762
0.18544203 -0.031069726 0.16611952 -0.1388338 0.23704295 0.060226344 -0.05905899 0.22151518
-0.18768173 -0.1831371 0.11102084 0.18654646 0.08657704 -0.4078421 -0.23724219 0.10515173
0.07364909 0.1292039 -0.04934976 0.10994693 0.17456873 0.18913357 -0.11356518 0.06826076
-0.64487076 -0.13500431 -0.09510226 -0.05305424 -0.10767381 0.23408224 -0.26466304 -0.0866967
0.25065386 -0.2354575 0.21223745 -0.5457208 0.1125546 -0.0904697 -0.3417602 0.17501213
-0.52475655 0.11229593 0.09326193 0.062279046 -0.39786264 0.08807261 0.3416405 -0.15141234
-0.12091404 -0.0033665563 -0.35858425 -0.25012028 -0.049409464 0.03133393 -0.29879454 0.09867793
00000000: 184c 273d 7e7f 83bd 70e4 803e c430 cebb
00000010: 2e7e 93be a1df 27be a649 9dbe f43d 43be
00000020: e18c 303d ae47 aabd 6488 3d3e 46da 2a3e
00000030: eb71 a8be d75e a93d 61d2 743e 3167 a63d
00000040: 876a c0be 873d 983e 3201 dc3d 646d ab3e
00000050: 74a2 c1bd d9d0 a43e d553 51be cee1 ed3d
00000060: 36d0 713e 2c04 803e 7765 c23d 280b 903e
00000070: 8dc8 bdbe 75b3 16be 891b afbe 8c96 883d
00000080: 717b 33be 279f 853e 2ceb 233c e728 c13d
00000090: 5bfc 413e ee67 66bc 4dce 54be 640a 573d
000000a0: 007f 3f3d e94b c6be 740c abbd 5011 943d
000000b0: ef6f 523b 0c80 0fbd 5a40 f13e a2f7 aabe
000000c0: 4482 953e 64d8 843d f2fe 3b3d 0e67 7fbe
000000d0: 1ab1 f93d 94b7 833e 42ec 173c 12ec 653e
000000e0: 201a 493d 28be efbd 48d3 3c3e 25fb 64be
000000f0: a01e 9fbd a6ff d1be d62a eb3c 023b fc3c
00000100: a019 0dbc 8204 f13c 028f d23a 5e26 36bd
00000110: b629 21be a5f7 3c3e 53ba 773e 5f95 1fbe
00000120: b777 afbe a648 d5bd fffc e43c 9673 e4bd
00000130: a658 56be d003 503d 4258 873d dd19 a63c
00000140: 726c 64be d89a 2f3e 4d53 063e 63d3 533d
00000150: 32ad f8bd cfb8 753d edf7 4dbd 85c8 bcbd
00000160: 1f2d cdbb 347f 0e3d 122a 03bb acf3 8dbd
00000170: 73fc 863c 21ec 103e 9483 263e 0cec 37bd
00000180: 8ee9 aa3e 2c88 9ebe 687e 413d 8458 ec3c
00000190: 85dd 4b3e 4c41 0a3e e341 283d f08b fa3d
000001a0: 58bd 80be 4a1e b13d dabf 423d f9cc 4ebe
000001b0: d0b0 573d 1ea9 b03d 5110 b0be b112 d5bb
000001c0: dd57 8fbd 5d36 90bd d4b0 51bc 750f 06be
000001d0: ba91 94be 299b f53d 33bc 1dbe ca45 29bd
000001e0: 3806 51bd 82f4 e13c b1e0 30be d2a6 2fbe
000001f0: 6cc3 5d3d 0037 7dbe a5bb 78be 2207 493e
00000200: 2610 b73d 38a0 ca3e 64da e6be 0112 583e
00000210: 61f6 2ebd 7d92 86be c74a 4dbe adf7 be3d
00000220: 54e8 bf3e d502 a5bd f87b f2be 4bc5 dc3e
00000230: 659f 5cbd bfb7 cbbd f93f 0fbf 6a99 98bd
00000240: 82e7 393e b8fb 06bf 2b6b d23c fb6a e0bd
00000250: e0c5 cbbb b7f4 363e 1139 9b3e 5b11 5ebd
00000260: 88bf c73d 7233 c2be f0c6 9abe 24ee d1be
00000270: 3ddf 1f3e 8ebe 913e e8ac 5dbe 522b 9f3d
00000280: 77af 733e 62ca 003e 1397 f23d 9dcd 933e
00000290: 4101 2bbe 98cc c9be 6fb6 8e3e 06cb aa3d
000002a0: 6061 9f3e 747d ab3e 2fa1 053e b218 b33e
000002b0: 991f 86be 7a31 e13d 21cf cebe 3f23 5a3e
000002c0: 3379 2ebe e21b bb3d 0096 17bd 3b40 743e
000002d0: 8124 cd3e 3ee2 edbe 5d7a 25be 35f4 02bf
000002e0: daf3 ee3d a4d1 433d fd8d 9d3e c733 18be
000002f0: c69a f03d 6b2b f63c 29e4 eb3e d6e3 9dbe
00000300: e2b7 953d 2c80 e7be fdae 423e 5580 f9be
00000310: 7251 b0be 107e 883e bfc5 d8bd 6236 6c3e
00000320: 84e4 3d3e f085 febc 3c1b 2a3e 732a 0ebe
00000330: 63bb 723e e6af 763d d7e7 71bd e0d4 623e
00000340: a42f 40be 4b88 3bbe e55e e33d 0906 3f3e
00000350: 4e4f b13d aed0 d0be 9eef 72be ca59 d73d
00000360: 56d5 963d 074e 043e f922 4abd db2b e13d
00000370: 25c2 323e 3bac 413e dc94 e8bd 4ccc 8b3d
00000380: 4016 25bf 923e 0abe f9c4 c2bd 674f 59bd
00000390: 1684 dcbd 41b3 6f3e ea81 87be 0a8e b1bd
000003a0: b455 803e c51b 71be c654 593e 5cb4 0bbf
000003b0: 0783 e63d 2e48 b9bd 31fb aebe 6136 333e
000003c0: 7256 06bf 69fb e53d 1c00 bf3d 5018 7f3d
000003d0: a7b4 cbbe 6a5f b43d 81eb ae3e d60b 1bbe
000003e0: c8a1 f7bd 71a1 5cbb 5b98 b7be c40f 80be
000003f0: 9461 4abd 0258 003d 99fb 98be a817 ca3d

_layers.6.bias f4 [6]
-0.047328364 -0.08226126 0.008540403 0.117515326 -0.07076455 0.05654404
00000000: 63db 41bd 9778 a8bd 0ced 0b3c e0ab f03d
00000010: 01ed 90bd b99a 673d
