models/gg-2023-11-10_10-20.pt (torch, 172816 bytes, 8 tensors)

_layers.0.weight f4 [256, 19]
0	0xbd2e1ea4	-0.04250969
1	0x3bf89b60	0.0075868815
2	0x3e0afac1	0.13572218
3	0x3e189bb7	0.1490315
4	0xbcec2318	-0.028825328
5	0x3e66f607	0.2255479
6	0xbdfa20df	-0.12213301
7	0x3c7ca4e0	0.015420169
8	0xbe133c10	-0.14378381
9	0x3d19d434	0.03755589
10	0x3e561d09	0.20909514
11	0xbe4252f2	-0.18976954
12	0x3d5d0d14	0.05396755
13	0xbe57e66a	-0.2108399
14	0xbd522a84	-0.051310077
15	0xbddcd1a8	-0.10782176
16	0x39cac200	0.00038672984
17	0xbe2307c4	-0.15920931
18	0x3d6ea6dc	0.0582646
19	0xbe54aeab	-0.20769756
20	0x3daec3e1	0.08533455
21	0xbd7a5764	-0.0611185
22	0xbe612f1c	-0.21990627
23	0x3dc8d92a	0.09807046
24	0x3d0432b7	0.032274928
25	0xbe309bd1	-0.17246939
26	0xbe076e0d	-0.13225575
27	0xbdfbc2a5	-0.12292985
28	0xbe17b162	-0.1481376
29	0x3bc24cc5	0.005929562
30	0x3cc27c60	0.023740947
31	0x3e7e26f5	0.24819548
32	0xbce5110e	-0.027962234
33	0xbdc15836	-0.09440653
34	0x3e499d88	0.19689
35	0x3e3fcc81	0.18730356
36	0xbd80750f	-0.06272327
37	0x3e45fe42	0.19335273
38	0x3e409637	0.18807302
39	0xbe45c573	-0.19313602
40	0xbe41c0c5	-0.18921192
41	0xbe1a8838	-0.15091026
42	0xbe4a05fe	-0.19728848
43	0xbd8cf702	-0.068830505
44	0x3dabfe3e	0.08398102
45	0xbe564c78	-0.20927608
46	0xbe659a83	-0.22422223
47	0xbe4a4990	-0.19754624
48	0xbdf525b1	-0.1197008
49	0x3e134a1b	0.14383738
50	0x3e50484b	0.20340078
51	0x3e6960ab	0.22790782
52	0x3b23cac0	0.0024992675
53	0xbe46f785	-0.19430359
54	0x3e6517ef	0.22372411
55	0xbe1de9ea	-0.15421262
56	0x3db164ce	0.08661805
57	0x3e13f543	0.14449029
58	0x3df568f3	0.11982908
59	0x3dcf1c24	0.10112789
60	0xbe557c56	-0.20848212
61	0xbde8b9d9	-0.113635726
62	0xbe131989	-0.1436521
63	0x3e336d5c	0.17522186
64	0xbe34e9d9	-0.17667331
65	0x3a2b1bf4	0.00065272977
66	0x3e6cc50a	0.2312204
67	0x3e9682e1	0.29396728
68	0xbe26ae94	-0.16277534
69	0xbe295950	-0.16537976
70	0x3e7a2b15	0.24430497
71	0x3dc7e54e	0.09760533
72	0xbe385203	-0.18000035
73	0x3e94b1b1	0.29041818
74	0xbe1abd4b	-0.15111272
75	0x3e6b2cea	0.22966352
76	0x3e146368	0.14491045
77	0x3e6d789f	0.23190545
78	0xbd3cf13d	-0.0461285
79	0x3ce198bd	0.027538652
80	0xbe8f8970	-0.28034544
81	0x3df11065	0.11770705
82	0x3caf1373	0.021371579
83	0x3e50d117	0.20392261
84	0xbe1034e9	-0.14082684
85	0x3e645aa3	0.223002
86	0x3e72d855	0.23715337
87	0xbd6c8615	-0.057745058
88	0x3d905bb9	0.07048745
89	0xbe9535d3	-0.29142627
90	0xbe2d5bb3	-0.16929512
91	0xbe13404a	-0.14379993
92	0xbe800f27	-0.2501156
93	0x3d89528a	0.06705196
94	0xbdd91f79	-0.10601706
95	0xbd189aff	-0.03725719
96	0x3e90dcfd	0.282936
97	0x3d78e583	0.060765754
98	0xbdf0e09c	-0.11761591
99	0xbd7fe0b6	-0.06247016
100	0x3a7aaf75	0.00095628883
101	0x3defc5e3	0.11707666
102	0x3e8ceb5b	0.27523312
103	0x3e6ecb38	0.2331971
104	0xbdab79b2	-0.08372821
105	0xbddca013	-0.10772719
106	0x3dce92c6	0.100865886
107	0xbd5e3aee	-0.05425542
108	0x3e4e7a1f	0.20163773
109	0xbbfd85ce	-0.007736898
110	0x3d985c5e	0.07439493
111	0xbe552845	-0.20816143
112	0x3e4fd692	0.20296696
113	0xbde2a070	-0.11065757
114	0xbbf59ff5	-0.007495875
115	0xbe4139a7	-0.18869649
116	0x3e30aab0	0.17252612
117	0x3c5a0bb1	0.0133084515
118	0x3dcf396e	0.10118376
119	0xbe3aac9e	-0.1822991
120	0x3c8d270e	0.017230537
121	0x3dbcc56c	0.09217343
122	0x3e23dfe3	0.16003375
123	0x3e2ac2ee	0.16675922
124	0xbd304ce7	-0.04304209
125	0xbcce30fd	-0.025169844
126	0x3d983c67	0.07433396
127	0xbdacb4ff	-0.0843296
128	0xbdc33e8f	-0.095334165
129	0xbe596f92	-0.21233967
130	0xbe67d98b	-0.2264158
131	0xbdfb90cd	-0.12283478
132	0x3cdbd7f4	0.026836373
133	0x3c98085d	0.018558675
134	0xbdc16670	-0.094433665
135	0x3d0bdc31	0.034145538
136	0xbddb32c6	-0.10703044
137	0xbe89fe47	-0.2695181
138	0x3e44e0a8	0.19226325
139	0xbe28a56c	-0.16469353
140	0xbd030f71	-0.031997148
141	0x3dc73db0	0.09728563
142	0x3da47d2c	0.08031687
143	0xbe048ea3	-0.12945037
144	0xbe5a0fa0	-0.21295023
145	0x3e5571ee	0.20844242
146	0x3d5a4ee4	0.053297892
147	0x3e6d3535	0.23164828
148	0x3dfcb709	0.12339599
149	0x3e889aac	0.26680505
150	0x3cbebfee	0.023284879
151	0xbcade476	-0.021227103
152	0xbdcdd0e0	-0.10049605
153	0x3e23b7d5	0.15988095
154	0x3e76d3ae	0.24104187
155	0x3e15a8df	0.146152
156	0x3e790300	0.2431755
157	0x3e7899c4	0.24277407
158	0x3e40443e	0.18776032
159	0xbe1845cf	-0.1487038
160	0xbdc32f3c	-0.095304936
161	0x3b300bea	0.002686257
162	0xbdf37a41	-0.118885525
163	0xbd150e35	-0.036390502
164	0xbd326cd4	-0.043560818
165	0x3ea6b884	0.3256265
166	0xbc496aa3	-0.012293491
167	0x3e6dfc0c	0.2324068
168	0xbe7744ec	-0.24147385
169	0xbe4be52e	-0.19911644
170	0x3d6ce330	0.05783385
171	0x3d3b434c	0.045718476
172	0xbdbd9874	-0.09257594
173	0xbdedc5ac	-0.116099685
174	0x3d85d1ee	0.065341815
175	0x3c3c4da0	0.011493117
176	0xbcfbc7a0	-0.030734837
177	0x3dee866e	0.11646734
178	0xbdc7cfa2	-0.097564
179	0x3e38caab	0.18046062
180	0xbe2035c3	-0.15645508
181	0xbdf47f86	-0.11938386
182	0x3da2bace	0.079457864
183	0x3e105f3b	0.14098828
184	0xbb381700	-0.002808988
185	0xbe386999	-0.18009032
186	0xbc162750	-0.009164646
187	0xbd9e9f46	-0.07745223
188	0xbd962158	-0.073305786
189	0xbd2db078	-0.04240462
190	0x3d621504	0.055195823
191	0xbd5abc2c	-0.05340211
192	0xbe24be38	-0.16088188
193	0xbdea973f	-0.11454629
194	0xbe44c570	-0.19215941
195	0xbe6aa6bf	-0.22915171
196	0x3de30eee	0.11086832
197	0x3e034307	0.12818538
198	0x3e318683	0.17336468
199	0x3c94c6b0	0.018161148
200	0xbdc14128	-0.09436256
201	0xbe0d4a9e	-0.13797995
202	0x3dea038e	0.11426459
203	0xbe0df90a	-0.13864532
204	0x3e2f8f5b	0.1714453
205	0xbdfed383	-0.124426864
206	0xbe5b26f5	-0.2140158
207	0xbe292e4e	-0.1652157
208	0x3e3f551b	0.18684809
209	0x3e393b5f	0.18089055
210	0x3c87dcf3	0.016584849
211	0x3ce6d0a5	0.028175661
212	0x3e72c7ba	0.23709002
213	0x3e1815ca	0.14852062
214	0x3e26e3ea	0.1629788
215	0xbe17c6b3	-0.14821891
216	0x3e09cb9e	0.1345658
217	0x3e627dde	0.22118327
218	0xbe2608f9	-0.1621436
219	0x3e6ade5c	0.22936386
220	0xbde56598	-0.11201018
221	0xbd931d81	-0.07183362
222	0xbdb65544	-0.08902982
223	0x3d99abff	0.07503509
224	0x3daf8f12	0.0857221
225	0xbe1d3248	-0.15351212
226	0x3e0639db	0.13108008
227	0x3d884b65	0.06655005
228	0xbcdc0325	-0.026856968
229	0xbe6b2687	-0.22963916
230	0x3e67268f	0.22573303
231	0xbdb07510	-0.08616078
232	0xbdfd2085	-0.12359718
233	0x3e6745bb	0.22585194
234	0xbdf0c222	-0.11755778
235	0x3e1b9a0b	0.15195481
236	0x3e0dffff	0.13867186
237	0xbe18e848	-0.14932358
238	0xbe3ece03	-0.18633275
239	0xbe011035	-0.12603839
240	0x3d905c04	0.070488006
241	0x3e5c41d2	0.21509483
242	0xbc6642ac	-0.014053982
243	0xbd8f087f	-0.069840424
244	0xbd89d25d	-0.06729577
245	0xbe24f515	-0.16109116
246	0x3e696a46	0.22794446
247	0x3c4b9a43	0.012426916
248	0xbe8d31bb	-0.27577004
249	0xbe084825	-0.13308771
250	0x3e3aac82	0.18229869
251	0x3e036df6	0.12834916
252	0x3e3917ba	0.18075457
253	0x3bec2394	0.0072063897
254	0x3d382dd5	0.044965584
255	0x3dde0787	0.108412795

_layers.0.bias f4 [256]
0	0xbe3ee8f1	-0.18643548
1	0xbaa60cd9	-0.0012668624
2	0xbe072d8c	-0.13200969
3	0x3e55889e	0.20852897
4	0x3df465a8	0.11933452
5	0xbd36afdc	-0.044601306
6	0xbdb73d56	-0.08947246
7	0xbdfb81d1	-0.1228062
8	0xbd9aa040	-0.075500965
9	0xbdcdbc9e	-0.100457415
10	0xbd037edc	-0.032103404
11	0x3e26b8a4	0.16281372
12	0xbe46d2b0	-0.19416308
13	0x3dbf785c	0.093491286
14	0xbe683873	-0.22677784
15	0xbdb3f3a2	-0.08786704
16	0xbdde832c	-0.10864863
17	0x3e15f9a4	0.14646012
18	0x3dc8be96	0.098019764
19	0xbd8918c5	-0.066941775
20	0xbe472e59	-0.19451274
21	0xbe073049	-0.13202013
22	0xbe693eea	-0.22777906
23	0x3cb55078	0.022133097
24	0x3e069c83	0.13145642
25	0xbd02e248	-0.03195408
26	0x3e0a0b25	0.13480814
27	0xbda06a7e	-0.07832812
28	0x3d8c8a1d	0.068622805
29	0xbe03abe4	-0.1285854
30	0xbd72748e	-0.059193186
31	0x3e2dd99e	0.16977546
32	0x3e5be3c3	0.21473603
33	0x3dd61d3f	0.10454797
34	0xbc8781bf	-0.01654136
35	0xbce46d0e	-0.027884033
36	0xbe43d5e3	-0.1912456
37	0xbd05dfbf	-0.032684084
38	0xbd7e2157	-0.062043514
39	0x3e1703ce	0.14747545
40	0xbe3ed87f	-0.18637274
41	0x3d955f0f	0.072935216
42	0x3d159304	0.03651716
43	0xbe4d625e	-0.20057055
44	0xbdb6d916	-0.089281246
45	0x3e25f999	0.16208495
46	0xbd088b33	-0.033335876
47	0x3e189a02	0.149025
48	0x3e59315d	0.21210237
49	0xbe1eab2a	-0.15494981
50	0x3d9fc40a	0.07801063
51	0x3e113eb5	0.14184077
52	0xbdd21d26	-0.10259466
53	0xbe1212df	-0.14265011
54	0x3dfae86c	0.12251362
55	0xbd61b233	-0.055101585
56	0xbaa395c4	-0.0012480547
57	0xbd7eaeb0	-0.062178314
58	0xbe58b773	-0.2116373
59	0x3d9eacab	0.077477776
60	0x3d335b21	0.04378808
61	0x3e2f3d6e	0.17113277
62	0xbc81f04c	-0.015861653
63	0x3e98e721	0.29863837
64	0xbe292af9	-0.16520299
65	0x3dd82a78	0.10554975
66	0x3e6da3c1	0.23206998
67	0x3e008afe	0.12553021
68	0x3d13d4a4	0.03609146
69	0xbd864c36	-0.06557505
70	0x3c5d8388	0.013520129
71	0x3e671e28	0.22570097
72	0xbd5504db	-0.052006584
73	0x3e4aa8ef	0.19791006
74	0xbe3c06f8	-0.18362033
75	0x3da78ace	0.08180772
76	0xbe0c2a64	-0.13688046
77	0xbe39298a	-0.18082252
78	0x3e6c94e8	0.23103678
79	0xbd4479ec	-0.047967836
80	0xbd12fce8	-0.03588572
81	0xbc836891	-0.016041072
82	0x3e386552	0.180074
83	0xbe0a7946	-0.13522825
84	0xbdac1da4	-0.08404091
85	0x3cfe5473	0.031046128
86	0x3d6291e6	0.05531492
87	0xbe282a5f	-0.16422413
88	0x3e016f18	0.12640035
89	0xbe528eb5	-0.20562251
90	0x3e83d0a3	0.25745115
91	0x3e47c0ea	0.19507185
92	0x3d409aaa	0.0470225
93	0x3e5143e1	0.2043605
94	0xbe5d183f	-0.2159128
95	0x3dd94290	0.10608399
96	0xbe4d2b4e	-0.2003605
97	0x3e4ad5e3	0.19808154
98	0xbdcef8c8	-0.10106045
99	0x3e28acc7	0.1647216
100	0x3d8f73a5	0.07004479
101	0xbdb247de	-0.08705114
102	0xbda4b1c4	-0.080417186
103	0x3e585c96	0.21129069
104	0xbde556b6	-0.111981794
105	0x3dbca333	0.09210815
106	0x3e563f19	0.20922507
107	0xbd06f371	-0.032947008
108	0x3c3ef8aa	0.011655966
109	0x3e01b780	0.12667656
110	0x3e3be03b	0.18347256
111	0x3db2cec7	0.08730846
112	0x3cc2a9e3	0.023762649
113	0xbe3074c8	-0.17232049
114	0xbe1702d2	-0.1474717
115	0xbd1061d5	-0.03524955
116	0xbe1a0e42	-0.15044501
117	0xbcefeafe	-0.029286858
118	0x3e2d3f3a	0.1691865
119	0xbde5d1d6	-0.11221664
120	0x3e309228	0.17243254
121	0xbe402b70	-0.1876657
122	0x3e24a76c	0.16079491
123	0xbddb703e	-0.10714768
124	0x3e878489	0.26468304
125	0xbe1d6080	-0.15368843
126	0xbe3721a1	-0.17883922
127	0x3e5a43bd	0.21314903
128	0x3e071e45	0.1319514
129	0xbe4ceb76	-0.20011696
130	0xbe385dab	-0.18004481
131	0x3e6a107e	0.22857854
132	0x3de9d25b	0.11417075
133	0xbe492f0b	-0.19646852
134	0xbd6ee27a	-0.058321454
135	0x3b014195	0.0019722928
136	0xbdf34b55	-0.11879603
137	0x3d03c235	0.032167632
138	0xbe03510a	-0.12823883
139	0xbc85aa02	-0.016316418
140	0x3d7898a7	0.060692456
141	0x3e531681	0.20614053
142	0xbdb44c73	-0.08803644
143	0x3e045f68	0.1292702
144	0xbe59d5dd	-0.21272989
145	0x3ce6d45b	0.02817743
146	0x3d6b69f1	0.05747408
147	0xbda41bc4	-0.080131084
148	0x3d5f0342	0.054446466
149	0x3e3349e1	0.17508651
150	0x3e4277c4	0.18991
151	0xbda079ca	-0.078357294
152	0xbdcadb1a	-0.099050716
153	0x3e642290	0.2227881
154	0x3ccaa79c	0.024738126
155	0xbe559e25	-0.20861109
156	0xbdfc75d3	-0.12327161
157	0x3dcccb20	0.099996805
158	0x3df661db	0.12030383
159	0x3ca9e586	0.020739328
160	0x3e2f27eb	0.17105071
161	0x3e6cabe8	0.23112452
162	0x3d00eaa1	0.03147376
163	0x3e34127d	0.17585178
164	0x3e7d7bbb	0.2475423
165	0x3e635ebc	0.22204107
166	0x3e752201	0.23938753
167	0xbe11b7a8	-0.14230216
168	0xbd8e2c73	-0.06942072
169	0xbdab5e56	-0.083676025
170	0x3dd428f3	0.10359373
171	0x3d0c4219	0.034242723
172	0xbb9a13e0	-0.0047020763
173	0x3dc3d4dd	0.09562085
174	0xbde462b9	-0.11151642
175	0x3e7fa9ab	0.24967067
176	0xbe5d737f	-0.2162609
177	0x3e0bbdc2	0.13646606
178	0x3e960e8e	0.2930798
179	0x3df3d022	0.119049326
180	0x3e66a4a3	0.22523741
181	0x3e2eb632	0.1706169
182	0x3ca62bb6	0.020284515
183	0x3e3364fd	0.17518993
184	0xbd8c9cd2	-0.068658486
185	0x3ddbab04	0.10725978
186	0x3e1c99d3	0.15293054
187	0x3e260ab6	0.16215023
188	0xbe2b3d6e	-0.16722652
189	0x3e2cefae	0.16888306
190	0x3b177c19	0.002311474
191	0x3e4e5ea5	0.20153292
192	0x3e772aa2	0.24137357
193	0x3c5fc16e	0.013656957
194	0xbdec309d	-0.1153271
195	0xbd073b01	-0.033015255
196	0x3dfca74a	0.12336595
197	0x3e337a88	0.1752721
198	0xbe1aaa58	-0.15104043
199	0xbe539209	-0.20661177
200	0xbe2f86e8	-0.17141306
201	0x3dbfd8e8	0.093675435
202	0x3e12caa7	0.14335118
203	0x3e4d1e92	0.20031193
204	0xbc10183f	-0.008794843
205	0x3dd7236a	0.105048016
206	0x3d2bc60b	0.041936915
207	0xbce4802f	-0.027893154
208	0xbe1cecd6	-0.1532472
209	0x3d7789d3	0.060434174
210	0xbd971c7e	-0.07378481
211	0x3e5d1e79	0.21593656
212	0x3e4c69ec	0.19962281
213	0x3e353aad	0.17698164
214	0x3e35d37e	0.17756459
215	0xbccc883d	-0.024967307
216	0x3c5d04d4	0.013489921
217	0x3e378b86	0.17924318
218	0xbe3b327f	-0.18280981
219	0x3e014560	0.1262412
220	0x3e1c642d	0.15272589
221	0x3b38a60c	0.0028175144
222	0x3d6647d4	0.056220844
223	0xbe1bd9af	-0.15219758
224	0x3e698558	0.22804773
225	0xbcf2d4f5	-0.029642561
226	0xbe27f76c	-0.16402978
227	0xbe1c3054	-0.1525281
228	0xbd31cf61	-0.043410663
229	0x3b8df6f6	0.0043324186
230	0xbddc5bd7	-0.107597046
231	0xbdbe6703	-0.09296992
232	0x3e3c4ec9	0.18389429
233	0xbd34e01a	-0.044159032
234	0xbe2b9850	-0.16757321
235	0x3de1d80e	0.11027537
236	0x3bbd0a80	0.005769074
237	0x3d8c91ee	0.068637714
238	0xbe1c65d5	-0.15273221
239	0xbe2a6d3d	-0.16643234
240	0x3c4ff08a	0.012691626
241	0x3be88d3d	0.007096915
242	0xbe1b3afe	-0.15159222
243	0xbe040cec	-0.12895554
244	0x3d34c166	0.04412975
245	0x3da1f169	0.079073735
246	0x3c97d548	0.018534318
247	0x3d976e76	0.073941156
248	0xbe53c34d	-0.2067997
249	0xbcab1139	-0.020882236
250	0x3e42bcfe	0.19017407
251	0xbdfcdea0	-0.1234715
252	0x3d52f484	0.05150272
253	0x3d96954b	0.07352694
254	0xbe0cb34a	-0.13740268
255	0x3e1abdae	0.1511142

_layers.2.weight f4 [128, 256]
0	0x3d1b56d4	0.037924603
1	0x3dd6ad24	0.10482243
2	0x3d508292	0.05090577
3	0x3d654dd4	0.055982426
4	0xbd9ca9d1	-0.076495774
5	0x3d48b962	0.04900492
6	0xbd228a09	-0.03968242
7	0x3df896a3	0.12138107
8	0xbbbe4383	-0.005806388
9	0xbbec8740	-0.0072182715
10	0xbd7b2bdc	-0.061321124
11	0xbcf3f72e	-0.02978095
12	0xbd7a2124	-0.06106676
13	0x3d69ef49	0.057112966
14	0xbd742616	-0.059606634
15	0xbdeec029	-0.116577454
16	0x3da0a372	0.07843675
17	0x3cab3f2b	0.020904144
18	0x3cf47e8e	0.029845502
19	0xbd8fc427	-0.07019835
20	0xbd7e5fc6	-0.062103055
21	0xbbf645d7	-0.00751565
22	0xbd0f6734	-0.03501053
23	0x3e18acfc	0.14909738
24	0xbb943ab0	-0.0045235977
25	0xbb182440	-0.0023214966
26	0x3e27a622	0.16371968
27	0xbd17c958	-0.03705725
28	0x3cef6a03	0.029225355
29	0x3d2d1516	0.042256437
30	0x3d449253	0.04799111
31	0x3dcb3344	0.099218875
32	0x3d994ac9	0.07484967
33	0xbe0a4e4f	-0.13506435
34	0x3da60f22	0.08108355
35	0x3d5c75a5	0.053823132
36	0x3e00940a	0.12556472
37	0xbbf9af02	-0.0076197395
38	0xbe3157fe	-0.17318723
39	0x3dc4333b	0.09580084
40	0x3d102f22	0.0352012
41	0xbe6161b0	-0.22009921
42	0xbe191edd	-0.1495318
43	0xbcbe0ecc	-0.023200415
44	0xbd719e62	-0.058988936
45	0x3d7af352	0.061267205
46	0xbdaaed3f	-0.08346032
47	0xbd136f71	-0.03599495
48	0x3d568d08	0.05238059
49	0x3d01afb4	0.031661704
50	0x3cce3590	0.025172025
51	0xbbb1cb90	-0.005425878
52	0x3df16531	0.11786879
53	0xbcfc40b4	-0.030792572
54	0x3c18225d	0.009285537
55	0x3d6a1a90	0.05715424
56	0x3de16128	0.11004859
57	0x3c95a030	0.01826486
58	0xbd1ed210	-0.03877455
59	0x3e359d40	0.17735767
60	0xbd115cbf	-0.03548884
61	0x3c565fa8	0.01308433
62	0x3db97e58	0.09057301
63	0x3c316812	0.010828035
64	0x3d1bd5ec	0.03804581
65	0xbdde7924	-0.108629495
66	0xbe1bfdd8	-0.15233552
67	0x3d5d72bb	0.054064494
68	0xbcebc628	-0.028781012
69	0x3d058466	0.032596968
70	0x3defc68b	0.11707791
71	0x3c53b5ac	0.012921732
72	0x3d875151	0.06607307
73	0xbc34c70e	-0.011033786
74	0xbd30eede	-0.04319655
75	0x3cf93078	0.03041862
76	0xbe2be3ff	-0.16786192
77	0x3c8c6e28	0.01714237
78	0xbd110eef	-0.035414632
79	0x3cafec47	0.02147497
80	0xbbd06290	-0.006359406
81	0x3cda7fc5	0.026672253
82	0x3e0f62cc	0.14002532
83	0x3ce3ed20	0.027823031
84	0xbbbfcb30	-0.0058530793
85	0xbc872b2e	-0.016500082
86	0xbc67793a	-0.014128024
87	0xbbbe5142	-0.0058080265
88	0x3da240bd	0.07922504
89	0x3d235e47	0.03988483
90	0x3d827df1	0.06371678
91	0xbd142559	-0.03616843
92	0x3e1dfda0	0.15428782
93	0xbcd4f0f2	-0.025993798
94	0x3d3e8c5c	0.046520576
95	0xbd50048c	-0.050785586
96	0x3d40a58e	0.047032885
97	0x3d49d0e4	0.04927148
98	0xbd5b3c46	-0.053524278
99	0xbcf19e90	-0.029494554
100	0x3ccc13f7	0.024911864
101	0xbea013b3	-0.3126503
102	0x3d071c4a	0.032985963
103	0x3cd005ea	0.025393445
104	0x3c548760	0.012971729
105	0x3e09356c	0.13399285
106	0x3d5cab0b	0.053874057
107	0x3df79cbe	0.12090443
108	0x3cad56f8	0.021159634
109	0x3d1285ff	0.03577232
110	0x3cc4d4a2	0.024027172
111	0xbd6ab804	-0.057304397
112	0xbd9ff016	-0.07809465
113	0x3d3fc1e8	0.046815783
114	0x3d66b0be	0.0563209
115	0xbe14d508	-0.1453439
116	0xbc451a80	-0.012030244
117	0xbe01200e	-0.12609884
118	0xbd094b25	-0.03351893
119	0x3d0e4a7e	0.03473901
120	0xbce26004	-0.027633674
121	0xbb3a8fe0	-0.0028467104
122	0xbe97cfb8	-0.29650664
123	0x3c8ec658	0.017428562
124	0x3cbef101	0.023308279
125	0xbd9525af	-0.07282578
126	0x3d48a844	0.048988596
127	0x3c80379f	0.015651522
128	0xbcda3447	-0.026636256
129	0xbc2ca6c8	-0.010537811
130	0x3cfc6048	0.03080763
131	0xbcbe05be	-0.023196097
132	0xbdfd7cf4	-0.123773485
133	0xbdeec892	-0.116593495
134	0x3d2dc706	0.04242613
135	0x3dbd0564	0.09229544
136	0xbd62b0f2	-0.05534453
137	0x3d99dc2e	0.07512699
138	0xbdc7a7b4	-0.09748784
139	0x3c2623db	0.010140385
140	0xbdc7c728	-0.09754783
141	0xbd17735f	-0.03697526
142	0xbdbcd06d	-0.092194416
143	0x3cecaa6e	0.028889861
144	0x3d06fc14	0.032955244
145	0x3d89ad9d	0.06722567
146	0xbc549748	-0.012975521
147	0x3e1ca082	0.15295604
148	0xbd5248f1	-0.051339094
149	0x3dac9520	0.08426881
150	0x3d260607	0.040533092
151	0xbd216fb4	-0.03941317
152	0xbd32254a	-0.043492593
153	0x3dbd1534	0.0923256
154	0x3d370bd6	0.044689022
155	0x3c86eb70	0.016469687
156	0xbd05d368	-0.032672316
157	0x3dc9239d	0.09821246
158	0x3d7e178b	0.06203417
159	0xbcb1ff7c	-0.02172827
160	0x3d16dd26	0.036831997
161	0x3df3805a	0.118897155
162	0x3d9105a3	0.07081153
163	0x3dc6df76	0.097105905
164	0xbd0ef905	-0.034905452
165	0xbd99d990	-0.075122
166	0xbdf38836	-0.118912145
167	0x3c8b7ca8	0.017027214
168	0x3da5d425	0.08097104
169	0xbda51c07	-0.080619864
170	0x3dd6c812	0.10487379
171	0x3ba02140	0.004886776
172	0xbd4bc88c	-0.049751803
173	0x3b927f57	0.0044707465
174	0xbe47d60a	-0.19515243
175	0xbc985d9b	-0.018599322
176	0xbcc9f014	-0.024650611
177	0xbd83e442	-0.06440021
178	0x3daa14b8	0.08304733
179	0x3d9c1456	0.07621066
180	0x3bdfcb13	0.0068296283
181	0xbe5892e2	-0.21149781
182	0x3cd7d8af	0.02634844
183	0x3dabccd5	0.08388678
184	0x3d029dfa	0.03188894
185	0xbdb07f9a	-0.08618088
186	0xbbb1252b	-0.005406042
187	0xba8e8870	-0.0010874402
188	0x3d25d689	0.0404878
189	0x3dd1dbbc	0.10246989
190	0xbe684524	-0.22682625
191	0x3bd78a60	0.006577775
192	0x3dbedea8	0.09319812
193	0xbb809f82	-0.003925265
194	0xbdee68f5	-0.11641113
195	0xbd53a2b2	-0.05166883
196	0x3e107e97	0.1411079
197	0x3cd05953	0.025433218
198	0xbc4bfecd	-0.012450886
199	0xbc96c6e1	-0.01840538
200	0xbd5d9f55	-0.05410703
201	0x3df16e01	0.1178856
202	0x3db75978	0.08952612
203	0x3bbe5860	0.005808875
204	0x3d993057	0.07479923
205	0x3d703f2e	0.058654003
206	0xbe177533	-0.14790802
207	0xbdd7d3a4	-0.10538414
208	0x3e7542d1	0.2395127
209	0x3da3bc85	0.079949416
210	0xbd9dc9cc	-0.07704505
211	0x3d36f1b9	0.04466412
212	0x3cf3280d	0.029682184
213	0xbca8949b	-0.020578673
214	0x3d800789	0.06251437
215	0xbe29329e	-0.16523215
216	0xbdbbf1f5	-0.09177009
217	0x3e0020c8	0.12512505
218	0xbdc06209	-0.09393699
219	0xbd39f15d	-0.045396198
220	0x3c87adbc	0.016562335
221	0xbd65fb77	-0.05614802
222	0xbcf92788	-0.030414358
223	0xbdba4849	-0.090958185
224	0xbb7d2699	-0.0038627742
225	0x3ac48340	0.0014992729
226	0x3dba8a12	0.09108366
227	0x3c882e48	0.016623631
228	0xbd0a8761	-0.033820514
229	0xbd5407b8	-0.051765174
230	0x3c84d63b	0.016215434
231	0xbd30b37d	-0.043139923
232	0x3c98ac6a	0.018636901
233	0xbde5289c	-0.11189386
234	0xbd7ac663	-0.061224353
235	0xbb681b00	-0.0035416484
236	0x3c775918	0.015096925
237	0xbdc4b8f1	-0.09605587
238	0xbc232964	-0.009958599
239	0xbd693895	-0.056938726
240	0xbcee9aab	-0.029126486
241	0x3d21bb2e	0.03948515
242	0x3d95fcfd	0.07323644
243	0x3b863c5a	0.00409655
244	0x3d0cb2e7	0.034350302
245	0x3dcc1f30	0.09966886
246	0x3c883288	0.016625658
247	0xbcbe3b09	-0.02322151
248	0xbd92aa60	-0.07161403
249	0xbb21d213	-0.0024691864
250	0x3bda87b3	0.0066690086
251	0x3b94aba0	0.004537061
252	0xbb2c8de0	-0.0026329681
253	0x3dc5322f	0.096287124
254	0x3d04d19f	0.032426473
255	0xbc8ff8af	-0.017574636

_layers.2.bias f4 [128]
0	0xbcf2f44c	-0.029657505
1	0x3d071e8d	0.03298812
2	0xbd46a2f4	-0.048495248
3	0xbd2772c8	-0.04088095
4	0xbb1ee720	-0.0024246648
5	0x3d100cbe	0.035168402
6	0xbd730476	-0.059330426
7	0x3d3e1cde	0.04641425
8	0x3cf541df	0.029938636
9	0x3d3630aa	0.044480003
10	0xbd072e23	-0.033002984
11	0x390cf186	0.00013441415
12	0xbd37dfab	-0.04489104
13	0x3ce5e2ac	0.028062187
14	0xba8f2de0	-0.0010923706
15	0x3d22e1d7	0.03976616
16	0x3dc74238	0.09729427
17	0xbcff4a9a	-0.031163502
18	0x3d32f764	0.04369296
19	0xbce2d931	-0.027691456
20	0xbc245c00	-0.0100317
21	0x3d4adebd	0.049528826
22	0x3cd4d250	0.025979191
23	0xbcc26861	-0.023731412
24	0x3d6c142f	0.057636436
25	0xbd031578	-0.032002896
26	0xbd3ac2e0	-0.045596004
27	0xbd0d2307	-0.034457233
28	0x3d9597a0	0.07304311
29	0x3c34be3b	0.011031683
30	0x3d1ee139	0.038789008
31	0x3d5eacc5	0.054363985
32	0x3ce55ad5	0.027997414
33	0x3d4d3045	0.05009486
34	0xbd1da827	-0.03849044
35	0xbd3a629e	-0.045504205
36	0x3daf81c0	0.0856967
37	0x3d8f1780	0.06986904
38	0x3cd9f399	0.026605414
39	0xbd04dc37	-0.032436576
40	0x3d58c0b7	0.052918162
41	0x3cf83867	0.030300332
42	0x3dbe23b9	0.09284157
43	0xbd1d0ff7	-0.038345303
44	0x3d9c82fd	0.076421715
45	0x3ca8975b	0.020579984
46	0x3cbc1573	0.022959447
47	0xbcb47c7c	-0.022032015
48	0x3c914e35	0.017737487
49	0xbc7ecb08	-0.015551336
50	0x3d9a7b61	0.07543064
51	0x3d0bac07	0.034099605
52	0x3d8684c4	0.06568292
53	0x3937726c	0.00017494865
54	0x3d3dceda	0.046339847
55	0x3ce5f357	0.028070135
56	0x3da18424	0.07886532
57	0xbc3fb675	-0.011701216
58	0x3d04fa62	0.032465346
59	0x3d2a70f9	0.041611645
60	0xbb6a9b70	-0.0035798214
61	0xbd1a2e3e	-0.037641756
62	0xbc0c2c58	-0.008555494
63	0x3d8ed453	0.069740914
64	0xbd05b571	-0.03264374
65	0x3d33e2a3	0.04391731
66	0x3d2f75df	0.04283702
67	0xbbf06fad	-0.0073375315
68	0x3bd2a2b6	0.006428088
69	0xbc9d4308	-0.019197002
70	0x3d184b5a	0.037181236
71	0x3d59abb0	0.05314225
72	0x3d8d9019	0.0691225
73	0xbc10f1b7	-0.008846692
74	0xbcbffccf	-0.023435978
75	0x3b803ee0	0.0039137453
76	0xbd047fe8	-0.032348543
77	0xbd0e4392	-0.03473241
78	0x3cf6e1d6	0.030136984
79	0xbcf55f61	-0.029952707
80	0x3d8ac820	0.06776452
81	0x3d16e875	0.036842782
82	0xbd61e518	-0.05515012
83	0x3d3b8211	0.045778338
84	0xbc4b0e52	-0.012393551
85	0xbae18115	-0.0017204607
86	0xbd21fb8e	-0.039546542
87	0x3d89817b	0.067141496
88	0x3d939cfc	0.07207677
89	0x3d17a249	0.03702
90	0xbce0337c	-0.0273683
91	0xbc1d7190	-0.009609595
92	0x3d6d7932	0.05797691
93	0x3d5f7347	0.054553296
94	0xbd20dea6	-0.039274834
95	0xbb57964f	-0.0032895987
96	0xbd49547a	-0.04915283
97	0x3d8b0104	0.06787303
98	0x3bd2f6ca	0.006438111
99	0x3d8576ae	0.06516777
100	0x3b9710e8	0.0046101697
101	0x3db6fdb6	0.0893511
102	0x3d3c0a5c	0.045908317
103	0x3cecd338	0.02890931
104	0xbcc20cd5	-0.02368776
105	0xbbe0c854	-0.0068598185
106	0x3c0c0760	0.00854668
107	0xbd5713fc	-0.052509293
108	0xbcde8974	-0.027165152
109	0xbc1b5899	-0.009481573
110	0x3d22d183	0.039750587
111	0xbcf76931	-0.030201526
112	0xb95bafe6	-0.00020950995
113	0x3d2fa810	0.042884886
114	0x3cc18cc5	0.023626694
115	0xbd09de3c	-0.033659205
116	0x3da7b1ff	0.08188247
117	0xbcd4dfca	-0.025985617
118	0x3c0b2a76	0.00849401
119	0xbc9366d0	-0.01799336
120	0xbcf711b6	-0.030159812
121	0xbcfbf774	-0.030757643
122	0x3cc3c1ec	0.02389618
123	0x3d080a3c	0.033212885
124	0xbca19c17	-0.01972775
125	0xbd5aa7d2	-0.053382702
126	0xbb6af269	-0.0035850054
127	0x3c6dfde1	0.0145258615

_layers.4.weight f4 [32, 128]
0	0x3dc3c999	0.09559936
1	0xbe312e89	-0.17302908
2	0xbd03aee7	-0.03214922
3	0xbd1807f1	-0.03711695
4	0x3c05f128	0.008175172
5	0x3d9bcc4e	0.076073274
6	0xbcbb3170	-0.022850722
7	0xbe96e505	-0.29471603
8	0x3e226d29	0.15861954
9	0xbd75dc59	-0.060024593
10	0x3c963ade	0.018338617
11	0x3caafbf5	0.020872096
12	0xbd58686c	-0.05283396
13	0x3e5c4d2f	0.21513818
14	0xbd9ff5d8	-0.07810563
15	0x3e94c6a6	0.29057807
16	0x3d717711	0.05895144
17	0x3ec127f0	0.37725782
18	0x3e5c0902	0.21487811
19	0xbe45b3f2	-0.19306925
20	0x3e7d9bf5	0.24766524
21	0x3d1e5d48	0.03866318
22	0x3e0a16ef	0.13485311
23	0xbe663f22	-0.22485021
24	0x3d508300	0.05090618
25	0xbd9c6ca9	-0.07637913
26	0x3d2af7ae	0.041740112
27	0xbe640c28	-0.22270262
28	0xbc9c810d	-0.019104505
29	0x3e06aee5	0.13152654
30	0x3d404ffd	0.046951283
31	0x3d846644	0.06464818
32	0xbceefeb3	-0.029174184
33	0x3e03e9fa	0.12882224
34	0xbba4f8e3	-0.0050345524
35	0xbd7eb607	-0.062185314
36	0x3d61c6b9	0.055121157
37	0x3e2a3d7a	0.16625014
38	0x3e0f7519	0.14009513
39	0x3d44e375	0.048068482
40	0x3da9aaf5	0.082845606
41	0xbda62ba9	-0.08113796
42	0x3cba14ee	0.022715058
43	0xbe2ad27d	-0.16681857
44	0x3d908ca9	0.07058079
45	0x3bf6f7d4	0.0075368676
46	0x3d5efbba	0.054439284
47	0xbd67c24d	-0.056581784
48	0xbe1ea5f2	-0.1549299
49	0x3cf4c42c	0.029878698
50	0x3e0ec82b	0.13943546
51	0xbcf9020b	-0.030396482
52	0x3e2c35fe	0.16817471
53	0xbe34cf12	-0.17657116
54	0x3cdcb535	0.026941875
55	0xbd3260d1	-0.043549363
56	0x3e2cc903	0.16873555
57	0xbd0989c9	-0.033578668
58	0x3ca057fc	0.019573204
59	0xbdbe7c1e	-0.09301017
60	0xbcf575ab	-0.029963335
61	0xbdad571f	-0.08463883
62	0x3d9ceb45	0.076620616
63	0x3debc73b	0.115126096
64	0xbd8c360a	-0.06846245
65	0xbd1817da	-0.03713212
66	0xbdb71c23	-0.089409135
67	0x3dbe4508	0.092905104
68	0xbdf0c29e	-0.1175587
69	0xbdb82741	-0.08991862
70	0x3e0ef5f9	0.13961019
71	0x3d846882	0.06465246
72	0xbd329ddd	-0.04360758
73	0xbd8b74d8	-0.068093956
74	0xbca27af4	-0.01983402
75	0xbdf7efc5	-0.12106279
76	0x3c15b9c0	0.0091385245
77	0xbd14c345	-0.036319036
78	0x3df9562c	0.12174639
79	0xbe4c906e	-0.1997697
80	0xbe2c3517	-0.16817127
81	0x3d1974d4	0.03746493
82	0xbe983f56	-0.2973582
83	0x3e0c194e	0.13681528
84	0xbc9b03b1	-0.018922659
85	0x3d8779cf	0.0661503
86	0xbcc65764	-0.024211593
87	0x3b3e409f	0.0029030216
88	0x3da3d7f8	0.08000177
89	0x3df8a50c	0.12140855
90	0xbd375447	-0.044758108
91	0x3d9f69c9	0.07783849
92	0xbcaf5fc3	-0.021407967
93	0x3da000e6	0.07812671
94	0x3d9e2449	0.077217646
95	0x3e52fe98	0.20604932
96	0x3d3ab9b2	0.04558725
97	0x3cd3e313	0.025865113
98	0x3e70b628	0.23506987
99	0xbc9ac7a1	-0.018894019
100	0x3dde4c67	0.10854416
101	0x3dec89fd	0.11549757
102	0xbf03f808	-0.5155034
103	0xbb702e1a	-0.0036648572
104	0x3e107e0a	0.1411058
105	0xbd5ad91e	-0.053429715
106	0xbbf4d5e0	-0.007471785
107	0xbe479e43	-0.19493966
108	0xbe928454	-0.28616583
109	0xbc99193d	-0.018688792
110	0x3e152c92	0.14567783
111	0x3ba6c33d	0.005089192
112	0x3e162ffc	0.14666742
113	0x3c98814f	0.018616347
114	0xbcab4d26	-0.02091081
115	0x3d747b96	0.059688173
116	0x3dd80a94	0.105488926
117	0xbe71fb7c	-0.2363109
118	0xbe211c71	-0.15733506
119	0xbdfdb0d7	-0.12387245
120	0x3e72acb7	0.23698698
121	0x3cef8edc	0.029242925
122	0x3d9abe9f	0.07555889
123	0x3cdf62e6	0.027268838
124	0x3d7fde1d	0.062467683
125	0xbd28c8a7	-0.041206982
126	0x3c42096c	0.011843067
127	0xbd72e393	-0.059299063
128	0x3bb7b212	0.0056059444
129	0x3d51640f	0.051120814
130	0x3df8d679	0.121502824
131	0x3d9da1f9	0.076969095
132	0x3d3b7746	0.045768045
133	0x3dfbfd01	0.12304116
134	0x3d2dfefa	0.042479493
135	0xbe16b6c2	-0.14718154
136	0x3c53f69a	0.012937212
137	0x3e1d08ad	0.15335341
138	0x3dcfef41	0.10153056
139	0x3dc2580b	0.09489449
140	0xbce08e87	-0.027411712
141	0xbe1ab268	-0.15107119
142	0x3dd4697b	0.10371681
143	0xbe91ba16	-0.28462285
144	0x3ceb5d46	0.028731
145	0xbdccd192	-0.1000091
146	0xbdb5a90f	-0.08870136
147	0x3e05ecde	0.13078639
148	0xbe492f85	-0.19647034
149	0xbd308061	-0.04309118
150	0xbdb5bc7e	-0.08873843
151	0x3d6aaa66	0.05729141
152	0xbdbb2717	-0.09138315
153	0x3d156a48	0.03647831
154	0x3d88faaf	0.06688439
155	0x3d4d5e71	0.050138894
156	0x3d52f089	0.051498923
157	0xbb048fe1	-0.002022736
158	0x3dfa33d6	0.12216918
159	0x3dc65f62	0.096861616
160	0x3dc0811c	0.09399626
161	0xbd656bd3	-0.056011032
162	0x3e18b2cc	0.14911956
163	0x3d36d46a	0.044636168
164	0x3dbf5ed5	0.0934426
165	0xbe7209e6	-0.23636588
166	0xbe019b25	-0.12656839
167	0xbd670b1f	-0.05640709
168	0x3df80383	0.12110045
169	0x3dceee47	0.101040415
170	0x3cc001a8	0.02343829
171	0x3e30e4d2	0.17274788
172	0xbc51d138	-0.012806229
173	0x3e39d31a	0.18146935
174	0x3cf25a23	0.029583996
175	0xbcd7ca46	-0.026341569
176	0x3d249a28	0.040186077
177	0x3caa06cc	0.020755194
178	0xbe0acaea	-0.13553968
179	0x3a82a15e	0.0009966304
180	0xbda5090c	-0.08058366
181	0x3e845415	0.258454
182	0x3e109c9a	0.14122239
183	0x3df98788	0.12184054
184	0xbd67cac7	-0.056589868
185	0x3bd74d6d	0.006570509
186	0x3d874cc7	0.06606441
187	0x3e097dc5	0.13426884
188	0xbc98db9e	-0.01865941
189	0x3d9a4787	0.07533174
190	0x3d839681	0.06425191
191	0xbe012ad1	-0.1261399
192	0x3e3f0ee3	0.18658023
193	0xbd8e9bbf	-0.069633
194	0x3e2b9914	0.16757613
195	0xbe136e77	-0.14397608
196	0x3d8478a2	0.064683214
197	0x3da63469	0.08115465
198	0x3d560979	0.052255128
199	0xbe6f2e65	-0.23357542
200	0x3ce7c0b9	0.02829014
201	0x3e1b0352	0.15137985
202	0x3d6e511f	0.05818283
203	0xbd29ca51	-0.04145271
204	0xbd77420b	-0.060365718
205	0x3cb602b8	0.022218093
206	0x3df954ab	0.12174352
207	0x3e26de5e	0.16295764
208	0x3d48396d	0.04888289
209	0xbd9dcab7	-0.077046804
210	0x3e0e9fda	0.13928166
211	0xbe413331	-0.18867184
212	0x3e2de452	0.16981629
213	0xbd37b64d	-0.04485159
214	0xbce549b0	-0.027989239
215	0xbd8df771	-0.06931961
216	0xbd22f718	-0.03978643
217	0xbe0bb710	-0.13644052
218	0xbe0376e8	-0.12838328
219	0xbd210478	-0.039310902
220	0x3e5fdae0	0.21860838
221	0xbcb667a1	-0.022266211
222	0x3a593400	0.00082856417
223	0xbdbc6e2f	-0.09200703
224	0xbdabd681	-0.08390523
225	0x3e0c7718	0.13717306
226	0xbe1ea926	-0.15494213
227	0xbcfa9a12	-0.030591045
228	0xbe00a68a	-0.1256353
229	0xbdc3c2b8	-0.09558624
230	0x3e66758e	0.22505781
231	0x3e133fd8	0.14379823
232	0x3d8cf612	0.06882872
233	0xbbd27a33	-0.0064232587
234	0x3ccf2d14	0.02529005
235	0x3e38cd33	0.18047027
236	0x3e745796	0.23861536
237	0x3cbf73ec	0.023370706
238	0xbb583feb	-0.0032997082
239	0x3d8d2433	0.0689167
240	0xbd8182b5	-0.063237585
241	0x3d8edac4	0.0697532
242	0x3d8edd77	0.06975835
243	0xba18c780	-0.00058280677
244	0xbdde8f34	-0.108671576
245	0x3de48901	0.11158944
246	0x3cc40d05	0.02393199
247	0x3d8d3517	0.06894892
248	0xbe7d7440	-0.24751377
249	0x3cb49d50	0.022047669
250	0xbd81702f	-0.063202254
251	0x3a55a713	0.0008150201
252	0x3bcab09a	0.0061856033
253	0xbc882698	-0.016619965
254	0x3d8d828e	0.06909667
255	0x3cecf0b4	0.02892337

_layers.4.bias f4 [32]
0	0x3d1ed19a	0.03877411
1	0x3d67343d	0.056446303
2	0x3d68b964	0.056817427
3	0x3d96b844	0.07359365
4	0xbd4ea3de	-0.050449245
5	0xbd3554a1	-0.04427016
6	0x3d9ab669	0.07554323
7	0x3cdaa54e	0.026690152
8	0xbc890b4c	-0.01672902
9	0x3d2ac3bc	0.041690573
10	0x3d1d4671	0.038397256
11	0x3d800c57	0.06252354
12	0x3cdd9580	0.027048826
13	0x3ce7236c	0.028215133
14	0x3dca9a30	0.0989269
15	0xbbaab6a4	-0.0052097607
16	0xbd1f8d6d	-0.038953234
17	0x3d99a910	0.07502949
18	0x3d7006f0	0.058600366
19	0x3d798509	0.060917888
20	0xbd064939	-0.032784674
21	0xbd9e7ba8	-0.07738429
22	0xbcc7de4c	-0.024397992
23	0x3d35a78e	0.044349246
24	0x3dd75287	0.10513788
25	0x3d93f552	0.072245255
26	0x3cfafca0	0.03063804
27	0xbd501f20	-0.050810933
28	0xbb2f58a9	-0.0026755726
29	0xbd8b7ebe	-0.068112835
30	0x3b45bb00	0.0030171275
31	0xbced13e6	-0.028940152

_layers.6.weight f4 [6, 32]
0	0xbe033a23	-0.12815146
1	0x3e1ff0e4	0.15619236
2	0x3e0775ba	0.13228503
3	0xbe253559	-0.16133632
4	0xbe29cf0d	-0.1658289
5	0x3da5946d	0.080849506
6	0x3d041ece	0.03225594
7	0x3e2f3299	0.17109145
8	0x3e24a041	0.16076757
9	0xbebd5b1f	-0.36983582
10	0x3bc941c0	0.006141871
11	0xbdedbe5c	-0.11608574
12	0x3c98bb28	0.01864393
13	0xbe8643b7	-0.26223537
14	0xbe994152	-0.29932648
15	0x3d83985c	0.064255446
16	0x3e14459d	0.1447968
17	0xbe98ee6c	-0.298694
18	0x3d43dd1b	0.047818284
19	0x3e59e222	0.21277669
20	0x3e84a440	0.25906563
21	0x3e7d8afe	0.24760053
22	0x3e208f63	0.15679698
23	0xbd472690	-0.04862076
24	0x3e8228fb	0.2542189
25	0xbe144e79	-0.1448306
26	0x3e7da787	0.24770938
27	0x3d764459	0.060123775
28	0xbe12878b	-0.14309518
29	0x3e0d1041	0.13775732
30	0x3dd37ff6	0.10327141
31	0xbe1174bc	-0.14204687
32	0x3dc943e6	0.09827404
33	0xbe16fdd9	-0.14745273
34	0xbe1bef02	-0.15227893
35	0x3e0476b6	0.1293591
36	0x3c9d7957	0.019222898
37	0x3e1cdb7b	0.153181
38	0xbe90a71d	-0.28252497
39	0x3d394a6c	0.04523699
40	0xbc547b40	-0.012968838
41	0x3e36da7e	0.17856786
42	0x3d62c8a2	0.05536712
43	0xbdccf524	-0.10007694
44	0xbd6bf6a6	-0.05760827
45	0xbe08d8e5	-0.13363989
46	0x3dc25c01	0.094902046
47	0xbdabac79	-0.08382506
48	0xbe22be43	-0.15892892
49	0x3e650821	0.22366382
50	0x3da86b3a	0.08223577
51	0xbd0e2a55	-0.03470834
52	0xbf04a4e3	-0.518141
53	0xbde97e22	-0.11401011
54	0xbe2c54ca	-0.1682922
55	0xbd1ab1e7	-0.037767317
56	0x3dab0a78	0.08351606
57	0x3e3caaaa	0.18424478
58	0x3de299b5	0.110644735
59	0xbe2654e2	-0.16243318
60	0xbdda28be	-0.10652302
61	0x3dd05292	0.10171999
62	0x3e0255c3	0.12728028
63	0xbd95c66b	-0.07313236
64	0xbea86bce	-0.32894748
65	0x3e66eefd	0.22552104
66	0xbebfd804	-0.37469494
67	0x3e741170	0.23834777
68	0x3e581eb5	0.21105464
69	0x3de969e8	0.11397153
70	0x3d77a095	0.060455877
71	0x3d8e85cf	0.06959116
72	0x3da92166	0.08258323
73	0x3d49a0f4	0.049225762
74	0xbeafb8c4	-0.34320652
75	0x3e4ca988	0.19986546
76	0x3e23cfa9	0.15997185
77	0xbe3e06d1	-0.18557288
78	0x3e922137	0.28540966
79	0xbdbee773	-0.09321489
80	0x3cba55f0	0.022746056
81	0xbe1b35df	-0.15157269
82	0x3eb02616	0.34404057
83	0xbe91ae13	-0.2845312
84	0x3deec66e	0.11658941
85	0x3cd0ed90	0.025503904
86	0xbd400d0c	-0.046887442
87	0x3e9f5f9d	0.31127635
88	0xbe551036	-0.20806965
89	0x3e9c0462	0.30472094
90	0x3e1bbdb7	0.15209089
91	0xbe068b92	-0.1313918
92	0xbe891956	-0.26777142
93	0xbdc4ae52	-0.096035615
94	0x3c4866b0	0.012231514
95	0x3e9f608c	0.31128347
96	0xbd32679d	-0.043555845
97	0xbdc60952	-0.096697465
98	0x3d53ffb7	0.05175754
99	0x3e73a8a6	0.23794803
100	0xbeb91f33	-0.36156616
101	0xbe7e857e	-0.2485561
102	0x3d1b1cd9	0.03786931
103	0x3e41bedc	0.18920463
104	0xbc7c8830	-0.015413329
105	0x3d9bc855	0.0760657
106	0x3eafeef7	0.34362003
107	0x3e5ad3aa	0.21369806
108	0x3dcb0e32	0.09914817
109	0xbe4b2d95	-0.19841607
110	0xbed15098	-0.408818
111	0x3e823407	0.2543032
112	0xbdb6ae38	-0.08919948
113	0xbdde31bf	-0.10849332
114	0xbe801d89	-0.25022534
115	0xbda4514a	-0.08023317
116	0xbef9880e	-0.48736614
117	0xbe203492	-0.15645054
118	0x3df3fc6a	0.119133785
119	0xbc215fad	-0.009849471
120	0xbe51a38f	-0.20472549
121	0xbed03dd5	-0.40672174
122	0x3c86c50e	0.016451385
123	0x3e14d3a4	0.1453386
124	0x3e63a0fe	0.22229382
125	0x3cf0db88	0.029401556
126	0x3d27d5f8	0.04097554
127	0xbd2f6bdb	-0.04282747
128	0x3ea8c64e	0.32963794
129	0xbdad3352	-0.08457054
130	0xbdd56b69	-0.104208775
131	0xbeef3447	-0.46719572
132	0xbbb6fa93	-0.00558407
133	0x3dca4428	0.09876281
134	0xbeac9acf	-0.3371186
135	0xbeb0572f	-0.34441516
136	0x3db6e2f6	0.08930008
137	0x3e7c2e68	0.24627078
138	0xbe0d9ca5	-0.13829286
139	0xbe8df4ef	-0.27725932
140	0x3e246f89	0.16058172
141	0x3e965662	0.2936278
142	0x3e50d9f3	0.20395641
143	0xbeb45463	-0.35220632
144	0x3de6a7d6	0.11262481
145	0x3dcd7d9d	0.100337245
146	0xbec3f28a	-0.3827098
147	0x3e098b8a	0.13432136
148	0xbe2696da	-0.16268483
149	0xbe0267a7	-0.12734853
150	0xbd8d95f3	-0.06913366
151	0x3e712026	0.2354742
152	0x3e1484f4	0.14503843
153	0xbeb2dac6	-0.34932536
154	0x3d32a7cf	0.043617066
155	0xbe4f8aec	-0.20267838
156	0x3e0605db	0.13088171
157	0x3d2539d8	0.040338367
158	0xbd90bd20	-0.07067323
159	0x3b6799e9	0.003533954
160	0xbdcd9b6f	-0.10039412
161	0xbc58e857	-0.013238988
162	0x3e8ed6c2	0.27898222
163	0xbe294044	-0.16528422
164	0x3e1f49af	0.15555452
165	0xbe21ac13	-0.15788297
166	0x3e3d9de2	0.18517259
167	0xbc9c07f6	-0.019046765
168	0x3c8808a0	0.016605675
169	0x3e0290a2	0.12750486
170	0xbe468f85	-0.19390686
171	0x3e84aa96	0.25911397
172	0xbde5b379	-0.11215872
173	0x3e140f17	0.14458881
174	0x3e139975	0.14414008
175	0xbe102b09	-0.14078917
176	0x3d8f6324	0.070013314
177	0x3e4d30bd	0.20038123
178	0xbe046ac2	-0.1293135
179	0xbe5acc27	-0.2136694
180	0xbe780679	-0.24221219
181	0x3e6259fe	0.22104642
182	0x3d300aa8	0.042978913
183	0xbe99e98c	-0.30060995
184	0xbe9ab4cf	-0.3021607
185	0x3df716f9	0.120649286
186	0x3d5d1e6c	0.05398409
187	0xbe9170dd	-0.2840642
188	0x3e867488	0.2626078
189	0xbddb30ef	-0.10702693
190	0x3dfedab6	0.124440596
191	0x3e15fdf0	0.1464765

_layers.6.bias f4 [6]
0	0xbd28d005	-0.041214008
1	0xbe13c786	-0.14431581
2	0xbd762389	-0.060092483
3	0xbddac10d	-0.10681353
4	0x3d8abef4	0.06774703
5	0x3de036f1	0.10947979
