models/gg-2023-11-09_21-08.pt (torch, 172816 bytes, 8 tensors)

_layers.0.weight f4 [256, 19]
000000 59 a0 1f be 10 71 60 3e 07 ac ae bd d4 06 68 bd
       -0.15588512 0.2191813 -0.08528905 -0.056647137
000010 70 82 ae 3e 66 a7 4f 3e 4b ab 67 3d 59 0a 00 be
       0.3408389 0.20278701 0.056559842 -0.12503947
000020 45 a2 90 3e 64 fd 6d 3e 92 33 d0 be 43 7c f7 bd
       0.28248802 0.23241192 -0.40664345 -0.12084248
000030 13 1d 35 3e ca 34 3d be ed c4 56 3e ff 09 e3 bd
       0.17686872 -0.18477169 0.20973559 -0.11085891
000040 83 cf f3 3d fb ca e6 bd 00 f0 4a be b6 9d 8a 3e
       0.11904814 -0.11269184 -0.19818115 0.2707345
000050 7e c1 90 3e 9a ce be bd aa 88 4d be 81 fe 26 3e
       0.28272623 -0.0931675 -0.20071664 0.16308023
000060 19 10 7d 3e 86 7a 10 3e d2 3b 82 be 8a 07 71 3e
       0.24713172 0.14109239 -0.25436264 0.23538032
000070 d1 38 a1 bd d1 f8 60 be 9b c4 64 be d4 b6 ef bd
       -0.07872165 -0.21969916 -0.22340624 -0.117047936
000080 69 33 c0 3d 97 09 05 be 19 0c 0c 3e 73 d0 2c 3e
       0.09384806 -0.1299194 0.1367649 0.16876392
000090 54 a6 dc bd f7 d9 0d 3e fd 08 44 be 9e fb 97 3e
       -0.10773912 0.13852678 -0.19144054 0.29684156
0000a0 bd 11 10 3e 17 09 2a 3c d6 1e c8 3d d1 75 74 3c
       0.14069267 0.010378144 0.097715065 0.014920668
0000b0 10 7b c3 3d 39 8d 9e 3d 50 5d 10 3e 7f d5 90 3a
       0.09544957 0.0774178 0.14098096 0.0011049955
0000c0 a8 c2 30 bd f8 5a 1c 3d 7b 00 c9 bd 7d 5b 59 3e
       -0.04315439 0.038172692 -0.09814545 0.21226306
0000d0 b8 2e e9 bd 69 3a 92 3d 1c 12 14 bd 0e b2 11 be
       -0.11385864 0.07140047 -0.036150083 -0.14228079
0000e0 d4 a9 36 be 21 82 4b 3e ce c8 9e bc 3d 3b 9a 3d
       -0.17838222 0.19873859 -0.01938286 0.0753083
0000f0 dc 98 56 3e ca 18 b0 3d be a0 c7 3d 61 34 74 be
       0.20956749 0.08598478 0.09747456 -0.23848106
000100 7c 79 85 3e 47 03 b8 bd d8 4c 1e be 0a 25 bb be
       0.26069248 -0.08985 -0.15459001 -0.36551696
000110 c6 76 9e bd c2 70 f0 3d 9a 9c b6 3c e2 45 97 bd
       -0.07737498 0.11740257 0.02229147 -0.07386376
000120 c0 b4 bd 3d 82 ec e7 3c bc 65 30 3e 35 d9 12 3e
       0.09262991 0.028311018 0.17226309 0.1434067
000130 98 bb 9c 3d b0 e0 e5 3c 25 0b e0 3c 42 ab 1a 3e
       0.07652968 0.02806124 0.027349064 0.15104392
000140 ec 0a 9c bd f6 bf 2f 3e 78 da 3e 3e 41 99 96 be
       -0.07619271 0.17163071 0.18638027 -0.29413798
000150 11 d7 ef bd 69 37 db 3d cd 23 a6 3e f9 14 4a 3e
       -0.117109425 0.10703928 0.3244919 0.19734563
000160 40 91 45 3e e2 cd 69 3d 06 78 f9 3d 8b 25 29 be
       0.1929369 0.05708111 0.12181096 -0.16518228
000170 98 b9 26 3d cc 20 c1 3d ab 37 78 3d aa 51 0d 3e
       0.04070434 0.09430084 0.060599964 0.13800684
000180 99 55 c9 bd b9 29 7e 3d c7 ba 85 3e dd d8 a7 3e
       -0.098307796 0.06205151 0.26119062 0.3278264
000190 a4 8d ce 3d 9d 02 f2 bd bb fe 1e 3e db 23 ea 3d
       0.100856096 -0.11816905 0.1552686 0.1143262
0001a0 b7 d9 4d be e2 10 3b bd 94 d5 b9 3d aa 31 35 3e
       -0.20102583 -0.045670398 0.0907394 0.17694727
0001b0 de ff 06 bd 08 8f 3d 3e 8f 98 1f 3d 1c d5 70 bb
       -0.032958858 0.18511593 0.03896385 -0.0036748117
0001c0 11 56 7f 3c fa 74 37 3e ac 5e 62 3e 52 85 d7 3d
       0.015584485 0.17915717 0.22106427 0.10523476
0001d0 2b 5d fe bd 71 37 68 bd 55 71 bf 3e 36 7e 19 3e
       -0.12420114 -0.056693498 0.37391153 0.14989552
0001e0 54 fb f2 bd 06 87 46 3c a0 90 73 bd 9f 39 f8 ba
       -0.11864343 0.012117153 -0.059464097 -0.0018938071
0001f0 7d a5 aa be 60 a8 51 be 4d 8a 11 3d 3a e3 17 bd
       -0.33329383 -0.20474386 0.035532285 -0.037081935
000200 4a dc 66 3e da 23 44 be 7f 2e 89 3e 0d 05 c9 3d
       0.22544971 -0.19154301 0.26793286 0.098154165
000210 10 ab 40 be f2 39 96 bc 5f 95 3c bd cc 10 09 3e
       -0.18815255 -0.018338177 -0.04604089 0.13385314
000220 0d b6 78 3d 84 c3 30 be 0b 5b 5d 3e ce f6 a9 3d
       0.060720492 -0.17262083 0.21616761 0.082990274
000230 20 01 8c 3d 7d 3f 01 3e 54 f4 55 3e ec ef 0a bd
       0.06836152 0.12621875 0.20893985 -0.033920214
000240 68 78 a1 bd 37 49 31 3e 04 49 82 be 2b 01 2d bd
       -0.07884294 0.17313085 -0.25446332 -0.042237442
000250 58 f0 fc bb ef 47 a1 3e 63 0d 33 b9 f7 e7 ff bd
       -0.007719081 0.31500193 -0.00017075757 -0.12495416
000260 22 dc 09 3e c9 db 47 3c 0c 30 62 3c b2 7c 28 3e
       0.1346288 0.012198397 0.013805401 0.16453817
000270 33 72 83 be 6d fe 46 bc 58 86 2a 3e f5 b9 19 3e
       -0.25673065 -0.012145621 0.1665281 0.15012343
000280 bc 47 0c 3c 6a 86 34 be 31 1b 7a 3e d0 c5 c3 bd
       0.008562025 -0.176294 0.24424435 -0.09559214
000290 6f ba 69 be b4 0a 03 3e 1a 6c 87 bd a4 02 2e 3e
       -0.22825025 0.12797052 -0.066124156 0.16993195
0002a0 80 1d 6e be 73 3d 0f bd 78 94 d4 3d 79 57 aa 3d
       -0.23253441 -0.034970712 0.10379881 0.08317465
0002b0 1c 6b 48 3e 48 7c 41 be a8 9b ed 3d be 7b 2b 3e
       0.19572109 -0.18895066 0.11601955 0.16746423
0002c0 43 6d ed bd 2e c6 83 3d 7a 77 b0 bc b2 91 e9 bd
       -0.11593106 0.06434284 -0.021541346 -0.11404742
0002d0 5d 06 b2 3c d1 88 98 3e 9d e9 c1 3d bc 5b 5b 3d
       0.02173155 0.29791883 0.09468386 0.05355428
0002e0 2c a6 9d 3c b4 11 e3 3a 95 0b 25 3e f7 e4 76 be
       0.019244276 0.0017324002 0.161177 -0.2411078
0002f0 f8 6d b0 3d 07 b5 21 3e 95 b0 79 bd 8f 6b 6c 3e
       0.08614725 0.15791713 -0.060959417 0.23087905
000300 c2 4c 02 3e a3 23 24 3d a6 1b 64 3d df c3 64 3e
       0.12724593 0.04007305 0.05569043 0.22340344
000310 d8 eb 51 be e4 20 00 3e bf 10 36 3e e8 5e 39 3e
       -0.20500124 0.12512547 0.17779826 0.1810261
000320 3c 56 79 3e 8e 4f 33 bd 71 f5 12 3e 16 1e 41 be
       0.24349302 -0.04377704 0.14351441 -0.18859133
000330 98 c6 b0 3d 74 2a a0 bd db fe 33 be c0 ce e6 bd
       0.08631629 -0.07820597 -0.17577688 -0.11269903
000340 1d 91 4e 3e 8b 89 e9 bd ca 6a 09 3e 59 d1 81 bc
       0.20172544 -0.11403187 0.13419643 -0.015846895
000350 ea 73 35 be e4 94 10 3e db a5 13 3e c7 16 a5 be
       -0.17719999 0.14119297 0.14418738 -0.3224394
000360 05 7b 2a 3e 37 36 92 3d 68 d3 a2 be 82 d3 44 3e
       0.1664849 0.07139247 -0.31801915 0.19221309
000370 61 04 46 be 13 28 79 3e e6 77 f3 bd 6e aa 93 bc
       -0.19337608 0.24331693 -0.11888103 -0.018025603
000380 99 57 c6 bd 0a 9f 0b 3e 55 07 1d 3e bd 8b 00 be
       -0.09684677 0.13634887 0.15334828 -0.12553306
000390 00 89 5e bd 26 58 1e 3e 6e 39 42 be 93 23 31 bd
       -0.054329872 0.15463313 -0.1896722 -0.043246817
0003a0 65 5e 77 be 4a 9d 3f 3d 56 5f 55 be 50 12 f4 38
       -0.24157102 0.046780862 -0.20837149 0.000116382376
0003b0 7a 21 69 3d 09 fb 27 3d 34 0a 8e 3e ca 09 6c 3e
       0.05691669 0.04101089 0.2774216 0.23050609
0003c0 5d 05 1c be 6c d9 ca 3d 0f b2 80 bd 2b ff 13 3e
       -0.15236421 0.09904751 -0.06283962 0.14452808
0003d0 31 3b c9 3c 1d 2f 0c 3e 63 0d d1 3d 50 d0 13 be
       0.024564357 0.13689847 0.102076314 -0.14434934
0003e0 79 67 87 3e 3e 4a 2a 3d bb 68 9e 3e 6a 0c 04 be
       0.2644613 0.04157471 0.30939278 -0.1289536
0003f0 b4 fe 47 3e 83 36 13 3d ab a0 10 3d 8b d6 99 3d
       0.19530755 0.03594066 0.035309475 0.07511624

_layers.0.bias f4 [256]
000000 86 bf dc 3d a5 8b ad 3d cc 56 95 3d 57 3a fa 3d
       0.10778718 0.08473901 0.07291946 0.12218159
000010 9f 8d ef 3d 43 39 f2 bc b2 a5 5d 3e ae 4c b3 3c
       0.11696934 -0.02956832 0.21645239 0.02188715
000020 72 07 1d 3e df f6 2b 3e 12 f0 53 be 0a fd c1 3d
       0.15334871 0.16793393 -0.20697048 0.094720915
000030 a4 5e b7 3d 28 fe 97 bd 17 ee f9 3d 1c fe 55 3e
       0.08953598 -0.07421523 0.12203615 0.20897716
000040 5f 48 ce bd 9e 8d 3e 3e e1 48 c2 3d 56 be 63 3e
       -0.100723974 0.1860871 0.09486557 0.22240576
000050 f7 cf 1c be 23 7d 3d 3e 0d 9b b9 bd 8d 3d 2f be
       -0.15313707 0.18504767 -0.09062777 -0.17113324
000060 da 87 5d be d6 51 65 3e d6 90 4c 3e df 04 36 be
       -0.21633855 0.22394499 0.19977126 -0.17775296
000070 64 2a fb 3d a2 8f 35 be 6b 20 5b be 1b 6d 15 3d
       0.12263945 -0.17730573 -0.21399085 0.036481004
000080 db 96 00 be 77 f0 47 bd fc 31 10 3d 45 70 92 3d
       -0.12557547 -0.04881331 0.03520392 0.0715032
000090 28 81 38 3e d1 83 f4 bd f5 ea bc 3d 42 b5 1b be
       0.18018019 -0.119392045 0.09224502 -0.15205863
0000a0 e0 c3 c9 bd f4 a9 91 3d 9b 23 26 3e 95 d3 d7 3d
       -0.09851813 0.07112494 0.1622452 0.10538403
0000b0 7a 60 cd bd b1 f6 2a be 4e d8 f3 3d 88 23 9b bc
       -0.10028167 -0.16695668 0.11906491 -0.018937841
0000c0 a0 cc 44 3e ac 29 48 bc 95 0f 71 be 65 99 f3 3d
       0.19218683 -0.012216967 -0.235411 0.11894492
0000d0 a5 7e 42 3e 9a 6e bf bd 73 f8 2a be fb 5f 0c be
       0.18993624 -0.093472674 -0.16696338 -0.13708489
0000e0 9e 1f 05 be 5f e8 59 be 2a 84 98 bd ba da 5f be
       -0.13000342 -0.21280049 -0.07447083 -0.21860781
0000f0 7a 4a 17 be dd 6a 4e 3e 18 5d d8 bc 51 9d 19 bd
       -0.14774504 0.20157953 -0.026411578 -0.037503544
000100 78 cd 4d 3e b9 fe 5c 3c 75 73 32 3e a6 d3 8b 3d
       0.20097911 0.013488465 0.17426856 0.06827478
000110 70 ea b4 3d 1f 53 33 be c6 65 57 3e 91 13 34 3e
       0.08833778 -0.17512177 0.21034917 0.17585589
000120 74 77 c8 3a b6 63 06 be 75 56 43 3e 54 1c 1b be
       0.0015294389 -0.13123974 0.1907595 -0.15147525
000130 fc a6 6b 3d c7 00 fc 3c 29 2b 49 3e 92 e3 44 bd
       0.057532296 0.03076209 0.1964537 -0.04806859
000140 76 bf f9 bd f0 ed c7 bd 98 81 25 bd 78 d9 34 be
       -0.121947214 -0.0976218 -0.040406793 -0.17661083
000150 ac 2b 6d 3c 8a a3 3a 3e f0 98 e4 bb c3 6a 03 be
       0.014475744 0.18226448 -0.0069762394 -0.12833695
000160 73 7b 59 3e f5 e6 65 3d 53 df b8 3d bd 23 92 bd
       0.21238498 0.05612846 0.09026971 -0.07135723
000170 2c 85 54 3e 96 e5 2d 3b 95 3b ac bd 8e 1b e3 3d
       0.20753926 0.002653455 -0.08409802 0.1108924
000180 0e a4 2d 3e 2e 4d 2e 3e 82 00 64 3e 25 a6 26 be
       0.16957113 0.17021629 0.22265819 -0.16274317
000190 4e d6 06 3e 15 ec 53 3e f2 1c 2f be a6 45 3b be
       0.13167688 0.20695527 -0.17100886 -0.18288288
0001a0 fe 90 ee 3d ec 81 66 3e 59 1e a4 3d df 6c 0b bd
       0.11648749 0.22510499 0.08013601 -0.034039374
0001b0 2a 0d 16 be 98 11 78 3e 4d 9f 95 3d 29 b4 f7 3b
       -0.14653459 0.24225461 0.07305775 0.0075593186
0001c0 05 d9 12 3e dc a7 1b 3e 2f 91 dc 3d b7 e5 0e be
       0.14340599 0.15200752 0.10769879 -0.13954817
0001d0 47 c4 a9 3d 83 aa 1b 3d 09 35 41 be 80 be e3 bd
       0.0828939 0.03800441 -0.18867888 -0.11120319
0001e0 e0 a8 17 3e c5 7d 8d 3d 6c 06 82 3d 72 fc b2 bd
       0.14810514 0.06908754 0.06348881 -0.08739556
0001f0 05 b1 bb 3d 4b a0 db bc 19 4e 3b 3d 97 90 77 3e
       0.09164623 -0.026809832 0.045728777 0.2417625
000200 aa 12 23 3e de f3 55 bd 90 7e 89 3d a2 d6 c8 bd
       0.15925089 -0.052234523 0.06713593 -0.09806563
000210 2e 96 bf bd 7b 07 3e 3d 5b 34 0d 3e 48 80 18 be
       -0.093548164 0.046393853 0.13789503 -0.14892685
000220 71 c3 8c 3d 44 a8 25 bd cf 40 eb bd 7d 7f c6 bd
       0.06873215 -0.040443674 -0.11486971 -0.09692285
000230 dc 05 06 3e 16 7c 46 be 4e cf d9 3d 77 b2 55 3e
       0.13088173 -0.19383273 0.10635243 0.2086886
000240 67 58 3e bd 53 7f 6e 3e a0 a1 3f be b7 f6 e3 bd
       -0.046471026 0.23290758 -0.18713999 -0.111310415
000250 1c ed 23 3e 06 8b 0e be 55 91 4c 3e 30 92 fa bc
       0.16008419 -0.1392022 0.19977315 -0.030587286
000260 9a 15 b3 bd 30 eb e4 3d 77 39 f5 bd 9c 7d b2 3c
       -0.087443545 0.11177671 -0.11973851 0.02178841
000270 25 75 c9 bd 67 37 5a 3e 54 92 37 3e 73 7d 12 3e
       -0.09836797 0.21310197 0.17926913 0.14305668
000280 c9 6b eb bd a6 b7 26 3e af 10 72 3e fb 99 0c be
       -0.11495168 0.16280994 0.23639177 -0.13730614
000290 a7 5c d9 3d 01 6c 4c be 85 ca 0f 3e 7b 90 e3 3d
       0.10613375 -0.19963075 0.14042099 0.11111542
0002a0 5e 99 22 3e c2 4c 5e 3d 71 63 28 3e 09 bf 38 3e
       0.15878817 0.05427242 0.16444184 0.18041624
0002b0 4a bf 0e 3e b1 9e 55 3e a3 6d 1d 3e c1 41 24 3e
       0.13940158 0.20861317 0.15373854 0.16040708
0002c0 46 04 3d 3d b4 ea 45 3e e0 7a 40 bd e9 43 3d be
       0.046146654 0.19327813 -0.046992183 -0.18482937
0002d0 ee e5 dc bc c9 65 0e 3e b8 9a 5f be 47 19 0b 3e
       -0.026965108 0.13906015 -0.21836364 0.13583861
0002e0 4a 32 f3 3d 92 c3 03 be 6c bf 0d 3e d2 7a 34 3e
       0.11874826 -0.12867573 0.13842553 0.17624977
0002f0 fb ae 62 3e a8 8b df 3d 83 0b 80 bb 0b ba 87 bd
       0.22137062 0.10915309 -0.0039076223 -0.06627282
000300 f2 46 52 3d b1 b0 e9 3c 95 b4 35 3d 21 c8 40 be
       0.05133719 0.028526636 0.04436167 -0.18826343
000310 5b 19 9f bd 2a 7b 9c 3c b7 62 28 3e b2 15 31 3e
       -0.07768508 0.019101698 0.16443907 0.17293432
000320 47 09 d5 bd 31 ed 4e be b3 be 03 3e 99 f5 f9 bd
       -0.1040216 -0.20207669 0.12865715 -0.12205047
000330 67 ec 27 3e e9 7d 3a 3e 46 84 3a 3e c1 f3 62 be
       0.16398774 0.18212093 0.18214521 -0.22163297
000340 64 6b 0f 3e e8 a3 9d 3c ed ab 56 3e 04 50 38 be
       0.1400581 0.019243196 0.20964022 -0.17999274
000350 17 1d da bd e3 9b 16 be 04 50 58 be 88 c5 21 3e
       -0.1065008 -0.14707904 -0.21124274 0.15798008
000360 0a 8e b9 bd c8 01 53 3e 86 5f f5 3d 84 0d 9f bd
       -0.09060295 0.20606148 0.1198111 -0.0776625
000370 b6 44 52 be 07 d0 a0 3c 96 9e 93 3d fd 85 32 3e
       -0.20534024 0.019630445 0.07207982 0.17433925
000380 e7 6c 6b 3e da 5f f7 3c f4 43 8a 3d db b6 1a be
       0.22990762 0.030197073 0.06751242 -0.15108816
000390 c3 ac a1 bd 33 f2 0f 3e a7 28 3d 3e ab 57 24 3d
       -0.0789428 0.14057235 0.18472539 0.04012267
0003a0 4f 40 bb bd 86 0a 60 3d ab db cf 3b e5 d8 98 3d
       -0.09143125 0.054697536 0.006343325 0.07463244
0003b0 d6 2b 35 3d 88 b3 1c bd 5c f5 70 bd 2a fb e7 3d
       0.04423126 -0.03825715 -0.058827743 0.113272026
0003c0 a8 98 f4 bd ab 9a 49 3e 92 00 79 3e ef 75 bb bd
       -0.11943179 0.19687907 0.24316624 -0.091533534
0003d0 3d 0f 52 3e a0 63 a1 bb 24 c6 c6 bd c3 08 0a 3e
       0.20513625 -0.0049252063 -0.09705761 0.13479905
0003e0 45 39 c8 3d ea ff 2d 3e e5 48 ca bc 9f 15 cf 3d
       0.09776548 0.16992155 -0.024692962 0.10111546
0003f0 7e d5 2c bd 7d 24 83 3d ff 0d 54 3e 04 fe c1 bd
       -0.04219579 0.06403444 0.20708464 -0.09472278

_layers.2.weight f4 [128, 256]
000000 ed 82 36 bd 90 3c bb bc b5 cc b0 bc 1c b9 b1 bc
       -0.044558454 -0.022856027 -0.021581987 -0.021694712
000010 a1 b2 e6 3c 12 03 45 bd 8c 36 d2 3c 13 3b c3 bc
       0.028161349 -0.04809863 0.025660776 -0.02383188
000020 c7 9c e5 bb 2f 8c d6 bb e9 5a 56 bd 7e 24 b8 3c
       -0.0070072147 -0.006547473 -0.052332792 0.022478338
000030 12 ec 3c bd 79 1c 38 bd 98 65 93 3b d0 d2 57 bc
       -0.04612357 -0.04494903 0.004498195 -0.01317282
000040 11 e2 50 bd 80 e8 78 bb 5f 78 b1 bc 24 f5 4d bd
       -0.050996844 -0.0037980378 -0.021663843 -0.050282612
000050 96 9e 1e bd 7c 12 d4 3c 90 0e 13 bd 29 ac 3c 3d
       -0.038725458 0.02588772 -0.03590256 0.046062622
000060 1c f9 d8 bc ef 8f 2b 3d 58 10 58 3d f3 63 1c 3d
       -0.026485972 0.041885313 0.05274996 0.038181257
000070 79 3b 69 bd 44 f7 61 3d 60 23 b8 bc 29 ff 34 3d
       -0.056941483 0.05516745 -0.022477806 0.044188652
000080 ec 5b d2 bc d2 ca 7e 3d 58 28 ba bc 62 c0 cd 3c
       -0.025678597 0.062205143 -0.022724316 0.02511615
000090 4f 10 9e 3c b0 72 0a bc 01 e7 03 3d a0 a3 98 bb
       0.019294886 -0.008450195 0.032202724 -0.0046581775
0000a0 b0 a8 4d bd 9a 48 91 bc c4 27 76 bd b5 b4 5e bd
       -0.0502097 -0.017734814 -0.060096517 -0.054371554
0000b0 5c 13 8e 3c 90 24 72 bd 7d d2 15 bd 76 c4 69 3d
       0.017343216 -0.0591169 -0.03657769 0.057072125
0000c0 dc d1 47 bd a8 0e 95 3b e3 32 d4 bc 28 13 56 3b
       -0.048784122 0.0045488663 -0.02590317 0.0032665227
0000d0 a6 05 64 bd 08 b5 6f bd f4 5a 3a 3d 5e 75 8d 3b
       -0.05566945 -0.058522254 0.045496896 0.00431697
0000e0 11 6c 8c 3c 60 ad c9 3c 81 1b 6b 3c 64 08 06 3d
       0.017141374 0.024618804 0.014349819 0.032722846
0000f0 e4 a4 a0 bc 0d 53 66 bd 02 62 1b 3d 59 1e 38 bd
       -0.019609876 -0.056231547 0.037935264 -0.044950817
000100 32 ae 37 3a 06 76 53 bd ef 1a 35 3d 28 68 ee 3c
       0.0007006853 -0.051626228 0.04421514 0.0291024
000110 1a c2 61 3d 1e 88 43 bd 30 af 25 bd d5 ae 55 bd
       0.05511675 -0.047737233 -0.040450275 -0.052168686
000120 1c 50 38 3d f6 b7 75 bd e8 cf f2 3c 52 9e 33 bd
       0.044998273 -0.059989892 0.029640153 -0.043852158
000130 5c ed cb bc 60 8b b1 3c d4 66 10 3d 4c 00 2b 3d
       -0.024893455 0.021672904 0.035254315 0.04174833
000140 01 90 2a bd 48 08 3f bc 5e 19 2d bd 4e a5 7d bd
       -0.04164124 -0.011659689 -0.04226052 -0.061925225
000150 ac 0c 46 bd 38 9c 14 bd 2c 3e d0 3c 97 45 16 bd
       -0.04835193 -0.036281794 0.02542027 -0.03668746
000160 9d d7 93 bc 28 5c 53 3d 07 e6 12 ba 67 cf eb 3c
       -0.018047148 0.05160156 -0.0005603735 0.02878542
000170 6e 34 99 3c ca e6 6e 3d b3 04 57 3d d9 82 34 bc
       0.018701758 0.058325566 0.052494716 -0.011017525
000180 23 1f f6 3c 18 a5 68 bb 5b 81 16 3d fe e0 47 bd
       0.030044144 -0.0035498794 0.036744457 -0.048798554
000190 3d e0 15 3c 31 f6 59 3d 00 86 9c bc a5 9e 23 3c
       0.009147701 0.053213302 -0.019106865 0.009986554
0001a0 b6 f0 d1 3b a9 3b 57 3d a1 56 db 3c 7b 3d 4c 3d
       0.006406869 0.05254713 0.026774706 0.04986332
0001b0 30 c4 f1 3c 52 04 99 3b 90 ef fb bc 32 97 4f 3d
       0.029512495 0.0046697045 -0.03075388 0.0506813
0001c0 2e 1e 73 3d 5d 1a 54 bd 76 4b 05 bd 64 70 c0 bc
       0.059354953 -0.051782954 -0.03254267 -0.023491092
0001d0 e4 e9 69 bd aa f6 40 bc 64 26 e9 bc 8b c8 68 bb
       -0.05710782 -0.011777559 -0.028460689 -0.0035519924
0001e0 a3 68 de bc e7 f8 d0 bc c0 6a 68 3d 1c 3b 72 3d
       -0.027149504 -0.02550931 0.05674243 0.059138402
0001f0 d4 55 60 bb 24 b7 6c bc 8e 0b 26 bd a0 83 e1 bc
       -0.0034230845 -0.014447961 -0.040538363 -0.027528584
000200 63 6e 78 3d 40 41 b5 ba 17 6d 0e 3d 98 3e 24 3c
       0.060652148 -0.001382865 0.034772005 0.010024689
000210 b0 56 2d 3d c6 25 70 bd 33 b3 4d bd a9 86 ec 3c
       0.042319 -0.058629774 -0.050219726 0.028872805
000220 84 80 04 bc a4 4c 0f 3d 75 42 2c bd 91 3f 09 3d
       -0.008087281 0.0349852 -0.042055566 0.033507887
000230 be a6 05 bc db 87 1d 3d 11 24 9c 3b be 74 fd bb
       -0.00815743 0.03845964 0.0047650416 -0.007734864
000240 be 3c 46 bd 38 f0 5e bd d5 e3 67 bd a8 b0 9c bc
       -0.048397772 -0.05442831 -0.056613762 -0.019127205
000250 e0 07 c9 3b 22 ab 6e 3d cc 1e 38 3c 61 db 6f 3d
       0.006134972 0.058268674 0.011237811 0.058558825
000260 ff 56 40 bc e1 8f 0f 3d 20 a0 1e 3c e3 93 52 3a
       -0.0117394915 0.035049323 0.009681731 0.0008032901
000270 cb 07 e6 bc ea e1 8b 3c 94 49 23 3d 66 12 ca bc
       -0.028079888 0.017075498 0.03986509 -0.024666976
000280 fb dc 0b 3d e6 ac 34 3d 44 0b 1d 3d 40 37 90 3b
       0.03414629 0.0441102 0.03834082 0.0044011176
000290 26 18 49 bd ac b7 9e 3c fe f8 2e bd 5f d7 0e 3c
       -0.049095295 0.019374691 -0.042717926 0.008718341
0002a0 b7 bb 60 3d 45 a2 71 3d 14 70 e7 3c 75 5e 59 bd
       0.05486652 0.058992643 0.028251685 -0.053068597
0002b0 aa 0c 7c bc f5 7c 5a bc 76 89 75 3d 78 71 50 3c
       -0.015383879 -0.013335456 0.059945546 0.012722366
0002c0 53 7d 1f 3c d2 bd 3d ba e8 81 6a 3d c2 7d bd ba
       0.0097344695 -0.0007238063 0.057252795 -0.0014457034
0002d0 bc fb 83 bc 38 6b 19 3d 46 a7 b7 3c 5c 8d 63 bd
       -0.016111247 0.037455767 0.02241863 -0.055554733
0002e0 a2 dd 49 3d 4c 2d d2 3c 31 dd f8 bc 77 08 42 bd
       0.04928363 0.025656365 -0.03037891 -0.047371354
0002f0 a2 ac 83 bc 77 2e 28 bd fa 2e 3d 3d c1 32 a2 3c
       -0.016073529 -0.041059937 0.04618738 0.019799592
000300 e2 6b 81 bc ba 7e 17 3c 61 46 8e bc a5 01 12 bd
       -0.015798513 0.009246523 -0.017367544 -0.0356461
000310 ad 3e 5c 3d 0b ca 0a 3d 76 72 b5 ba 23 74 13 3d
       0.05377071 0.03388409 -0.0013843316 0.03599943
000320 e8 76 63 3d 8e 5c 04 3d 30 37 5f 3d 8e 9e 63 3d
       0.05553332 0.03231483 0.05449599 0.05557113
000330 3e 08 d5 bc 86 73 80 bd 93 23 95 3c 8c 52 8b 3c
       -0.026004907 -0.06272034 0.01820544 0.017007135
000340 7e f1 2d bd fb 97 60 3c 8a 3e c5 3c 0d 0a 59 bd
       -0.042466633 0.01370811 0.024077673 -0.0529881
000350 f8 ee ee bc 00 fb 27 3d 13 a9 84 3c 33 5b 83 bc
       -0.029166684 0.041010857 0.016193902 -0.016034698
000360 8a 05 65 bd 03 f3 4f 3d da 80 48 bc 68 88 43 bd
       -0.055913486 0.050768863 -0.012237752 -0.04773751
000370 94 aa c1 bc a1 5e 56 bd f1 2b ea 3c fa 55 10 3d
       -0.023640908 -0.05233634 0.028585406 0.035238244
000380 cf 80 3d bd fc 5a 53 3c a2 d4 94 bc 5c b3 32 bd
       -0.04626542 0.01290011 -0.018167797 -0.04362808
000390 f5 68 cf bc b0 32 9c bc 19 d0 66 bd c6 37 31 3d
       -0.025318602 -0.019067138 -0.0563508 0.04326608
0003a0 bc c5 40 3d b0 39 45 bd 52 b5 4f bd 74 90 6c 3c
       0.047063574 -0.04815072 -0.05071003 0.014438737
0003b0 20 17 f9 3b 82 e5 59 bd ba 79 02 bd f2 73 94 bc
       0.0076016337 -0.05319739 -0.03185437 -0.018121693
0003c0 7c 58 76 bd 94 de 5a bd e0 8e 37 bc 09 9b c6 3c
       -0.06014298 -0.053434923 -0.011203498 0.024243848
0003d0 ea 94 1b 3d 72 1c 04 3d 6d bf 6a 3d d0 c9 0f bd
       0.037983812 0.03225369 0.057311464 -0.035104573
0003e0 ab d5 fe 3c c1 73 2f bd 5e 12 47 3d 43 42 98 bc
       0.031107744 -0.042835 0.0486015 -0.018586284
0003f0 86 36 7c bd 90 d4 5f 3d fb 5c 27 3d 86 da 00 3d
       -0.061575435 0.054646075 0.040860157 0.0314584

_layers.2.bias f4 [128]
000000 e2 be c8 bb e8 2e 24 bd 38 2f db bc fc 5e 78 bd
       -0.0061262706 -0.040083796 -0.026755914 -0.06063746
000010 ec 8b c8 bc af 00 59 3c 69 fa e4 3c 84 40 89 3d
       -0.024480782 0.013244792 0.027951436 0.067017585
000020 14 25 1f 3d 28 62 8a 3d 4d bf 5f 3d 30 43 1a bd
       0.03885372 0.06757003 0.054625798 -0.03766173
000030 9a f0 65 3b 28 d2 65 3c d0 aa a6 3c 8f 8d 9c 3c
       0.0035086037 0.014027156 0.020345122 0.01911047
000040 55 79 93 3d f5 c1 db bc c0 a5 e1 3c cd 7a 8d 3d
       0.072008766 -0.026825884 0.027544856 0.06908188
000050 62 9e 7d bd f9 7e 06 3d 66 e1 0d bd 72 b5 9b bc
       -0.061918624 0.032835934 -0.034638785 -0.019007418
000060 66 0e 3f bd 6d 49 d1 3c 9e 9f 32 bd 8c 4f d6 bc
       -0.04664459 0.025547707 -0.043609254 -0.026160978
000070 94 85 9d bc 13 6c 9b 3d 8d 7e 64 3d e2 a0 42 bd
       -0.019228734 0.07588973 0.05578475 -0.04751671
000080 ce 1c 22 3c 6c 0a 73 3d 59 c4 23 3c f3 da 17 bd
       0.009894563 0.05933611 0.009995543 -0.03707404
000090 ab 6d c0 3d 2c b5 5a bd 1c b7 33 3d 7f bd 5c bd
       0.093959175 -0.053395435 0.0438758 -0.053891655
0000a0 80 38 6e bd 56 00 04 3d 1e 4e bf 3c bd a9 6a 3d
       -0.05815935 0.032226883 0.023352679 0.05729078
0000b0 62 58 26 bd 68 9a 4b bc 28 2d 45 3d b2 5e 11 3d
       -0.040611632 -0.01242695 0.048138767 0.0354907
0000c0 c4 16 95 3d 21 ed 36 3d a7 86 27 3d 50 39 2a bd
       0.07279733 0.044659737 0.0408999 -0.041558564
0000d0 e2 c7 0b bd 26 38 a9 3d 6c b8 a7 bc 40 8c dc 3b
       -0.03412617 0.082626626 -0.020473681 0.0067305863
0000e0 62 6b 11 bd ea 5b 8d 3d ea 90 9c 3d 50 35 71 bd
       -0.0355028 0.06902297 0.07644828 -0.058888733
0000f0 91 6a 86 3d 29 39 ec 3d 11 a8 c4 3c dc 92 57 bd
       0.06563295 0.1153434 0.024005922 -0.05263029
000100 5d 70 05 bd 52 4e dc 3c c8 60 75 39 f5 f1 29 3d
       -0.03257786 0.026892815 0.00023401075 0.041490514
000110 84 37 83 bc 58 a0 ad 3d b5 d1 27 3d 54 b6 ff bc
       -0.016017683 0.08477849 0.040971477 -0.03121487
000120 b0 f5 1d bc d6 3d 53 bc ad 23 0f 3d d6 5f 10 3d
       -0.009641096 -0.012893161 0.034946132 0.035247646
000130 a9 0b 90 3c 1a 52 2c bd 8d 03 be bc 40 77 b4 3b
       0.017583685 -0.042070486 -0.023195053 0.00550738
000140 04 a2 51 3d 58 bd 09 bd d4 a3 81 3d 80 a7 3b 3d
       0.0511799 -0.033627838 0.06330076 0.045814037
000150 04 f3 4e 3d 71 02 c3 bc 8d b4 24 3d 08 96 08 3d
       0.050524727 -0.023804875 0.04021125 0.033346206
000160 7b 53 83 bd 61 89 8f 3d 1e 64 be 3c d3 45 1d 3c
       -0.06412407 0.07008625 0.023241099 0.009599167
000170 b9 a2 6c bd 14 9a 41 bd 4d 4b 44 3d ee 68 89 3c
       -0.057772372 -0.04726608 0.047923375 0.016773667
000180 a8 6c 54 bd c0 c3 77 bd b4 fe 9d bc 10 4a 54 3d
       -0.051861435 -0.060489416 -0.019286491 0.051828444
000190 ba e3 5e bd cb bc ee bc 11 17 98 3d 90 72 79 3d
       -0.054416396 -0.029142758 0.074262746 0.06090027
0001a0 4d 14 f0 bc d9 20 2e 3c dd ef 41 bd 7a c9 86 3d
       -0.029306555 0.010627949 -0.047347892 0.06581397
0001b0 08 8b 4b 3c bb 55 1b bb cc 0c 83 3d 50 da 2a bd
       0.012423284 -0.0023702222 0.06398925 -0.041712105
0001c0 88 65 90 3c c5 a7 9a 3c 3b 13 9b 3d 8c 72 74 3d
       0.017626539 0.018878827 0.07572027 0.059679553
0001d0 52 2c 9a 3d 83 bc a4 3d 7c 4e 8a 3d de 50 10 bd
       0.07527985 0.08043768 0.06753251 -0.03523337
0001e0 de 78 85 3c c7 14 e9 ba 79 8e 3c bd f5 10 a5 3c
       0.016292986 -0.0017782681 -0.04603431 0.020149687
0001f0 f8 d3 55 bd c4 d5 87 3d 93 37 18 bc d9 0a c5 3c
       -0.052204102 0.066325694 -0.009290594 0.024053024

_layers.4.weight f4 [32, 128]
000000 38 a9 6c bd f8 1f 68 3c c4 47 64 bd c7 af 21 bd
       -0.057778567 0.014167778 -0.055732504 -0.039474275
000010 72 0e 99 bd c1 a1 4c 3e f1 cd 6e 3e 64 96 11 3e
       -0.07473458 0.19983579 0.23320748 0.14217526
000020 26 42 0f bd 26 e6 37 be ba 42 d5 bd 50 26 78 be
       -0.034975193 -0.17958888 -0.10413118 -0.24233365
000030 e1 ed b0 3e 92 02 22 3d ae 78 67 be 79 65 71 bb
       0.34556487 0.039553232 -0.2260463 -0.0036834164
000040 be 31 79 bd 00 60 e6 3c 97 de a0 3d 87 5c a9 3d
       -0.060838453 0.028121948 0.07854956 0.08269601
000050 bd 41 72 be 33 d4 4e 3d 2a d5 37 bd 5c 8b e0 3d
       -0.2365789 0.050495338 -0.044881023 0.10964081
000060 64 9b 31 bd c3 76 62 3d 10 5c 17 3e ca c3 26 bd
       -0.043361083 0.05528904 0.14781213 -0.040714063
000070 be 3d 99 3d 50 7f 7b 3e 59 90 d9 bc 04 e6 49 bd
       0.074824795 0.24560285 -0.026558088 -0.049291626
000080 c7 07 87 3d fb f7 82 bc 86 5e 3b bd 4e 90 44 be
       0.0659328 -0.015987387 -0.04574444 -0.19195673
000090 cc 8e 46 bd 50 4a 1c 3c 0b 38 7d bd d1 d5 eb 3c
       -0.048476025 0.009539202 -0.061821025 0.028788479
0000a0 be 8c 7c 3c 26 10 0b 3f b5 30 a9 be 6d 15 10 be
       0.015414415 0.54321516 -0.33044973 -0.14070673
0000b0 69 4f 9c 3d f2 25 2a 3d 46 69 4b 3d aa 99 bb 3d
       0.07632334 0.041540094 0.049660943 0.091601685
0000c0 b4 7b 9d 3d c0 f9 70 3e ad e7 b6 be 82 fd be 3c
       0.0768961 0.23532772 -0.3572363 0.023314241
0000d0 b2 c2 32 3d f1 e3 4a 3d d7 6e b8 3c 3c ba 8b bc
       0.043642707 0.049533788 0.02251379 -0.017056577
0000e0 4b 5c 0b 3e 99 04 de 3d 0c ae 23 3e 21 a4 ad 3d
       0.13609426 0.10840721 0.15984362 0.08478571
0000f0 51 dd 14 3e 6e 33 d9 3d b7 36 c2 be f0 fa d1 bb
       0.1453755 0.106055126 -0.3793237 -0.006408088
000100 56 d7 6d bb df 15 44 3d 59 92 c1 3b 73 96 3c 3d
       -0.003629168 0.04787242 0.0059073386 0.046041917
000110 1d f5 a1 bc a7 fa 3b ba b1 fe 44 3e f0 26 79 be
       -0.0197702 -0.0007170834 0.19237782 -0.2433126
000120 fc 82 f1 3c 03 2c ed bd 77 50 f5 bd 76 67 52 bc
       0.029481404 -0.1158066 -0.11978238 -0.01284205
000130 94 03 1a bf 78 98 ea bc 4f 9d e4 bd cb a3 59 bd
       -0.6016171 -0.028637156 -0.11162817 -0.05313472
000140 0a 06 22 be f8 c4 97 3c 5e 9c 87 3c a8 b3 3f 3c
       -0.15822616 0.01852654 0.016554054 0.011700548
000150 29 4f cb ba 8a 2f 01 bd 7a 94 d0 3d 39 d1 9d bd
       -0.0015511262 -0.031539477 0.1018457 -0.07705922
000160 98 d6 f8 bc ff 0f a0 3d 66 40 29 bd bc c7 b4 be
       -0.030375764 0.07815551 -0.04132118 -0.35308635
000170 07 a1 4a 3d 65 5b ab bd b6 b0 5b 3e 71 b7 21 be
       0.049469974 -0.083670415 0.21454129 -0.15792634
000180 a0 5f bb bb 7e bc 08 3d 95 5d 03 bd 85 13 88 3d
       -0.0057181865 0.033382885 -0.03207167 0.06644348
000190 64 2f 0f 3d ce 16 9f be 1c a1 58 3d a5 da 8b bd
       0.034957305 -0.31072086 0.05288802 -0.068288125
0001a0 63 1c 9a bc 61 4f 0f be dd 01 05 be b7 e6 6b 3e
       -0.018812364 -0.13995124 -0.12988992 0.2303723
0001b0 74 e9 43 3e 18 33 fd be a6 19 5c 3e 6d 30 93 bd
       0.19132024 -0.49453044 0.21494159 -0.07186971
0001c0 99 7d 80 be ce 24 0a bd aa ff 8c bd 33 2a 8f bd
       -0.25095823 -0.033726506 -0.068847016 -0.06990471
0001d0 bb 50 1f 3e 1c 46 3a 3e 9c 81 8c 3e 60 b6 8e 3d
       0.1555814 0.18190807 0.27442634 0.06968379
0001e0 65 e1 98 be d4 9a 4a 3e 93 04 c6 bd e4 33 d8 3d
       -0.29859462 0.19785625 -0.09668841 0.10556772
0001f0 60 73 d4 3b 60 1f 7e 3d 99 33 5c bc 13 8e 66 3e
       0.0064834803 0.06204164 -0.013440036 0.22515135
000200 20 81 84 3b 42 62 15 bd 5b 64 87 3d 00 fb 9c bd
       0.004043713 -0.03647066 0.06610938 -0.07665062
000210 0d a8 90 3d 2c 1d a5 bd d5 f7 64 bd 57 6f 00 3c
       0.07063303 -0.08062205 -0.055900414 0.0078390455
000220 a0 00 c8 3c 24 c8 e7 3c 15 6d 38 3d 4a ee 9e bd
       0.02441436 0.028293677 0.045025904 -0.07760294
000230 0e c3 4f 3d a0 41 9d 3c 03 db da 3c 02 f7 70 3d
       0.050723128 0.019196332 0.026715761 0.058829315
000240 8c 15 96 3d 08 24 57 3b 18 75 af 3c c6 71 e0 bc
       0.073283285 0.0032827873 0.02141814 -0.027398001
000250 36 d2 a4 3d 33 85 a9 bd 98 93 83 bd 84 84 7d 3d
       0.08047907 -0.08277359 -0.06424636 0.061893955
000260 8a b4 07 bc b4 76 67 3d aa 50 71 bc 65 ca ab bd
       -0.00828279 0.05650969 -0.0147287045 -0.08388213
000270 e7 2d 4b bd ab 3d 07 bd 1f 33 c5 bb 26 7f 02 bd
       -0.049604323 -0.033017796 -0.006018057 -0.03185954
000280 a6 c0 ba bd 16 88 40 bc 81 27 5f bd 0b 01 01 3d
       -0.09118776 -0.011751195 -0.054481033 0.031495135
000290 4e b0 bf bc 04 12 c8 3c 27 dd 9b 3d 60 1f 3a 3b
       -0.023399498 0.024422653 0.07610541 0.0028400049
0002a0 00 1e 83 3a 72 e5 76 3d 6a c5 b0 bd 92 77 3f bd
       0.0010003448 0.06027741 -0.08631404 -0.04674489
0002b0 37 73 9a 3d bc b1 b4 bc 87 cc 77 3a 14 f8 d9 3c
       0.07541507 -0.022057407 0.0009452779 0.02660755
0002c0 10 e8 8c 3d f8 7c b4 bd 72 0e 53 bd c3 7b 8e 3d
       0.068802 -0.088128984 -0.051527448 0.069571994
0002d0 ca 80 25 bd 8a 04 13 bd 8c 1f 80 bc e7 fa 88 3d
       -0.040406026 -0.035893 -0.015640043 0.06688481
0002e0 04 99 85 3c c4 66 17 ba c0 67 19 bd b0 91 75 bc
       0.016308315 -0.0005775506 -0.03745246 -0.014988348
0002f0 c8 89 6f bc 9f 53 90 3c 51 db 49 3d 60 e1 56 3c
       -0.014620252 0.017617999 0.049281422 0.013115257
000300 12 45 db 3c 7f 25 6e 3d cc 96 27 bd a0 4f b3 bc
       0.026766334 0.058141228 -0.040915295 -0.021888554
000310 00 e8 8e 3b 66 0c b7 bd c9 ec 50 bd 9b 13 98 3d
       0.0043611526 -0.08937912 -0.051007066 0.074256144
000320 16 de 39 3d 60 a5 8b 3c c2 ab 5e 3d 33 ed 18 bd
       0.045377813 0.01704663 0.05436302 -0.037335586
000330 20 88 9a bd 48 7e 8f bd 94 71 b7 bd d5 9e a1 3d
       -0.07545495 -0.07006508 -0.0895721 0.07891623
000340 3b d9 0e bd 9a b5 ad bd 67 80 44 3d 69 81 4e 3c
       -0.034875136 -0.084819034 0.047974017 0.012604096
000350 90 9e 33 3d 3b 51 ac bd 1e e6 62 3d 88 59 e5 bc
       0.04385239 -0.08413931 0.055395238 -0.027996793
000360 68 cc 67 bc 7e 42 b2 bd 18 4b de bc e4 b4 9a bd
       -0.014147855 -0.08704089 -0.027135417 -0.075540334
000370 10 a2 a3 bb 19 fd 14 3d 3e 0d 8d 3b 0b e9 12 3d
       -0.0049936846 0.036374185 0.004304557 0.03586678
000380 0e cb 57 3d 6a a1 14 bd a8 19 f4 bc 40 43 33 3b
       0.052683882 -0.03628675 -0.02979739 0.0027353317
000390 ba 4a 33 3d a4 23 1e 3d ae e6 cc bd a3 3d 85 3c
       0.043772437 0.03860821 -0.10004936 0.016264742
0003a0 c0 f8 80 bd 85 9c f6 bb 98 d2 79 bd c7 d5 5b 3c
       -0.06297445 -0.007525983 -0.060991853 0.013417668
0003b0 8f a0 a0 bc 2f e0 52 3d 29 68 25 3d c0 b7 05 3c
       -0.01960781 0.05148333 0.040382538 0.008161485
0003c0 2a 87 38 bd 4f 18 e1 3c 2c 23 aa 3c 00 3d cd b9
       -0.045050777 0.027477412 0.020768724 -0.00039146096
0003d0 57 66 55 3d 30 a9 59 39 2d bd 3c bd 49 fe 65 bd
       0.052099552 0.0002075776 -0.04607885 -0.05615071
0003e0 9b f5 c5 bc 76 84 86 3c 2f 89 5a 3d e6 ca 46 3d
       -0.024164965 0.016420584 0.053353485 0.048533343
0003f0 7e 90 26 3d 0f 5d 9b 3d 0c 4e a0 bd 94 3d 79 bd
       0.040665142 0.07586109 -0.07827386 -0.06084974

_layers.4.bias f4 [32]
000000 b4 25 8f 3d 61 46 83 bd a4 8a 5f 3c cc 9b 55 3d
       0.06989613 -0.06409908 0.013643894 0.052150533
000010 b7 a9 c3 bb 52 8d 0a 3e 7a 0b 95 3d 6d 5f a6 bd
       -0.0059711593 0.13530472 0.072775796 -0.0812367
000020 d4 c9 62 3d 24 9b a8 3d 41 d2 b4 3d c9 c0 b4 3d
       0.05536826 0.08232716 0.08829165 0.08825833
000030 68 ac 19 bc cc 3a c5 bc bb 2a 0f bd 00 98 92 bb
       -0.009379484 -0.024075888 -0.03495286 -0.004473686
000040 8c 2e ec 3b cd 73 41 bd 7f d7 a0 3d 05 59 18 3c
       0.0072076973 -0.047229577 0.078536026 0.009298568
000050 7a 82 95 bb 95 da 95 3d 2a 86 2b 3d 10 70 75 bd
       -0.004562673 0.07317082 0.041875996 -0.059921324
000060 10 47 46 3c 9d 86 8e 3d 61 bb bb 3d 00 80 fa bc
       0.012101904 0.06959269 0.09166599 -0.030578613
000070 0e 08 af bc 7e 1d 52 3c aa ee ab 3d d6 4c 91 3d
       -0.021366145 0.012824414 0.08395131 0.070947334

_layers.6.weight f4 [6, 32]
000000 54 5d 93 3e a9 ae 3e bd f2 ca 8b 3e 5a e3 05 3e
       0.2878214 -0.046553288 0.27303272 0.13075009
000010 6c ce 0d 3e 2c 0b d6 bd d0 6b 41 3e 13 c4 04 3e
       0.13848275 -0.104513496 0.18888783 0.12965421
000020 6e 61 3d 3e d0 d8 8e be 09 be d4 be bd 31 b3 be
       0.18494198 -0.2789979 -0.41551235 -0.34998885
000030 f6 3c b9 3d c0 4f b9 3e 6c 08 21 3f 29 58 d3 bb
       0.090448305 0.36193657 0.62903476 -0.0064497185
000040 12 c2 a2 3b 14 59 f6 bd a4 be dc be fe 52 27 bf
       0.0049669826 -0.12028709 -0.43114197 -0.6536101
000050 92 fe d1 3d 4e dc 46 be fa 1e f6 bd f5 7f a6 bd
       0.102536336 -0.19419977 -0.12017627 -0.081298746
000060 dc a8 44 3e 60 b2 20 be b5 88 6f 3e f0 2c 18 bd
       0.1920504 -0.15693045 0.23391993 -0.03715223
000070 44 2e b5 be fc 85 31 3e 62 72 6b bd 33 8e a9 be
       -0.3538686 0.17336267 -0.05748213 -0.33116302
000080 7c 6a 16 bf e6 be 97 bd ad 3c c1 be fb 19 17 bf
       -0.5875623 -0.07409458 -0.37741604 -0.5902402
000090 fd a7 0b 3e 34 b4 d7 bd 4a e2 06 bc bc 76 04 be
       0.13638301 -0.10532418 -0.008232662 -0.12935919
0000a0 04 21 ec 3d 02 1a 59 bd 76 da 47 be 62 e9 3e 3e
       0.11529735 -0.05300332 -0.1951693 0.18643716
0000b0 2b 42 ee bd db 67 0d bd 5e a0 ed be e0 81 e5 bd
       -0.11633714 -0.034522872 -0.46411413 -0.11206412
0000c0 fa 13 fc 3d 4b 98 c9 bd 21 16 c3 3e ba f5 92 be
       0.12308498 -0.09843501 0.3810282 -0.287031
0000d0 db 38 0c 3e b3 bb 9c be f2 5c 2a 3e d6 2f 2d bd
       0.13693564 -0.30611953 0.16637018 -0.042281948
0000e0 aa d6 a0 3e ce aa 70 3d 15 74 8f 3e 1e cc 17 be
       0.31413776 0.058756642 0.2801825 -0.14823958
0000f0 6d d7 2f bd 73 3d 04 3d f3 71 68 bd 22 9a bd bd
       -0.042930055 0.032285165 -0.056749295 -0.09257914
000100 b5 c8 ad be d6 9a 85 bd f1 08 34 3e 44 68 9a 3c
       -0.3394219 -0.06523673 0.17581536 0.018848546
000110 48 53 82 bc 88 61 00 bf 21 14 c6 3e 00 0a 8f bb
       -0.015908852 -0.5014882 0.38687232 -0.0043652058
000120 2d dc 87 3e b2 bf 9f 3e 5d 81 0b 3e 33 6f a3 bd
       0.26535168 0.3120094 0.13623567 -0.07980194
000130 1d ec c9 bd 90 88 27 bf 1b 75 23 bd b2 ba 1f be
       -0.09859488 -0.6544275 -0.039906602 -0.15598562
000140 95 b6 bb 3d 2d f2 3f 3e d0 7e f0 3d 75 8f d0 3e
       0.09165684 0.18744726 0.117429376 0.4073445
000150 99 d4 03 3b bc ef ba 3e e7 ae 5b 3d 68 8d a8 3d
       0.0020115732 0.36511028 0.053633597 0.08230096
000160 6e eb b1 be 1b d1 1d bd 8c 59 ce 3d 4d a1 16 3e
       -0.3474993 -0.038529497 0.100756735 0.14709969
000170 5d f8 a8 be 6e 18 46 be 3e 48 75 3e d6 94 54 3d
       -0.33001986 -0.19345257 0.2395334 0.051899754
000180 0b 30 de 3d c8 6f 1b bc 01 95 90 3e ad 11 b3 3e
       0.10849007 -0.0094871 0.2823868 0.34974423
000190 4d d6 49 3e 08 ed 98 3e 94 76 fd 3c 46 c7 ff 3d
       0.19710656 0.2986834 0.030940332 0.1248918
0001a0 78 80 ed be a9 ab 46 3e 07 88 0b 3d 50 9e 5e be
       -0.46387076 0.1940142 0.034065273 -0.21740079
0001b0 c0 80 76 3c c8 87 0b be 3d 6e 1d bf 6c bf ff 3d
       0.015045345 -0.13626015 -0.61496335 0.12487683
0001c0 e3 72 94 3e 49 54 03 be e1 53 0a bf 44 e8 84 be
       0.28993902 -0.12825121 -0.5403424 -0.25958455
0001d0 9b b9 12 3c 91 36 f0 be 77 24 30 3d 92 28 93 3d
       0.008955385 -0.4691663 0.043003526 0.071854725
0001e0 13 95 e2 3c fe 66 0e 3e b4 75 85 be 3f 7b 8d bd
       0.027658975 0.13906476 -0.26066363 -0.06908273
0001f0 40 45 23 be 02 8b c8 be 18 d1 e2 be d1 1c 18 3e
       -0.15944386 -0.39168555 -0.4430015 0.14854743
000200 d9 55 0f bd 5d ad e1 3d fe 0e 4c be 76 e1 73 be
       -0.03499398 0.110193945 -0.19927594 -0.23816475
000210 c0 2c d7 bd ff 61 63 3e 70 22 3a be 1b 71 2b 3e
       -0.10506582 0.22205351 -0.181772 0.16742365
000220 7b 1f 88 be 16 72 c0 bd da d6 a8 bd 9f 23 51 be
       -0.26586518 -0.0939676 -0.08244105 -0.20423745
000230 3f ae 09 3e 0e e0 c7 b8 97 c1 a2 3d 9c f6 22 be
       0.13445376 -9.530793e-05 0.079470806 -0.15914387
000240 f9 ae f3 3d 16 c4 f3 bc dc 00 d2 bd 1d e9 0f bf
       0.11898608 -0.029756587 -0.1025407 -0.5621508
000250 da 00 e9 3c 33 83 99 be d2 6e cf bc 7f 80 18 bc
       0.028442789 -0.2998291 -0.025321398 -0.00930798
000260 05 c5 29 3e 65 eb 0a 3e 65 d7 f9 bb 00 fa a2 bb
       0.16579063 0.13566358 -0.007624554 -0.00497365
000270 68 7a e0 bd d6 ad a6 3d c8 50 c6 be 3a d8 14 be
       -0.10960847 0.08138625 -0.38733506 -0.14535609
000280 96 60 f4 bc 20 23 02 3e 6a b5 ba be 4f eb 2c 3d
       -0.029831212 0.12708712 -0.36466533 0.042216595
000290 6c 14 dc be 5c 4a 4e 3e 66 de 19 bf ce ab fa 3d
       -0.4298433 0.20145553 -0.6010498 0.122398004
0002a0 2f 16 a9 bd ba 7e ca 3d b2 6f 90 3e 84 aa 86 3e
       -0.08256184 0.098874524 0.28210217 0.26301968
0002b0 60 fd f8 bc 59 ca a4 bd 81 c4 a1 3e 5f 4d 7e bd
       -0.030394256 -0.08046407 0.31595233 -0.062085506
0002c0 f6 9d d5 be 33 de 44 be b6 99 7f 3e d6 3d d3 bd
       -0.41722077 -0.19225387 0.2496098 -0.10314529
0002d0 b7 ea bc bc c6 98 0c 3e bc 53 df 3d f2 b4 d6 bd
       -0.02306114 0.13730153 0.10904643 -0.10483731
0002e0 3f 8c a8 3b 6e 30 02 be 8b 26 86 be 86 c1 f2 3d
       0.0051436718 -0.12713787 -0.2620128 0.11853318
0002f0 81 f1 f1 3e af f8 ea 3e c2 04 0a bd da 50 9f 3d
       0.47254565 0.45892856 -0.033695944 0.07779093

_layers.6.bias f4 [6]
000000 be 25 1e 3e 91 b0 f6 bc 19 c9 53 3d ac a8 4b 3e
       0.15444085 -0.03011349 0.051705454 0.19888562
000010 80 58 83 3d 81 48 29 3e
       0.064133644 0.16531564
