models/gg-2023-11-09_17-32.pt (torch, 43408 bytes, 8 tensors)

_layers.0.weight f4 [64, 19]
000000 aa df a0 3e c7 af 1b 3f 7d 26 41 be 3f 87 af be
       0.31420642 0.6081509 -0.18862338 -0.34282872
000010 d3 6e 01 bf 99 34 b1 3e 24 fa b1 be b9 c8 92 be
       -0.5055973 0.3461044 -0.34761155 -0.28668764
000020 65 1f 8f 3e 1d 7e 58 bd cc b3 25 bf d6 11 e1 3d
       0.2795364 -0.052854646 -0.64727473 0.1098973
000030 56 6a a4 be b4 94 88 3f f2 97 4a be 1c 9b da bd
       -0.32112378 1.067038 -0.19784525 -0.10674116
000040 ac 0c ce be 01 79 2a bd 62 3b ae 3e 5a 56 f6 3d
       -0.40244043 -0.041619305 0.3402968 0.12028189
000050 91 e1 99 be 01 fd 22 3e 38 d6 d5 3c 93 77 77 3e
       -0.30054906 0.15916826 0.026103124 0.24166708
000060 b7 2e cc 3d 29 f1 7d be 7f 44 88 3f cb 81 9c 3d
       0.09969848 -0.24799027 1.0645903 0.076419435
000070 69 3d 99 be 5a b9 20 bf b4 8c 07 3e fe 0d b8 3e
       -0.29929665 -0.62782824 0.13237268 0.35948175
000080 3b 5b 52 bf ad 87 fd 3e 56 a4 95 bc 1b 99 13 3e
       -0.82170457 0.49517575 -0.018266838 0.14413874
000090 85 be d5 3c e9 1f f1 be 3b e5 18 3d e3 53 44 be
       0.026091823 -0.47094658 0.037327986 -0.19172625
0000a0 b9 9b c5 bd 51 ae c1 3d bd 54 ea 3d b2 5f ba bc
       -0.09648842 0.09457076 0.11441944 -0.02275071
0000b0 35 5a 04 bd 88 6d 87 bc 86 47 b7 bd aa 10 5a bd
       -0.03231259 -0.01653172 -0.08949189 -0.05323855
0000c0 49 f0 57 3e 85 b0 e4 3d 1f 91 9f bd 85 e2 5b bd
       0.21087755 0.11166481 -0.077913515 -0.053682823
0000d0 a8 5d 21 3e 4e 7e 87 3d f4 d8 39 3e 2f 80 ff bc
       0.15758383 0.066158876 0.18149167 -0.031189052
0000e0 1d b7 28 be 32 ef 96 be ef 9c 2c bf c1 94 cb be
       -0.16476102 -0.29479367 -0.6742696 -0.39761928
0000f0 e8 70 83 be 13 0f c6 be b9 eb 02 bf 67 92 aa 3e
       -0.25672078 -0.38683376 -0.51140934 0.3331482
000100 7d 49 5c 3f a9 8f 04 3e d5 66 43 3d 7a 24 fd be
       0.86049634 0.12945427 0.04770549 -0.49441892
000110 0a 06 97 bd 1a c4 e5 bd 72 3d 75 3e b2 03 b3 be
       -0.07374199 -0.11219044 0.23949221 -0.34963757
000120 4f ac fb 3e 9e c4 5c 3e 25 19 5f bd bc ec 02 3f
       0.491549 0.21559379 -0.05446734 0.5114248
000130 80 7e 1c bc b6 ef fb 3d 00 2d 36 3c b6 72 99 bd
       -0.009551644 0.123015806 0.011119127 -0.074925825
000140 25 02 36 3e 72 d2 4a be 2c 8a bb bd 10 d4 dd bd
       0.17774256 -0.19806841 -0.091572136 -0.10831463
000150 84 a7 3b bd b2 c9 1a be 8a 31 0f be e0 8b d9 bc
       -0.045814052 -0.15116003 -0.13983741 -0.026555955
000160 02 63 e7 3d a9 6f 48 3e cc 92 c8 bd 4b dd 3c be
       0.11298181 0.19573845 -0.09793624 -0.18443792
000170 0f 67 4e be e8 c5 94 bd e9 a2 33 3e 04 2b 8e bd
       -0.20156501 -0.0726431 0.17542614 -0.06941798
000180 f5 6b 26 3e c4 e2 c2 bd 40 65 7a bd 52 ca 42 be
       0.1625212 -0.09515908 -0.061131716 -0.19022492
000190 00 33 62 bd 94 c9 00 be ec da 58 3d d2 1c a1 bd
       -0.05522442 -0.12576896 0.052943155 -0.07866825
0001a0 49 9c 21 3e 30 8a 64 3c 1d 2e 0a be 64 3b 36 3d
       0.15782274 0.013948962 -0.13494153 0.044490233
0001b0 a3 a1 0c 3e 90 ed 2c be f8 43 c4 bd 53 76 23 3e
       0.13733535 -0.16887498 -0.095832765 0.15963106
0001c0 64 58 44 be 7c 90 62 be d4 9f d4 3c ab 31 f4 3d
       -0.19174343 -0.22125429 0.025955118 0.11923536
0001d0 43 66 0f be 9b 8d f0 3e 06 c7 9e be 19 32 da 3d
       -0.14003853 0.46983036 -0.31011218 0.106540866
0001e0 ac 30 0f bf dc bf 40 bf 58 1b 86 3e d0 45 bb bd
       -0.5593364 -0.75292754 0.26192737 -0.09144175
0001f0 f2 33 78 bf 82 81 12 be 1c 73 69 be f4 1e 86 3f
       -0.9695426 -0.14307216 -0.22797817 1.0478196
000200 78 e4 f8 bd 85 59 6b 3e 56 52 79 3e aa d8 93 bd
       -0.12152952 0.22983368 0.24347815 -0.0721906
000210 fc b2 38 3e 7b c5 a9 be bc ef 02 be fa 92 e3 be
       0.18037027 -0.33158478 -0.12786764 -0.44448072
000220 d3 8a 43 3e e1 f6 c5 be 70 08 13 3e 00 18 9c 3e
       0.19095926 -0.38664916 0.14358687 0.3048706
000230 6b c2 2b be 4e e2 cf bd 7d 43 9b bd f5 38 56 bf
       -0.16773383 -0.10150586 -0.07581232 -0.8368066
000240 2d 09 3e 3d 95 dd bc 3e c6 3a 74 3b 8d 67 27 be
       0.04639547 0.36887804 0.0037266477 -0.16348095
000250 af e6 ca 3e 28 f9 49 3f b3 a3 0c be 65 7d a0 3e
       0.39629123 0.7889581 -0.13734321 0.31345668
000260 d0 c0 c5 bd 99 db 46 3e 2e f3 2b 3e 90 6b 81 be
       -0.09655917 0.19419707 0.16791984 -0.25277376
000270 7d 0d 5f 3e 14 13 78 be 90 b3 22 3e 4e 92 44 3e
       0.21782489 -0.24226028 0.1588881 0.19196436
000280 6e 8a 81 3e 64 04 9b bd ba 1f 7b bf ad 95 7f be
       0.25300926 -0.07569197 -0.98095286 -0.2495944
000290 13 85 9f 3e b0 22 cd 3e a2 11 bc bd fa 6c f8 3c
       0.31156215 0.40065527 -0.09183051 0.030325402
0002a0 30 e4 4b 3f 7b 4e 38 be 43 57 17 be be 20 88 3d
       0.7964506 -0.17998688 -0.14779381 0.0664687
0002b0 df 6a 40 be 23 39 a8 3e 18 64 b5 3d bf be 64 bf
       -0.18790768 0.32856092 0.08856982 -0.89353555
0002c0 c2 ee 2d 3e 12 e7 de be a9 f7 15 be a4 3e 4e be
       0.1698561 -0.43535668 -0.14645256 -0.20141083
0002d0 3d 5a b5 3e 57 74 c1 3e 2c dd fc b9 05 37 35 3f
       0.3542041 0.37784073 -0.0004822997 0.7078708
0002e0 0b 6f 3d 3e a3 d7 91 be 53 f0 6c be 8b 87 07 bf
       0.18499391 -0.2848483 -0.23138551 -0.529412
0002f0 9f 48 b3 3e e4 46 69 bf 42 53 de 3d 2c 5e c7 bd
       0.35016343 -0.91123796 0.10855724 -0.09734759
000300 36 a1 8a bd fa 0f 30 be c4 45 51 3d 1b ca e9 bd
       -0.0676903 -0.17193595 0.051091924 -0.11415502
000310 08 4f 17 be 9a 02 05 be a6 7a 9f 3d a9 90 01 be
       -0.14776242 -0.12989274 0.07787065 -0.1265284
000320 16 60 3e be 2c 96 75 bd 80 7f db 3b a9 97 57 3e
       -0.18591341 -0.05995767 0.006698549 0.21053948
000330 e4 60 0c be 68 98 e6 bc e0 25 74 bd cc 0e 0c 3d
       -0.13708836 -0.028148845 -0.059606433 0.0341938
000340 f2 a0 ee 3d d8 9b c5 bd 80 bd f0 3a 43 e8 46 3e
       0.11651792 -0.096488655 0.0018367022 0.19424538
000350 82 03 d3 3d 29 74 67 3e 8b 66 08 3e 90 80 d5 bc
       0.103034034 0.22602905 0.13320367 -0.02606228
000360 df ee 35 be d8 01 0d bd 4c da 1b be 9c 78 3d 3d
       -0.17766903 -0.034425586 -0.15219992 0.0462576
000370 a6 36 47 be f3 ff 27 3e e3 29 4a be e2 fb 46 be
       -0.1945444 0.1640623 -0.19742541 -0.19432023
000380 84 fc 61 bd c2 d1 88 3d 2c 80 00 bd 5a 94 5f be
       -0.05517246 0.06680633 -0.031372234 -0.21833935
000390 a5 1e cc bd 99 77 81 3f f7 93 b9 3e 04 d9 74 3d
       -0.099667825 1.0114623 0.362457 0.059777275
0003a0 46 28 87 bf 04 d6 84 ba af 35 b3 3d 35 b8 d2 be
       -1.0559165 -0.0010134582 0.08750474 -0.41156164
0003b0 08 33 14 be b9 a1 50 be b9 9a ca 3e 93 57 0c bd
       -0.14472592 -0.20374192 0.3957117 -0.034263205
0003c0 2a 44 7a be 7e 7a 36 3f 59 b9 3d be 91 a5 8b 3e
       -0.24440065 0.7128066 -0.18527736 0.27274755
0003d0 b5 4b 25 3f 56 6d 2c 3d ca 36 15 be 6a 5f 79 bc
       0.64568645 0.04209646 -0.14571682 -0.015220502
0003e0 d8 9b ed be d9 07 7e 3e ad 43 2a 3f d3 94 f5 3e
       -0.46407962 0.24807681 0.66509515 0.47965106
0003f0 75 05 2a 3e d1 f0 ff 3d 08 ff 1d 3f c0 88 db 3d
       0.16603644 0.12497104 0.6171727 0.10719442

_layers.0.bias f4 [64]
000000 bc ad 7d 3e 97 35 2f 3d 38 3b 4d be b4 dc df 3d
       0.24773306 0.042775717 -0.20042121 0.10930768
000010 9a 20 a1 bd ce 2f d2 3d 45 8d c1 3d 08 99 e1 bd
       -0.078675464 0.10263024 0.09450773 -0.110155165
000020 78 8e ee 3d 48 97 d8 3c 59 28 5d be fe 50 b9 bd
       0.116482675 0.026439324 -0.21597423 -0.09048651
000030 34 a6 5f be 8b 26 be be 33 ce 06 3e 50 5b 49 3d
       -0.21840745 -0.3713878 0.13164596 0.049159348
000040 bc b1 9e bc 09 55 9c 3c 39 f4 57 be e4 a1 17 bc
       -0.01937186 0.019083517 -0.21089257 -0.009254906
000050 4b 57 2d bd 2d 0c 87 bc 2e 1a c0 bd 0e b6 83 3d
       -0.042319577 -0.016485298 -0.093799934 0.064312086
000060 e1 8f b2 3d ab 67 8b bd 3c 53 05 3e 1f 64 24 3e
       0.08718849 -0.068068825 0.13020033 0.16053818
000070 c5 05 bc bd 77 e4 7c bd 98 ce 8c 3d e1 20 2c 3d
       -0.09180788 -0.06174132 0.06875342 0.042023543
000080 9a 1a 34 be e0 3b 6c be fa ae f8 bd c8 35 04 be
       -0.17588273 -0.23069715 -0.12142749 -0.12911141
000090 e4 57 48 bd a9 8d 32 3e 81 28 8d 3e a6 2c 39 3e
       -0.048911944 0.17436852 0.27569965 0.18083438
0000a0 2e ac f4 3d 22 88 1d be 9c 31 bb bd e7 3e b6 3d
       0.11946903 -0.15383962 -0.091403216 0.088987164
0000b0 c1 dc 07 be be d1 a6 bd 26 bc 06 3e 20 8e 4b bd
       -0.13267805 -0.08145474 0.1315771 -0.049696088
0000c0 8d 78 57 be ab 3c 1d be 91 c1 d6 bc 74 e4 e4 bc
       -0.2104208 -0.15355174 -0.026215347 -0.027940966
0000d0 b6 fe 3e 3e 6d 53 02 be 8a 8e d2 3d 10 a8 0d 3e
       0.18651852 -0.12727137 0.102810934 0.13833642
0000e0 bb 78 01 be 88 d7 8f be 3b 57 17 be df 65 17 3c
       -0.12643711 -0.28094125 -0.1477937 0.009240597
0000f0 e5 c3 9d 3e 47 c3 3a 3e 60 20 f1 3d 7d f5 0b 3e
       0.30813518 0.18238555 0.11773753 0.13667865

_layers.2.weight f4 [64, 64]
000000 83 20 40 bc a0 b9 a5 bd b4 f1 11 3d 3a d9 93 3d
       -0.011726501 -0.08092046 0.035630897 0.07219167
000010 72 8b 97 bd fc 36 4e 3d ff d3 e9 3c aa e9 a1 3d
       -0.07399644 0.050345406 0.02854347 0.07905896
000020 97 43 0c be 3b d6 fe bd 46 31 d8 3d e0 43 b0 3b
       -0.13697658 -0.12443205 0.10556273 0.005379185
000030 9f 98 b9 bd e3 bb c4 bc aa ef 1c 3c 42 8b 13 3d
       -0.09062313 -0.024015373 0.009578625 0.03602148
000040 2c bc cb bd bf a8 e7 bd 10 ed f7 bc d3 f6 85 bd
       -0.09948 -0.11311483 -0.030264407 -0.065412186
000050 04 09 96 bc f2 65 d5 3d 11 5d 40 bd 93 8d 76 bd
       -0.018314846 0.10419835 -0.046963755 -0.06019361
000060 81 7e a3 3c 63 08 92 bd a7 74 91 bd f2 c2 9e bc
       0.019957783 -0.07130506 -0.07102328 -0.019380067
000070 87 4a 82 bc 22 97 f2 bd cb 9e 71 bb 52 b3 e3 bd
       -0.015904678 -0.118452325 -0.003686833 -0.11118187
000080 03 60 14 3d b2 04 e9 3c 56 e9 ab bd e7 d1 4d bd
       0.036224376 0.028444622 -0.08394115 -0.050249007
000090 dc 36 03 3d d3 1e c8 bc 18 bd 96 bd 90 61 0a 3d
       0.03203474 -0.02442876 -0.073602855 0.03378445
0000a0 5c ed 29 3d 5e 31 92 3c 6e 46 01 be 21 78 a0 bd
       0.04148613 0.017845806 -0.12624523 -0.07835413
0000b0 9b 9f 6c bd 3b b5 3b bc a8 bf 2b 3d 18 fd 3b bd
       -0.0577694 -0.011456783 0.041930825 -0.045895666
0000c0 79 aa 6d 3c c8 a1 45 3d ae d6 f4 bd d7 f6 97 bd
       0.014505976 0.04824999 -0.119550094 -0.07420128
0000d0 05 a6 e8 bd f4 1c 09 3d 9f 3e 59 3d 1f c8 21 be
       -0.11359791 0.033474877 0.053038236 -0.15798996
0000e0 c6 0a 82 bd c6 92 db 3c 54 9c a5 bd 34 bd 3e bd
       -0.06349711 0.026803385 -0.08086458 -0.046567157
0000f0 83 a3 95 3d 67 e9 b1 bc 7e d8 a0 3d cc db 33 be
       0.07306578 -0.02171774 0.078537926 -0.17564315
000100 a0 a4 b6 3f c5 69 54 bf 80 cc 0a bd 07 73 08 3f
       1.426899 -0.8297389 -0.033886433 0.5330052
000110 c2 88 93 bd a2 0c e6 3d 43 f1 62 3f 61 92 86 3e
       -0.07203819 0.11232878 0.88649386 0.26283553
000120 7e 5a 2c 3e a9 eb 28 be c8 1b 93 3c 16 f4 ee bd
       0.16831395 -0.16496147 0.017957583 -0.116676494
000130 7a 51 28 3f 21 14 87 bf 5a f9 b2 bf 5d b1 b8 be
       0.65749323 -1.0553018 -1.3982346 -0.36072817
000140 ee fb 2d bf 52 62 e3 3e a7 f0 f5 bd 70 d2 0e 3e
       -0.6796254 0.4441095 -0.120087914 0.13947463
000150 62 a3 6e 3e f1 cd 31 3e ce 80 1c bf 2f 22 a6 3e
       0.23304513 0.17363717 -0.6113404 0.32447955
000160 50 66 1b 3f 62 36 8d bf 5b a9 98 be 0f 4b 3f 3f
       0.6070299 -1.1032221 -0.29816708 0.74723905
000170 63 92 e3 bd cc c1 93 bf fd 3d 17 3f e1 f3 14 bf
       -0.111119054 -1.1543517 0.5907896 -0.5818463
000180 89 92 42 bf 9a 1a 7a be 3f cc b2 bb 16 61 e7 bd
       -0.76004845 -0.2442421 -0.005456477 -0.112978145
000190 20 98 93 3d de e0 a9 3e 53 86 90 bd b5 3b ac bd
       0.0720675 0.33179373 -0.0705687 -0.08409826
0001a0 20 df ee bc e2 cb 65 be bc 24 5b 3e b9 79 3f bf
       -0.029159129 -0.22441056 0.21400732 -0.7479511
0001b0 aa e1 09 3e 17 2c 3b 3f c5 11 20 3f f8 79 50 bd
       0.1346499 0.7311415 0.62527114 -0.05089757
0001c0 cf 6a d0 be 04 99 85 3d 73 cf e3 3e 6f 51 35 bf
       -0.40706488 0.06523326 0.4449421 -0.7082738
0001d0 e6 f2 e5 3d 8e 0e c8 be 50 c4 23 3f 64 6c 4b bf
       0.1122797 -0.39073604 0.63971424 -0.79462266
0001e0 28 1f a7 bc 15 eb 0b bd 60 d9 4f bc ce da a8 3d
       -0.020400599 -0.03415974 -0.012686104 0.08244859
0001f0 4e f5 dc be ed 9f 65 3e 63 04 21 3f 39 53 26 3e
       -0.43155903 0.22424288 0.6289732 0.16242684
000200 82 fd f2 3c 89 40 6d be fb ca 56 bd 46 24 33 bf
       0.029661898 -0.2316915 -0.05243967 -0.69977224
000210 8c ac b6 3d b2 05 82 bd 4b 4c 8c 3f bb e0 cf 3e
       0.089196295 -0.063487425 1.0960783 0.40601143
000220 03 fa b9 3d 96 9b 8f bf d0 98 8b bc 4c 27 97 3d
       0.09080889 -1.1219356 -0.01704064 0.07380542
000230 f8 66 95 3e 44 99 b2 3e 00 bd c9 3d 82 02 75 3f
       0.2918012 0.34882557 0.09850502 0.9570695
000240 5b 4d 63 3e d8 d6 2b 40 33 c9 ac bd 32 51 6b 3e
       0.22197478 2.684988 -0.08436813 0.22980192
000250 bb 0a 14 3f 23 2f 75 bd 22 70 9c bd 05 0e e7 be
       0.57828873 -0.059859406 -0.07638575 -0.45127884
000260 1d ef ee bf d9 0d 67 be e1 de 82 be c9 b9 a0 bf
       -1.8666722 -0.22563876 -0.25560668 -1.2556697
000270 d8 03 d8 be ff 47 4e 3d 4b b3 f4 bd 8e 5b e1 3e
       -0.42190433 0.05036163 -0.1194826 0.44015163
000280 f5 2f 4e 3e 7b cf 12 3f 28 76 de bc 42 6f 19 3e
       0.20135482 0.5734784 -0.02715595 0.14983848
000290 74 5f 80 bd a5 8e 38 3e 8a 62 29 bf 1b 35 2c 3d
       -0.06268206 0.18023165 -0.66165984 0.042042833
0002a0 80 68 6b 3c f3 ca b0 3e ac 01 11 bf 15 c2 01 3f
       0.014368176 0.34529838 -0.56643176 0.5068677
0002b0 fc a1 3b bc 83 e8 2d 3e 1c 3c 79 3e ce 18 92 3d
       -0.011452194 0.16983227 0.24339336 0.07133637
0002c0 de e0 d7 be 00 66 97 bd 97 75 91 bf c7 f0 b7 bf
       -0.42163748 -0.07392502 -1.136401 -1.4370354
0002d0 b4 4a 89 be bb 01 47 bd a7 31 f5 3d 0a 9c 30 3e
       -0.26814806 -0.048585635 0.11972361 0.17247024
0002e0 e0 55 5a bd 0c ef aa 3c b6 84 e9 3c b3 d6 01 3d
       -0.053304553 0.02086594 0.028505664 0.031698894
0002f0 39 f4 7f 3e 1c 89 39 be e4 98 18 bf a9 1a 72 3e
       0.24995507 -0.1811871 -0.5960829 0.23642983
000300 7b 67 aa be 0e db 69 3d d6 49 a1 3d 77 69 aa 3f
       -0.33282074 0.057093672 0.07875411 1.3313435
000310 9e e7 af bd 58 a8 98 bc 07 3f d0 3c 06 47 15 3f
       -0.08589099 -0.01863496 0.025420679 0.583115
000320 fa 2f 6f 3e 2c 11 fd bf 60 a6 eb bb ac 86 ff bd
       0.23358145 -1.9770865 -0.0071914643 -0.124768585
000330 1a 7c 93 3e 73 d1 b2 bf 57 cc 6f bf b1 44 a1 bf
       0.2880562 -1.3970169 -0.9367117 -1.2599088
000340 f6 2e 07 3f 56 7e d8 be 3a 91 52 3d 5d 83 d4 be
       0.5280603 -0.42283887 0.05140803 -0.41506472
000350 9a b3 c7 3d 61 ff 0d bd dc 0f f3 bc 97 e8 1d bd
       0.09751053 -0.034667376 -0.029670648 -0.038551893
000360 0e f0 92 3e cb 7d 67 bc b1 61 b2 be f7 e6 ba bd
       0.28698772 -0.0141291125 -0.34840158 -0.09126084
000370 c1 25 09 3f 31 a0 57 3e f1 c0 25 3f 03 cf c0 3d
       0.5357323 0.21057202 0.6474753 0.09414484
000380 e6 84 15 bf be 24 9a 3e 64 aa d7 3c 55 19 bc 3d
       -0.5840591 0.30106157 0.026326366 0.09184519
000390 90 79 a9 bd 20 96 37 3f 32 59 23 be 24 c5 4d 3d
       -0.08275139 0.7171345 -0.15951994 0.050236836
0003a0 fc 1d b9 bd c8 ea 73 3d 74 7e 00 bf 71 2e 61 bf
       -0.09038922 0.059550077 -0.5019295 -0.8796149
0003b0 77 fb 3c be aa c8 d6 3e 13 ad 1a 3f b4 18 be 3d
       -0.18455301 0.4194997 0.6042034 0.092820555
0003c0 1b 35 00 bf 88 5a c9 3d 40 94 d5 3e 3b 6a 04 c0
       -0.5008103 0.098317206 0.41714668 -2.0689838
0003d0 e5 5f a3 3c e1 5a 68 be 4f 8a 23 be 23 d5 9f be
       0.019943187 -0.22690918 -0.1597073 -0.31217298
0003e0 fc 37 a5 3d 5c 4c 46 bf 0c 68 8f bd df 3d 27 bf
       0.08067319 -0.77460265 -0.07002267 -0.6532878
0003f0 1b 67 10 3f 09 08 95 be 5a 85 1f bf d8 ab 86 bd
       0.56407326 -0.29107693 -0.62312853 -0.06575745

_layers.2.bias f4 [64]
000000 39 8b b1 bd fa 79 e4 3d 08 3e 5d 3d 68 ff 46 bd
       -0.08669133 0.11156078 0.054014236 -0.048583418
000010 f7 54 e5 3d ad 1a 56 3e 6c 4e 08 3c 55 bc a2 3d
       0.111978464 0.20908614 0.0083194785 0.07946078
000020 b8 c5 33 3e 90 b4 ea bd ea cf 92 3e 00 f3 a9 bd
       0.17555892 -0.11460221 0.2867425 -0.08298302
000030 b5 65 40 3d b3 78 e4 3c 82 33 c7 3c ce 49 e4 3d
       0.046971995 0.027889585 0.024316553 0.111468896
000040 8f 76 0e 3e f4 73 18 3e 41 29 86 3e 92 e6 86 3d
       0.13912414 0.14887983 0.2620335 0.065869465
000050 17 7b f1 3d 26 a2 49 3e c2 93 0b 3e c8 d4 e6 3d
       0.11791056 0.19690761 0.13630584 0.112710536
000060 99 da 02 be 9c 40 2e bd 35 19 2e 3e 6d cf 04 be
       -0.12778701 -0.042542085 0.17001803 -0.12969752
000070 5b b5 bc bd dc e0 41 3e 19 75 ce bd 2e 73 18 3e
       -0.09214278 0.18933433 -0.10080928 0.14887688
000080 6a 37 e3 3d d0 ed b2 3d d8 67 49 3e 0d aa 6c 3e
       0.11094554 0.087367654 0.1966852 0.23111744
000090 87 42 75 3e 59 2c 14 3e cc d4 01 be 6e 85 14 be
       0.2395116 0.14470042 -0.12678832 -0.14504024
0000a0 bf 78 95 3e fe 0e 59 3d c2 29 06 3c 56 d3 af 3d
       0.29193684 0.052992813 0.008188667 0.08585231
0000b0 7f 05 dd 3d e8 c4 dd bd 08 f8 ea bd 95 f9 d4 bc
       0.10792064 -0.108285725 -0.114730895 -0.025997916
0000c0 67 88 a9 3d c8 11 4c bd 22 69 b1 bd 59 f6 25 3e
       0.0827797 -0.049821645 -0.086626306 0.16207255
0000d0 64 2b fe bd b8 cf b8 3d 99 ba b0 bd 22 cc 1e be
       -0.1241062 0.09023994 -0.08629341 -0.15507558
0000e0 49 c9 08 be 56 c7 d1 3c fd 83 9e 3d 13 36 55 3e
       -0.13358034 0.025607746 0.077400185 0.20821409
0000f0 58 16 28 3e 1f a8 1b 3e 4e c5 11 3d f0 e2 35 3e
       0.16414773 0.15200852 0.035588555 0.17762351

_layers.4.weight f4 [64, 64]
000000 f8 71 61 bc be b8 71 3f ee 30 ca 3f a4 d4 07 3f
       -0.013760082 0.9442252 1.5796182 0.5305884
000010 dc 2c 02 bf 1d ef 9b 3f 9d e8 a0 3f 38 be ea 3f
       -0.508497 1.2182347 1.2570988 1.83393
000020 de d1 1d be 58 df 8c bd 04 78 c5 3d 38 b5 32 bb
       -0.15412089 -0.06878537 0.09642032 -0.002726866
000030 02 21 8e 3b 28 6f 8c 3d 10 a4 82 be 1d 52 81 3e
       0.004337431 0.06857139 -0.25515795 0.2525796
000040 49 77 02 bf 3d 9c 40 3e 32 18 7f 3f 72 f6 fb be
       -0.50963265 0.188096 0.99646294 -0.4921146
000050 e3 95 96 be 54 81 08 3e a0 9e 55 be f0 d7 c0 bd
       -0.2941123 0.13330585 -0.20861292 -0.09416187
000060 c0 37 e0 3c 8b 88 68 bf 08 81 df 3d 43 f3 d6 3d
       0.027370334 -0.9083335 0.10913283 0.10495617
000070 2f c8 84 3e 60 46 83 be bc 2e c3 bd 9e 77 4c 3e
       0.25933978 -0.2563963 -0.09530398 0.19967505
000080 89 aa af 3d 8b b3 34 be 01 42 9c 3e 0c 62 32 3f
       0.08577449 -0.17646615 0.30519107 0.6968086
000090 fb d8 94 3f d7 83 88 bd ae 10 1c be 1b f0 d7 3c
       1.1628717 -0.066657715 -0.15240738 0.026359608
0000a0 eb be 39 3e 33 67 dc be b4 c3 86 3e 47 20 aa 3e
       0.18139236 -0.43047485 0.26321185 0.3322775
0000b0 58 10 6d bf f6 9a 8b bf 29 90 5e bd e5 6d 3a 3d
       -0.92603064 -1.0906665 -0.0543367 0.04551496
0000c0 bc 3d 5d be 8d 15 88 3c 66 ca b6 bd 70 84 b9 be
       -0.21605581 0.016611839 -0.08925323 -0.36233854
0000d0 26 5b cc bd 7d fe ed 3e 56 6c 2c 3f 8a 07 37 bd
       -0.09978323 0.46483222 0.6735281 -0.044684924
0000e0 49 58 62 3c 10 9c 9f bd 76 12 ad bd d9 4c 4b 3f
       0.013814994 -0.077934384 -0.08450787 0.79414135
0000f0 18 68 16 3f cc 78 9e 3f 95 75 61 3c 33 0b 7b 3d
       0.58752584 1.2380614 0.013760944 0.061289977
000100 c6 bb cf bd 36 bc bf bd 54 66 03 bf be 3c 4a 3f
       -0.10143237 -0.0936207 -0.51328015 0.78998935
000110 f3 60 b8 be fe e5 0a 3e 7f 76 81 bf d4 04 81 3f
       -0.36011466 0.13564298 -1.0114287 1.0079598
000120 b8 79 57 3f da 3e ae bd a0 1e d5 be 01 43 73 bd
       0.84170103 -0.08508082 -0.41624928 -0.05939007
000130 3f 0a 4b bd 92 da 20 3d 15 78 05 3f 3e 99 91 be
       -0.04957032 0.039270945 0.52136356 -0.28437227
000140 dc 90 9d be 59 b1 0d 3f 59 ce b3 3d 6e b1 8e 3e
       -0.3077458 0.55348736 0.08779592 0.27869743
000150 16 d5 e2 3e c4 85 18 bf c1 70 0f 3f 63 b4 e7 bc
       0.44303197 -0.5957911 0.56031424 -0.028284257
000160 5f ed d3 bd 88 13 e1 be ce be 9b bd 96 85 de 3d
       -0.10348009 -0.43960214 -0.076047525 0.10865323
000170 fe 85 02 3f 0e 44 ce 3e f5 7f d5 bd 96 c4 3b be
       0.50985706 0.40286297 -0.104247965 -0.1833671
000180 77 aa 2c 3f 25 66 6b 3f 47 e1 fa be 83 b7 c6 3e
       0.6744761 0.91952735 -0.48999998 0.38811883
000190 44 3c 9d 3c b0 f3 d5 3c 4d ca 2d bd 04 1f 5b 3c
       0.019193776 0.026117176 -0.042429257 0.013374094
0001a0 95 b9 01 be f5 4c fc 3e a2 1f 44 3f d5 fc 79 be
       -0.1266845 0.49277464 0.7661077 -0.24412854
0001b0 3a 02 96 bf b7 6e 58 be 4c 54 41 3e 3e f0 e6 bd
       -1.171943 -0.21135984 0.18879813 -0.11276291
0001c0 98 00 eb bc 30 48 9e 3d 39 b9 22 3d 39 01 9f bf
       -0.028686807 0.077286124 0.039727423 -1.2422248
0001d0 c5 64 c3 3d fa 40 fe 3e 07 8b e6 be 90 b9 1c bc
       0.09540705 0.49658948 -0.45027944 -0.009565726
0001e0 58 1f cb 3c 24 76 a5 3e a7 a8 cf 3d e8 f9 8c 3c
       0.02479522 0.32316697 0.1013959 0.017209008
0001f0 99 ac de 3d 2a a6 4c be 92 10 e5 bc 1c 6a 02 3f
       0.10872764 -0.19985262 -0.027962003 0.5094316
000200 32 7a bd bd 19 e6 72 3f 9f 76 9d 3e c8 8b 3e bf
       -0.092518225 0.9488235 0.30754563 -0.7443204
000210 b2 bf 2b 3f d0 35 1c 3f f3 00 de 3f df c0 d4 bd
       0.6708938 0.6101961 1.734404 -0.1038835
000220 ac 1f 90 3d a4 e0 97 3d b9 eb e0 3d eb 40 6f bd
       0.07037291 0.07415894 0.109824605 -0.05841152
000230 e6 d1 ee bd f1 c1 5a bc 1b 2a 02 bf 4c 36 e9 bc
       -0.11661129 -0.013351903 -0.508455 -0.028468274
000240 57 13 95 3f 45 df dc 3d dc cb b9 3f f2 30 a8 3e
       1.1646527 0.10784773 1.4515338 0.32849842
000250 16 93 cb be 89 c3 dd bd ce bc 06 bd 09 fc 7c 3e
       -0.39760655 -0.10828311 -0.032894902 0.24705519
000260 be 37 9d bf fe 08 61 3e 29 d8 7d be e0 5e 2a bd
       -1.2282636 0.21976086 -0.2478949 -0.041594386
000270 94 e4 01 bf ee 47 19 3e 25 40 a8 3d 75 81 89 bd
       -0.5073941 0.14968845 0.082153596 -0.06714145
000280 5c d7 07 bf 2a b7 24 bf 6b 11 14 bf 33 b4 4b 3f
       -0.5306299 -0.64341986 -0.5783908 0.7957184
000290 78 e4 20 3f b9 61 06 bf d0 30 b6 bd a5 92 fa 3d
       0.62848616 -0.5249286 -0.08896029 0.122350015
0002a0 ef 2c 2a 3f 06 85 8f 3e c1 73 e3 bf f0 22 40 3c
       0.66474813 0.28031176 -1.77697 0.01172708
0002b0 29 ad 30 3f 8f 7a 81 bf f3 96 a3 be bc 47 e5 bd
       0.6901422 -1.0115527 -0.31951103 -0.11195323
0002c0 54 c7 b7 bf 65 27 5f be 00 2d ca bd 33 3c 94 3f
       -1.4357705 -0.21792372 -0.09871864 1.1580871
0002d0 b8 ed 50 3d 64 92 71 bf f9 9b 02 bf 51 f1 74 bd
       0.051007956 -0.94364 -0.51019245 -0.05980045
0002e0 4b b2 9e bd 28 96 08 3f 07 3d e7 3e e8 91 c9 3e
       -0.077488504 0.5335412 0.45163748 0.3936913
0002f0 25 66 18 bf ad fd 05 be 4f 1c 3f 3c 5b c8 8f be
       -0.5953086 -0.13085051 0.011664464 -0.28082547
000300 55 cf 2a bd b7 8e 4e 3c 82 cd a9 bc e3 05 5a bc
       -0.041701633 0.012607268 -0.020727877 -0.013307068
000310 54 48 e4 bd fb d0 b0 bd 2f 09 b9 bd fb 18 37 3d
       -0.11146608 -0.0863361 -0.09034955 0.044701558
000320 a0 42 0a 3d 44 43 23 3d b8 a8 e6 bd 4c 95 96 3d
       0.033754945 0.03985907 -0.11262649 0.07352695
000330 28 ef 6e 3d 10 7f b4 3c b5 6d fe bd 90 67 bb bc
       0.058333546 0.022033244 -0.12423269 -0.02287653
000340 af f0 13 3b 80 65 3e 3c da a8 eb bd 52 13 d1 3c
       0.0022573879 0.011620879 -0.11506815 0.025521908
000350 a3 8f 92 bd 65 6c 30 bd 2d fd 0c bc b9 f8 a5 bb
       -0.07156303 -0.043072123 -0.008605284 -0.0050650504
000360 4d b9 d0 bd ef ad c8 bc b0 80 bb 3d 5e 9e 96 bd
       -0.10191593 -0.024497 0.091554046 -0.07354425
000370 93 8a cb bd 7a 03 9e 3d 54 cc b1 3c b7 41 e7 b9
       -0.0993854 0.07715507 0.021703877 -0.00044108715
000380 02 b5 85 bd e8 f0 f7 bd c2 04 d3 bd b7 1b 8e 3d
       -0.06528665 -0.12106496 -0.10303642 0.0693888
000390 ae 91 7d bd 75 c0 b9 3d 70 99 44 bd 3b 01 d5 3d
       -0.06190651 0.090699114 -0.047997892 0.10400625
0003a0 c9 b1 37 bd d2 6e 53 bd 90 44 df 3c 0e b2 f4 bd
       -0.044847284 -0.05161936 0.027254373 -0.11948024
0003b0 a8 ff bf 3c 8e 32 57 3d 2d 9e a4 bd 5d 3a ce bd
       0.023437336 0.052538447 -0.08037982 -0.10069726
0003c0 d0 63 4c 3d a6 23 98 bd f0 9b 2f bc a5 61 80 3d
       0.049899876 -0.074286744 -0.010718331 0.06268624
0003d0 8c 01 26 3d a8 12 2d bd 93 40 bd 3d 6b 87 ba bd
       0.04052882 -0.04225412 0.09240832 -0.0910786
0003e0 98 60 25 bd 14 86 c9 bd 59 e8 11 bd 8a 6a 22 bd
       -0.040375322 -0.098400265 -0.035621975 -0.039652385
0003f0 a7 d1 bf b9 f3 14 6b 3d 40 b2 9e bd 37 1e 2f bc
       -0.00036586562 0.057393026 -0.07748842 -0.010688356

_layers.4.bias f4 [64]
000000 66 71 03 3d 37 e9 b4 3e f9 6e 3a bb a4 2b 83 bc
       0.032090567 0.3533418 -0.0028447493 -0.01601202
000010 ff d7 32 bd b9 4b 0b be ef 9a 9d 3e d0 e3 2d be
       -0.04366302 -0.13603105 0.30782267 -0.16981435
000020 50 94 0d be bf 74 3f 3e 4e 81 88 3d 3c ad ac bd
       -0.13826108 0.18696879 0.06665288 -0.08431479
000030 5e 82 4b 3c 44 02 74 3e d7 a1 4c 3e 91 90 ca be
       0.012421219 0.2382899 0.19983612 -0.3956342
000040 b2 6b 20 bd 61 b8 6e 3d ff 0f 80 bb 3c c0 6c 3e
       -0.039165206 0.058281306 -0.003908157 0.23120207
000050 bb d9 e7 bc 9b 41 e9 bd 84 29 b8 bd c0 f3 04 3d
       -0.028302064 -0.113894664 -0.089922935 0.03245902
000060 c9 b4 e0 bd 73 10 0c be 0b bd 16 3e 8a 2d e6 3d
       -0.10971982 -0.1367815 0.14720552 0.11239155
000070 94 76 ba bd 54 23 8a 3e c0 04 56 3e 6a 3d cc 3d
       -0.09104648 0.26980078 0.2090025 0.09972651
000080 58 75 94 be 06 d5 10 be 64 8f c7 3b ab ca 41 3e
       -0.28995776 -0.14143762 0.0060900915 0.18924968
000090 8d 1f 0f be a4 d1 ed bd 0e 70 f5 bd 28 ee 14 3e
       -0.1397688 -0.116122514 -0.11984263 0.14543974
0000a0 0e 41 9a bd 95 38 06 be e1 cc d5 bd 5f 3b f8 bd
       -0.075319394 -0.13107522 -0.10439468 -0.12120699
0000b0 c4 19 19 be b6 20 82 bd 4a cb bc 3e 2c 8b ed 3e
       -0.14951235 -0.06353895 0.36873847 0.46395242
0000c0 b3 7b df bc a6 c4 f9 bc be b2 c4 bd 45 61 24 be
       -0.027280664 -0.030489277 -0.09604405 -0.1605273
0000d0 77 d4 4d 3e 97 6c 72 3d 62 87 89 3d a8 97 75 bc
       0.2010058 0.05918559 0.06715275 -0.014989771
0000e0 81 d9 1f be f5 5a 03 3f 8c dc 31 3d 88 e3 a6 bc
       -0.15610315 0.51310664 0.04342322 -0.020372167
0000f0 04 e0 5f 3e ab 80 d6 be fd 30 21 be c0 cc 43 3e
       0.21862799 -0.4189504 -0.15741344 0.19121075

_layers.6.weight f4 [6, 64]
000000 87 aa 14 3f 9a 4d a7 bf 44 78 87 3f 22 a5 86 3d
       0.58072704 -1.3070557 1.0583577 0.06574465
000010 87 74 1d bc 96 f7 7e 3d 06 6b 79 bf 84 64 63 3d
       -0.009610302 0.062247835 -0.9742893 0.05551578
000020 23 a7 2f 3d d6 59 11 be fc d4 d3 be 7d a9 30 3c
       0.042884003 -0.14194426 -0.41373432 0.010782597
000030 a5 e2 21 c0 e3 20 64 bd 3f 42 2b 3f 85 ea 41 bf
       -2.5294583 -0.055695426 0.6689796 -0.75748473
000040 0a 66 79 be 5d 0f 6e bd 18 84 5e bf 26 e9 c8 bf
       -0.24355331 -0.05812012 -0.8692031 -1.5696151
000050 26 ee 61 3c 26 6a d6 bd 16 d7 68 3d bd 60 d8 3c
       0.013789689 -0.10469465 0.056845747 0.026413316
000060 f4 27 c7 bb d4 bd bc 3d 1b eb 60 be 9f 34 e8 3e
       -0.006077761 0.09215894 -0.21964686 0.45352647
000070 c0 88 91 3c 02 98 af be e0 1e ee 3e 91 e3 8d 3f
       0.017765403 -0.3429566 0.4650793 1.1085073
000080 60 4c 85 3e 05 b9 05 bc 5b 63 1d bd 7e 15 64 3e
       0.26034832 -0.008161788 -0.03842483 0.22273824
000090 43 09 23 bd 2a 74 d2 ba c3 a1 6e 3d 87 c9 2f 3f
       -0.039803755 -0.0016056348 0.058259737 0.6866688
0000a0 5e 11 9d 3d f2 81 11 be 60 90 15 3e 1d c4 09 3d
       0.07669328 -0.14209726 0.14605856 0.033634294
0000b0 0d a5 b1 3e c2 f8 e0 3d 81 6f d2 3e 6a 59 d7 3e
       0.34696236 0.10984947 0.41100696 0.42060405
0000c0 ee 44 16 3e be e0 c1 3d b0 db 01 3d d4 d2 a0 3d
       0.14674732 0.09466694 0.03170365 0.07852712
0000d0 60 ed e8 be c3 9d 32 bd 31 05 c2 bf ff bb a6 bf
       -0.45493603 -0.043607485 -1.5157834 -1.3026122
0000e0 95 c5 69 bd 30 3a fc bf 36 0c dd 3c ec f4 a7 bf
       -0.057073195 -1.9705257 0.026983362 -1.3121619
0000f0 f6 b9 16 3f 07 85 1a 40 d3 23 8a 3d bc 9a ab bf
       0.58877504 2.4143693 0.06745114 -1.3406596
000100 d5 d6 10 c0 7c bd 85 3e ee 8e 36 bf d8 54 ea 3c
       -2.2631123 0.26121128 -0.71311843 0.02860491
000110 10 0f 4f 3d 5a c9 d6 bd cb a3 72 3e 7e 45 dd 3d
       0.050551474 -0.104876235 0.23695295 0.1080427
000120 84 04 d0 bd b2 07 c7 bd 8b 94 98 bf 2c 3a b7 bd
       -0.10157111 -0.09718265 -1.1920332 -0.08946642
000130 85 02 c4 3f 49 4f a1 3f 27 be 4b 3e e4 01 c1 3e
       1.5313269 1.2602321 0.19896756 0.37696755
000140 0b 49 09 3f 44 3c 9d 3d 8d ff 9f bc 71 e4 59 bf
       0.5362708 0.076775104 -0.019531036 -0.851142
000150 cc 8c ea bc 92 52 26 bd 3a 9b c9 3c c7 e5 a2 bd
       -0.02863159 -0.04060609 0.02461015 -0.07953983
000160 66 67 70 bc 4c c6 c3 3c 90 28 1e be 3f 8b 84 bf
       -0.01467309 0.023898266 -0.15445161 -1.0354995
000170 38 42 42 3d e6 a0 fc 3e f0 f3 84 bf c3 53 b9 bf
       0.047426432 0.49341506 -1.0386944 -1.4478687
000180 3e 3a 02 c0 bc fa 9a bd 81 b1 0d 3d ca 5e 76 be
       -2.0348048 -0.07567355 0.03459311 -0.24059597
000190 12 ea bd bd 93 62 f4 3c 06 93 a2 3c 6d da 08 be
       -0.09273161 0.02983216 0.019845497 -0.13364573
0001a0 b7 1c 2a 3d a1 c0 83 bd 2e cb 91 bf db c7 86 3d
       0.04153129 -0.064332254 -1.139013 0.06581088
0001b0 98 8c 15 bf 95 d6 ad bd 1e df df bc dc 75 11 3f
       -0.58417654 -0.08488194 -0.02732807 0.56820464
0001c0 02 43 91 3d 23 85 98 bd 27 c6 82 3d 41 72 bd 3d
       0.07092859 -0.07447269 0.06385451 0.09250308
0001d0 24 a5 80 bf 8b cf dd bf 5b 5a b8 bf 8a 68 d0 bf
       -1.0050397 -1.7328962 -1.4402574 -1.6281903
0001e0 6a 39 39 bd 7b 5e c0 3e d6 b0 9c 3d 7c 99 d7 3e
       -0.04522077 0.37572083 0.07650916 0.42109287
0001f0 f3 86 ac bd e6 1b 81 bf c2 2e 34 3d 8d b8 94 3f
       -0.08424177 -1.0086639 0.043989904 1.161882
000200 ef 3f b8 3e 9e ee e3 be 79 35 c4 bc b1 70 61 bd
       0.35986277 -0.44517988 -0.023951279 -0.05503911
000210 09 6e 81 3d ed 16 96 3d 0a 34 23 3f 82 d2 2d 3a
       0.06319816 0.073285915 0.6375128 0.00066307944
000220 1f 4d 17 bd a2 a2 e4 3e 64 34 82 3f 50 c6 e3 bc
       -0.036938783 0.4465533 1.0172238 -0.027804524
000230 d2 d8 b6 3f e2 a7 94 3d 90 39 cb bd ce 8a 83 3f
       1.4284918 0.072585836 -0.099230886 1.0276735
000240 e7 ed 00 bf 1c 11 e9 3b 50 b9 1d bf d1 9e a0 3e
       -0.5036301 0.0071126353 -0.6161089 0.31371167
000250 10 62 3f 3d 73 04 15 3d 5c e3 7f 3c f7 8d a1 bd
       0.04672438 0.036381196 0.015618172 -0.07888406
000260 de a8 23 bd 92 b0 b6 bd 85 29 e6 3e ce 85 a4 3e
       -0.039955966 -0.08920397 0.44953552 0.32133335
000270 34 74 b6 3d eb 4a c6 3e 02 e7 b3 3e 88 d7 03 be
       0.08908883 0.38729033 0.35137182 -0.12875187
000280 e8 20 2c c0 bd 77 7b bd f2 46 94 3c c6 a9 c1 3e
       -2.6895084 -0.06139349 0.018100236 0.3782484
000290 d1 a7 ba bc 6d d1 43 bd 2a 13 e2 3d 77 ba e5 3e
       -0.0227851 -0.047807146 0.110388115 0.44868824
0002a0 50 3b 40 bb 40 62 bc 3c c6 9c 1d bf 73 c4 a8 bd
       -0.0029332228 0.022996068 -0.6156734 -0.08240595
0002b0 a9 d5 71 3e 7c 53 83 bd cd 61 b8 bf 9e b4 fc be
       0.23616661 -0.06412408 -1.4404846 -0.4935655
0002c0 e9 fb 5e bc 3b fe 38 bd 47 e1 71 bd 9f ad ec 3d
       -0.013609865 -0.045164328 -0.05905273 0.11556553
0002d0 14 60 65 3f b6 f1 14 3f fb e3 eb bd 89 a2 30 be
       0.8959973 0.5818132 -0.11518093 -0.17249502
0002e0 4f e4 92 bd 05 bb ef 3d fc 2e 9a 3d da 75 66 3d
       -0.07172453 0.11705593 0.07528493 0.056264736
0002f0 dc ec 15 c0 45 49 41 c0 73 89 b8 bd 25 26 43 3f
       -2.3425817 -3.020097 -0.09010591 0.7623008
000300 96 01 6b bf ab 4b 28 3e 7b 76 30 c0 6e f5 27 bc
       -0.91799295 0.16435115 -2.7572315 -0.010251386
000310 48 18 7d 3c 42 eb 8f bd 02 a9 6a c0 e6 3e 97 bd
       0.015447684 -0.07027294 -3.6665654 -0.07385044
000320 7a 40 10 bd 72 7d f6 be 9a e7 65 3d c1 32 da bd
       -0.03521774 -0.48142582 0.056129076 -0.10654212
000330 1a 28 27 3f 2f f3 ba 3d c3 bb c5 3e 90 48 a8 bf
       0.65295565 0.09128415 0.38619813 -1.3147144
000340 5c 7b 45 3f e7 e7 81 bd 3f 14 a8 bf fa 0c 62 3f
       0.77141356 -0.0634306 -1.3131179 0.8830105
000350 f4 fa 8d bd 8b 7e 2f bd 76 e6 1c bd 8f 71 4e 3d
       -0.06932631 -0.04284529 -0.038305722 0.050401267
000360 3b 1f d3 bc a3 24 e5 bd 38 ee 72 c0 fb d8 1c c0
       -0.025771728 -0.111886285 -3.7957897 -2.4507434
000370 fc 9a 7d bd d1 cd 31 3d 34 c5 06 c0 09 57 9b 3f
       -0.061915383 0.043409172 -2.1057863 1.2135936
000380 fe 3e aa 3d 7a 74 31 bd 55 9c 37 bc ba 7e 4d be
       0.08312796 -0.04332397 -0.011206706 -0.20067874
000390 47 fd d0 bc e3 19 6b 3d db 61 07 3d 3a 10 09 c0
       -0.025511397 0.057397734 0.033052307 -2.1416154
0003a0 c6 bc a6 3d 47 db a2 3d c5 5f 81 3f d8 39 73 bd
       0.081414744 0.0795198 1.0107352 -0.059381336
0003b0 b3 cf eb 3e 32 c6 cb bd 57 a2 44 3f 3c f3 6e be
       0.460569 -0.09949912 0.7681021 -0.23334974
0003c0 bb 29 cb bd c0 ff ba bd b5 9d e5 bd 9c 77 3f 3d
       -0.09920069 -0.09130812 -0.11211721 0.046744928
0003d0 72 7a 1a 3e 58 38 5e 3e 9b a7 31 3f e6 f2 3a bf
       0.15085772 0.21701181 0.6939637 -0.73026884
0003e0 4d 8d 06 3b e2 cf e6 bd 1c 92 98 3d 96 a6 53 3f
       0.0020531 -0.11270119 0.07449743 0.82676065
0003f0 9b e1 27 3f 15 a2 72 bf db 11 81 3c 08 26 80 bf
       0.6557862 -0.9477857 0.015755584 -1.0011606

_layers.6.bias f4 [6]
000000 f5 26 17 3e e3 48 88 3e eb 92 c2 be df b3 cb 3d
       0.14760955 0.26618108 -0.38002715 0.09946417
000010 cb 1b 4e 3e 52 4e 39 be
       0.2012779 -0.18096283
