models/gg-2023-11-07_17-58.pt (torch, 27840 bytes, 6 tensors)

weight f4 [64, 19]
00000000: 83c2 37be ce9c df3d 52c3 cf3d 9684 dfbd
00000010: 5f0d 0abe 6ec1 1dbe bca4 38bd 74a0 303d
00000020: a84f 24bd cddc 63be 5fe9 54be 65f8 3abe
00000030: 8887 8ebc de39 ee3d 1246 9fbd 2fb2 3f3e
00000040: 5f64 4a3e ca11 be3d dce6 11bd d2d9 2f3e
00000050: 9227 2c3e 73a5 273d 8ab0 473e 04b2 0a3e
00000060: ec19 87bd dbc4 12be 1858 59be 925e 1f3e
00000070: d90a 2bbe 5147 f73d 8228 643d f033 5ebc
00000080: 435c 743d 5d1d a3bc 65ce 1f3e ad72 84bd
00000090: 8c87 60be c1ae 03bd d453 e73d 708c 37be
000000a0: 817a 243e 384f 29be 00d5 cabc c1df e13d
000000b0: a41d 563e 52b2 44bd e87b 28bd e59a 1dbe
000000c0: 6fc8 e53d 6511 0f3e 13ba 1b3e 4aa9 4dbe
000000d0: 9c7c 1ebe b70e a13d 79af 2cbe db55 083e
000000e0: 308e 073d 7537 51be 4db6 fb3d ee79 f33d
000000f0: ec3e f4bd 3a5c 81bd e11b 24be df00 c33d
00000100: 7db3 313e aa03 243e 0326 a7bd c84c d43d
00000110: cff5 3dbe 5876 4e3e 3e75 5b3e 91c2 483e
00000120: 3059 0e3e 90fb 2e3e a50f 65be 5893 ee3d
00000130: eace fd3d f27e ce3d 3dde 3a3e 57fb 61be
00000140: 80ee 10bc f9a3 363e b8dc fdbc 1a77 963d
00000150: 4ea1 02be 5ca1 51be 26aa 1dbe 22b0 33be
00000160: 38ed 0fbe 3036 53bc 8203 6abe 90ff 9cbc
00000170: 6c53 d7bd 1d1d fbbd 1fdf 2b3e 3b42 59be
00000180: 00f6 62be 991c 913d deff ff3d 17ad fe3d
00000190: 58ea 22be cb3b 923d 4201 de3c ff87 473d
000001a0: 0ed7 b93d 95cc 30bd 2f73 74bd e18e 3dbe
000001b0: 4eb1 13bd e18b 2dbe 4a91 22be 68cd bc3d
000001c0: 794a 433e 6fc5 263e 4dfd 333e 80ad ad3d
000001d0: 14ba 67be fd4b 0cbd c83e f23c 8f5d 173e
000001e0: c43c 68bd 16be 9a3d aeb6 e43d 0299 1c3e
000001f0: d0d1 463e fb3b 3fbe 24f6 f3bd 383a 4f3e
00000200: e023 17be e7bc a3bd 6cea 2e3e 078c 4e3e
00000210: b641 2c3b 85d3 393e 3ba5 31be a56d 043e
00000220: 704d a7bd 0c7b 123d 8420 49be 6841 b3bc
00000230: d9df 343e 747b 2c3d 7ea2 d2bd 78ac a2bc
00000240: 9cd4 173d 0e21 0dbe 9c9c 3dbd 1a36 27be
00000250: 372e 39be e002 c0bd bd3a 4ebe 80d0 9c3b
00000260: 85ce 4c3e 3a42 d33d 034e 5a3e 7691 57bd
00000270: b126 493e 4904 96bd f218 97bd 618c 3d3b
00000280: 2650 253e 71ca 5a3e 5e9e 1b3e 77ad 5bbe
00000290: 1cf0 18be 7f8d a63b cb0d 0ebe 3ab0 ec3c
000002a0: 4b99 e03d 6f42 e53c b9ba fb3d 92f2 d4bd
000002b0: 55dc f23c 41cd 333e 2c3f 1fbe b1d8 16be
000002c0: b010 a4bd d4e8 f63c 7830 863d 39a1 d5b9
000002d0: f52a c2bd 3a0d da3d 092f 243c 65c4 f13d
000002e0: f4d9 17be 0811 5bbe 2693 4c3e b6c8 1fbe
000002f0: bfb3 03be a61e a43c ecd9 13bd 5613 2abe
00000300: 8077 ecbd cccb 0dbe f057 7d3c 99cb 043e
00000310: cc32 573d ee92 07be 9236 36be f01b c2bd
00000320: 2c77 96bd 2651 a23d 6386 1a3e 1a3d 98bd
00000330: dca8 3a3d d2c7 933d 10f1 2fbe 2446 633d
00000340: 8c15 80bd e660 f8bc 22a0 0bbd cc79 50be
00000350: 5f72 36be 944b 4f3e 6d70 06be cf10 b03c
00000360: bff5 af3d 07e2 39be 2b52 fb3d d850 4cbe
00000370: ab5b 8fbd 3065 4dbe e231 1cbe 41bc a3bd
00000380: fdca a7bd f6c5 df3d 1b10 433b 5231 663e
00000390: 3297 3f3e 5cba 3e3c fcf0 6abd e4af d83d
000003a0: 8df7 e33d 458a 553e 25f1 3d3e 3a34 90bd
000003b0: dcf8 523d 2ec0 4d3e efc6 a53c 8ed9 11bd
000003c0: 0cf4 3abe 763a 203e 50b7 fa3d 6488 b03d
000003d0: 6721 55bd eba5 c3bd 2413 113d cc85 23bd
000003e0: 4e0d 9e3d d43a cabd 3c57 20bd 79c7 4b3e
000003f0: 00bc b73b 68f1 40bd cca4 7d3d 4d2c e4bd
-0.17945294 0.1091858 0.10144676 -0.10913961 -0.13481663 -0.15405819 -0.045078978 0.04312177
-0.04011503 -0.22252198 -0.20792149 -0.18258817 -0.01739861 0.11632131 -0.07777037 0.18720315
0.19764851 0.09280737 -0.035620555 0.17172936 0.1681197 0.04092927 0.19500938 0.1354447
-0.06596741 -0.14332907 -0.21225011 0.1556342 -0.16703357 0.120741494 0.055702694 -0.013562188
0.0596583 -0.019911462 0.15606077 -0.06467185 -0.21926707 -0.03214908 0.11295286 -0.17924666
0.16062357 -0.16534126 -0.02475977 0.11029006 0.20909745 -0.048021622 -0.04113379 -0.15391119
0.1121987 0.13971479 0.152077 -0.2008411 -0.15477222 0.07864135 -0.16863813 0.13314001
0.033094585 -0.20431311 0.122906305 0.118884906 -0.11926064 -0.06316419 -0.1602626 0.095216505
0.17353626 0.16017023 -0.08161547 0.10366207 -0.185508 0.20162332 0.21431443 0.19605471
0.1390121 0.17088151 -0.22369249 0.11649197 0.12392981 0.10082807 0.1824884 -0.22068535
-0.008845925 0.17835988 -0.030989036 0.073469356 -0.12756845 -0.2047171 -0.15396938 -0.17547658
-0.14055336 -0.012891337 -0.228529 -0.01916483 -0.10513958 -0.12261412 0.16784333 -0.21216671
-0.22164154 0.07085533 0.12499975 0.12435358 -0.15909708 0.07140311 0.02710021 0.04871368
0.090742216 -0.043163855 -0.05968016 -0.18511535 -0.036057763 -0.16947891 -0.15875736 0.09218866
0.19071378 0.16286252 0.17577095 0.08480358 -0.22629577 -0.034252156 0.029570952 0.14781784
-0.056698576 0.07555787 0.11167656 0.15292743 0.19415975 -0.18675224 -0.11912182 0.20237052
-0.14759779 -0.07995015 0.17081612 0.20170604 0.0026284284 0.18147095 -0.17348187 0.12932451
-0.08169067 0.035761878 -0.1964131 -0.021881774 0.17663516 0.04210992 -0.10284899 -0.01985763
0.037067994 -0.1378214 -0.046291932 -0.16329232 -0.18084036 -0.09375548 -0.20139594 0.0047855973
0.20000656 0.10315366 0.21318822 -0.052628957 0.19643666 -0.07325036 -0.07377805 0.0028922784
0.16143855 0.21366288 0.15197131 -0.2145289 -0.14935344 0.0050827856 -0.13872449 0.028892625
0.10966738 0.02798578 0.12291474 -0.10397829 0.029646078 0.17558767 -0.15551442 -0.14731099
-0.080109954 0.030140318 0.065522134 -0.00040746646 -0.0948085 0.10647054 0.01002098 0.118050374
-0.14829236 -0.21393216 0.19978008 -0.15603909 -0.12861536 0.020034146 -0.0360965 -0.16608939
-0.1154623 -0.13847274 0.01546286 0.12968291 0.052538678 -0.13239643 -0.17794254 -0.09477985
-0.07346949 0.07925634 0.15090327 -0.07433529 0.045571193 0.07215847 -0.17181802 0.055486813
-0.0625411 -0.030319642 -0.03408826 -0.20358962 -0.17817067 0.20243675 -0.13128825 0.02149239
0.08591794 -0.18152629 0.12271532 -0.19952714 -0.06999906 -0.20058131 -0.15253404 -0.07994891
-0.08193014 0.1092643 0.0029764238 0.22479752 0.1871002 0.011641111 -0.057358727 0.105804235
0.11131201 0.20853527 0.1854902 -0.070412114 0.051506862 0.20092842 0.02023646 -0.035607867
-0.18257159 0.15647301 0.12241995 0.086197644 -0.052033808 -0.09553131 0.035418645 -0.03992252
0.077173814 -0.09874502 -0.039145693 0.19900312 0.005607128 -0.047105223 0.06192474 -0.11141262

bias f4 [64]
00000000: faf8 07be ca52 1abe 250e 143e a56f 3fbe
00000010: a474 25be e9ec 7ebd 6673 02bd e470 25be
00000020: 77c5 09be a476 fe3d 6519 28be dcbe 9dbc
00000030: 1d73 e2bb e83b 75bd 68e4 c0bd f2e9 113e
00000040: c9f7 9cbd e7c1 4fbd 803b e73a c212 7b3d
00000050: f495 07be 1642 bcbc 5ae7 8a3b 5c88 81bd
00000060: ca9b edbd d90e 163e ae8e b93a 33c0 543e
00000070: 3849 6a3e 2bc8 443e fe05 123e 44b1 283d
00000080: f7a9 ba3d e7b8 0f3d 3a13 33be 2380 d5bd
00000090: 57b3 11be b631 e23d f87d 5a3d 8835 1f3e
000000a0: 64ec f9bb 962f a33b 7421 03bd 7996 12bd
000000b0: 4803 193e 9491 11bd 6626 b03d 085e efbd
000000c0: aca7 bb3d 9e33 10be 5444 0c3e 3837 2bbb
000000d0: 9772 75bd bc19 373e e3d5 533e a0a3 cebd
000000e0: 6533 3fbe 5225 c03c 2e6a 3dbe 305a 05be
000000f0: 90a2 f53b e896 a3bd 499c 5c3e fec6 693e
-0.13278571 -0.15070644 0.1445852 -0.18694933 -0.16157776 -0.062237654 -0.031848334 -0.16156346
-0.13454233 0.12424973 -0.16415937 -0.019256048 -0.006910695 -0.059871584 -0.09418565 0.142494
-0.07664449 -0.05072203 0.0017641634 0.061297186 -0.13240796 -0.022980731 0.004239005 -0.063248366
-0.1160198 0.14654101 0.0014156902 0.20776443 0.22879493 0.19216983 0.14260098 0.04118468
0.091144495 0.035088446 -0.17487803 -0.10424831 -0.14228569 0.11044638 0.05334279 0.15547764
-0.007627057 0.004980038 -0.032014325 -0.035788033 0.14942658 -0.035539225 0.08601074 -0.11687857
0.0916284 -0.1408219 0.1369794 -0.0026125442 -0.059923735 0.1788091 0.2068706 -0.10089803
-0.18671949 0.023455296 -0.18497536 -0.13022685 0.0074961856 -0.079877675 0.21543993 0.22829816

weight f4 [64, 64]
00000000: 70bc 773d 0b7a eabc a8ab e2bd 2fa0 28bd
00000010: f0d3 ec3c fd7f c93b a7ab e03d 0074 cf3d
00000020: d7dd ccbc 4a17 f5bc d286 fb3d a807 c13d
00000030: 4cf3 fabd a8b5 bebc e95b b03d 48d5 c73d
00000040: 170d e3bd e852 b43d 3490 d13d 699a 71bd
00000050: ddf8 54bc 9951 493d 313a 943d c14e 25bd
00000060: b422 903d a244 cc3c cdd3 fb3d 8d91 1f3c
00000070: 2aed c9bd a872 e43d 26db 073d 9c18 00bd
00000080: 90b3 d0bd 50da 5bbc d06f 723d d05c e33d
00000090: b94f 82bc 96f3 fa3d 1f1e 12bd 6d42 57bd
000000a0: aa6e a7bd b0e5 f43d 2877 f0bd 14cb 99bd
000000b0: 52e0 80bd 9a7c d53d 206c 9abc 5451 e0bd
000000c0: 372d f63d 8852 ba3c 3969 f93d 2245 f33d
000000d0: afbc 7abd a04d 5c3d 303b f3bd f2e6 9f3d
000000e0: c05b b53b 6944 5b3b 0048 d5bb d052 753d
000000f0: 3338 8a3d 5eb3 aebd 3030 2abd 030e 6a3d
00000100: 18a9 01bd 437f 1fbd 9688 913c 76c1 903d
00000110: 88ca 8e3c 34dd da3c a1a0 a5bd daeb f4bd
00000120: 74d7 ab3d 83b3 0c3d b847 b53c 50b6 22bd
00000130: 1cf8 a23d bcb9 f53d 94cc e3bd 1451 753d
00000140: 943b 803d 793d 143d 8062 2fbb 23d3 3e3c
00000150: bc68 6e3d 398e ec3d e255 c03d 36a0 87bd
00000160: 70e1 143c 82ce 353c 5a18 26bd 6ea0 633d
00000170: e892 20bd 0fd0 e1bd 51e5 b53d 0015 383d
00000180: 0b85 803c a5d2 1dbd 8ad4 e33d e7f8 a5bc
00000190: 6d11 e83d 219c fd3d e236 9a3d 5fb5 513d
000001a0: af7c 043b 0793 42bd 8e9c e2bb a1a8 6a3d
000001b0: bf38 2f3d 0097 65bb b490 3bbd 7d04 7ebd
000001c0: 48db 7abd e8a9 b73c e0c5 a0bd 2823 fa3c
000001d0: 0847 af3c 4080 d0bd 65c3 f4bd 6174 c4bd
000001e0: 1068 8abd 6e13 d7bd 6625 a33d a7c4 983c
000001f0: f89c 8c3c 2a2e e6bd 2266 e7bd bacf 04bd
00000200: 1270 81bd 005c bdbd 78bf e8bc 800a 9cbd
00000210: 4a78 de3d 84b6 40bd 984f 29bd de04 b43d
00000220: 3a0c 933d e0ab 3c3c 50af 96bd bc83 b3bd
00000230: ac10 f9bd 58ef 84bd c0e3 e33b 88a2 aa3c
00000240: 5026 483d 8029 31bc 489c 36bd 281e ec3c
00000250: 7874 cfbd 0026 e53d f43e 8dbd 8459 4a3d
00000260: c217 983d 2c69 533d e82e babd a0d1 e3bb
00000270: 525c 903d 2033 6ebd b829 92bd d26e f83d
00000280: 0070 55bd de69 f5bd 5824 edbd 2a07 a3bd
00000290: 00bd 7c3d b03d ab3c ceca eb3d 3cc3 4e3d
000002a0: 54c8 7cbd 027e bdbd 6820 bbbd b2e5 f3bd
000002b0: 2e0a be3d bcb0 b83d 4c17 8a3d fe3b cd3d
000002c0: 8a45 a03d 5c2d da3d a08d de3d 120d 84bd
000002d0: a0a4 5bbc 80f0 3b3d f8b4 123d 70b4 a63d
000002e0: 2ec1 dd3d c0c8 2fbb f87c e3bc eef7 f3bd
000002f0: f474 61bd 2038 b23b 9411 643d e46f bcbd
00000300: c806 86bc af52 bbbd 16f7 7fbd e323 bcbc
00000310: bc51 97bd c01f debd a1c6 af3d 7406 3cbd
00000320: c90f 2d3d b6d2 27bc 3810 05bd 2d54 3b3d
00000330: d66a b63d c07d eabd 4295 69bd 5d91 8cbd
00000340: f2de e8bd cf64 d9bd 084d 663d fe84 d03d
00000350: e94d 7cba 0ac7 a4bd d5d4 ccbd a67b 0fbd
00000360: 8ce3 863d 3624 55bd 0497 4c3c 0391 6f3d
00000370: 30a7 953d 4c56 123d 6f0e f4bd 105c 093c
00000380: c924 9b3d 5975 193d 66d2 b6bd b928 323c
00000390: c31f e83c d8bd 623c fdd5 ccbd c660 b33d
000003a0: 48b4 023c 1090 07bd 5359 bc3d a7f0 fe3d
000003b0: 5b23 f63d d27c d03d dcc7 39bd 0d53 c9bd
000003c0: 45f0 fd3c aa4e 833d d4d2 91bd 7b6d f1bc
000003d0: b4a5 f23d 0f44 323d e777 e2bc 917f e4bd
000003e0: c117 25bb 45df 7dbc 14a8 b63d 8d66 f0bd
000003f0: a678 92bb ac63 0d3d b2c2 76bd 8e27 303d
0.060482442 -0.028622648 -0.11067897 -0.041168388 0.028909653 0.0061492906 0.1097024 0.10129547
-0.025008125 -0.029918332 0.12281574 0.094252884 -0.122534364 -0.02327998 0.086112805 0.09757477
-0.11086481 0.088048756 0.10232583 -0.058985148 -0.012998787 0.049150083 0.07237662 -0.04035831
0.07037869 0.02493507 0.12296257 0.009739292 -0.098596886 0.111546814 0.03316798 -0.03127347
-0.10190499 -0.013418749 0.059188664 0.11101687 -0.015907155 0.122534916 -0.035673257 -0.052553583
-0.08175404 0.11957872 -0.11741477 -0.07509437 -0.06292786 0.104241565 -0.018850386 -0.10953012
0.12020343 0.022744432 0.12178273 0.118784204 -0.0612151 0.053784966 -0.118765235 0.07807721
0.005534619 0.0033457524 -0.006508827 0.05989343 0.067490004 -0.08530305 -0.04154986 0.05714227
-0.0316554 -0.038939726 0.017765325 0.0706815 0.017430559 0.026716806 -0.08087278 -0.119590476
0.08390704 0.034350883 0.022128925 -0.039724648 0.07957479 0.11998317 -0.111230046 0.059891775
0.062613636 0.036191437 -0.0026761591 0.011647019 0.05820535 0.11550564 0.09391381 -0.06622355
0.009086952 0.011096599 -0.040550567 0.05557292 -0.0392026 -0.11026012 0.08881629 0.044941902
0.01568844 -0.038530964 0.11124523 -0.020260287 0.11331449 0.12383295 0.07529999 0.05119836
0.0020215919 -0.047503497 -0.0069156354 0.057289723 0.042778727 -0.003503263 -0.045792297 -0.062016
-0.06124428 0.022419885 -0.07850242 0.030534342 0.021396175 -0.10180712 -0.11951331 -0.0959251
-0.067581296 -0.10501753 0.079661176 0.018648459 0.017164692 -0.11239274 -0.11298777 -0.032424666
-0.06320204 -0.09246063 -0.028411612 -0.0761919 0.10862787 -0.04704906 -0.041335672 0.08789991
0.071800664 0.011515588 -0.07357657 -0.08765361 -0.12161383 -0.06490964 0.00695464 0.020829454
0.048864663 -0.010813117 -0.044582635 0.028822973 -0.101296365 0.111888885 -0.06896773 0.049401775
0.074264064 0.05161397 -0.09090978 -0.0069524795 0.07048859 -0.058154225 -0.071368635 0.12130512
-0.052108765 -0.11983083 -0.11579198 -0.07960351 0.061703682 0.020903438 0.11513291 0.05047916
-0.061714485 -0.0925255 -0.091370404 -0.11909045 0.09279285 0.090180844 0.06742725 0.10021208
0.078257635 0.10653183 0.108668566 -0.064478055 -0.013405949 0.045883656 0.035817116 0.081398845
0.10827862 -0.0026822537 -0.02776955 -0.11912523 -0.055043176 0.0054388195 0.055680826 -0.09201029
-0.016360655 -0.0914663 -0.0624915 -0.02296633 -0.073886365 -0.108458996 0.08582807 -0.04590459
0.042251382 -0.0102431085 -0.03248617 0.045734573 0.08907096 -0.11449766 -0.05702711 -0.06863663
-0.113706484 -0.10614931 0.056225806 0.10181616 -0.00096246466 -0.08045776 -0.10001532 -0.03503003
0.0658637 -0.052036487 0.012487177 0.058487903 0.07307279 0.03572683 -0.119168155 0.008383766
0.075753756 0.037465427 -0.08926849 0.010873967 0.028335458 0.013839208 -0.100017525 0.087586924
0.007977553 -0.033096373 0.09196725 0.124482445 0.12018462 0.101800576 -0.045356616 -0.09830294
0.030998359 0.06411488 -0.071202904 -0.02947115 0.118480116 0.043521937 -0.027645065 -0.11157144
-0.002519116 -0.015495126 0.08918777 -0.1173831 -0.004469949 0.034518883 -0.06024427 0.043006472

bias f4 [64]
00000000: b153 80bd 72d3 c33d 3afb 8dbd c9ec bb3d
00000010: 74d7 33bd ccd2 323d 51eb 44bc f4c7 303d
00000020: 3693 da3d 545c 673d b0a7 68bc 10db b73d
00000030: 5cae b9bd 1672 c93b fef6 f7bd 69d9 de3c
00000040: 200a f9bb d15a 32bd 6a09 82bd 0895 d53d
00000050: 9f22 583c b883 b73c e476 00bd d49c 9bbd
00000060: c83b 8e3d 20f8 98bd 1092 253c f22a db3d
00000070: 2c22 733d d602 9fbc fa67 f8bd 9698 a43d
00000080: 3d81 0b3d f051 45bc caf7 c03d f0a6 233d
00000090: 60b0 243d dbcc 05bc d38a 713c f64e 923d
000000a0: b003 d23c 2a0a d4bd 2480 fe3d 6025 f33c
000000b0: 7413 a1bd 60b1 bbbd 3e32 cb3d d13b 83bd
000000c0: 128d dc3d e4cd f73d f155 8e3d e00b fcbd
000000d0: dad8 d43d a403 d23d f2a6 903d d0d7 1bbd
000000e0: 7542 d03c 2221 fa3d 695b 88bc 3825 ad3d
000000f0: 5883 4a3d 1e31 84bd 6023 76bc 0f14 cb3d
-0.06265963 0.09561814 -0.06932683 0.091760226 -0.043906644 0.043658063 -0.012018994 0.04315944
0.106726095 0.056484535 -0.014200136 0.0897733 -0.090664595 0.0061476333 -0.12107657 0.027203279
-0.007600084 -0.04354364 -0.06349452 0.10428816 0.013191848 0.022401676 -0.031363383 -0.07598272
0.06944996 -0.07469201 0.010105625 0.107015505 0.05935876 -0.019410532 -0.12129207 0.08036916
0.034058798 -0.012043461 0.09422262 0.039954126 0.040207267 -0.008166517 0.014742571 0.07143967
0.025636524 -0.10353501 0.12426785 0.029680908 -0.078650385 -0.09164691 0.09921692 -0.064078934
0.107690945 0.120998174 0.06949986 -0.123069525 0.10392924 0.10254601 0.07063092 -0.03804761
0.025422314 0.12213351 -0.01664515 0.084543645 0.049441665 -0.06454681 -0.0150230825 0.09915935

weight f4 [6, 64]
00000000: ad9d 0dbd 6bab 793d 0e42 f8bd 86b0 a93c
00000010: 1ad8 f03d 11a6 c73b b523 d93d 2ef9 22bd
00000020: 7ff4 e33d 3c55 f73d 283e 9ebd d92a 3dbd
00000030: 10b4 013c d2ca 8b3d e693 aa3d aede a83d
00000040: f1b5 d93d d087 26bd ba34 16bd f921 133d
00000050: 3582 c039 da36 d73d aadc f5bc 50c9 e0bd
00000060: e97c 34bd b447 a33d 10e2 b43d ed81 dabd
00000070: f94a 383d 5ba5 b6bc 6ce5 4abd ca15 5a3d
00000080: 1970 b53d 3e2d af3d b2bb d13c d9d9 223d
00000090: 2ea0 8a3c 7100 8e3c 4492 a6bd 6408 9f3d
000000a0: 8a23 b13c 54c6 bfbd 0f4c e1bd b619 8c3d
000000b0: 71c6 4ebd 8021 babc 7f0a 79bc 40a4 6c3d
000000c0: 3f9c c03d 82f1 8d3c ea27 bc3c c6d0 c3bd
000000d0: 8d5b db3d 6990 c53d 8bb3 88bd 945f 2ebd
000000e0: e757 13bd 2a1d 65bd 1467 3dbd 6000 b2bd
000000f0: dedc bc3c b85a fc3c 50f8 adbd 705a f4bd
00000100: 1f85 1dbd 801b db3d 1628 c1bd 3500 473d
00000110: 5822 d03c 1f37 04bd 0944 e43d 82d1 fdbc
00000120: c7ff 0abd 8fc5 9cbd 80dc fc3c 5c9a 073d
00000130: 5812 28bd be43 d23d 8c02 4fbd 2798 bb3d
00000140: d59d 1d3d a84a fe3d 0215 933d 6383 a3bd
00000150: 04cb 44bd 601f b7bd 29fc 81bd d0f8 3abc
00000160: 6c89 5f3c a0d0 d0bc e231 933d 7d19 053d
00000170: 9726 563d b36b e8bc 0098 393c 380b 7f3d
00000180: 36f0 ea3d fc06 95bd c1e3 afbd 9658 e7bd
00000190: 8004 5dbd 794e e9bd 0237 9dbd a46a b23d
000001a0: 28c5 ad3c 4859 e9bd ef93 113c 9c72 bf3d
000001b0: b2e5 f33d b0c9 88bd aa07 a93c 8d3f cfbd
000001c0: 4984 d9bd 023e c6bd 34d6 d7bc a4fb 67bd
000001d0: a0d7 14bd 0929 333c bc27 ffbd 4040 45bc
000001e0: 4b69 e0bd 56cc f8bd 1df8 bc3d 57b5 7a3d
000001f0: 5f76 37bd 8003 f23b f081 a93d 24b6 283d
00000200: d93f d63c 3584 3dbd 889a e93d 658b babd
00000210: 14b5 443d 3f15 703d c80f 8d3d 4880 d1bd
00000220: e7ed 94bb e880 de3d 6480 c33d a2ee 97bd
00000230: 4cd4 a9bd a0fc 4d3d 1a5b f8bd 4777 a93d
00000240: 77ae 1abd 886d fcbc 3a27 b23d 0c8a efbd
00000250: 3772 80bd 0db7 c6bd 7dd7 c8bd f256 f0bd
00000260: 7a63 a3bd 4c06 d4bd d896 83bd 2c19 c43d
00000270: 3804 a03c b253 0e3b 6009 d53d 2d0b 853d
00000280: 758d c73d 40ea ef3c d758 a63d c784 36bd
00000290: 8c9d b93d e385 ba3d e5b1 833d 54d2 523d
000002a0: b738 a93d c2aa 86bd 29f0 4a3d d043 9cbd
000002b0: ba8a 4e3d 6002 db3d 4a4b 96bd 6eed b3bd
000002c0: 0863 303a bf51 d73d 31a0 7ebd 1c63 d33d
000002d0: 92cf 91bd d3b0 f4bd b07f b43c 2019 debc
000002e0: f070 933c 2a0f a53d bebb 55bd f1a0 f53d
000002f0: 8834 f8bd 1838 0d3d 562b 6b3c af99 213d
00000300: c734 883d 17fc 39bd b4e4 ad3d dead 093b
00000310: 204d cabc 5410 de3d 50ae 913d 5428 2e3c
00000320: 2a0d c33d 5342 8b3d 082f e5bd 1730 933d
00000330: c026 7cbd fd80 7b3b b635 c1bd 5b88 e23d
00000340: 5a0b e23c 172e e53d 90db d2bd d844 0e3d
00000350: 2557 b03d ca40 91bd 8f42 11bd 708b 32bc
00000360: 6197 b6bd 6073 1e3c 197d 063d f102 4cbd
00000370: 6975 9f3d 2cc6 b63d 54a5 4b3d 63f2 e7bd
00000380: e94f acbd 04bd 68bd f24a b73c 7b73 513d
00000390: 62b2 393d a543 f5bd 4341 a1bd 2e36 39bd
000003a0: 5ff3 8e3d f082 d53d e6de b03d 921c b93d
000003b0: 0a1a d6bd c0b8 cabb d2bc 9d3b a5ad e1bd
000003c0: 817c 0d3d f2f7 59bd 46ad cfbd 6cf5 6e3d
000003d0: a71e b1bd 5565 4bba 1338 b23d b05e 003d
000003e0: 22ee b3bd becd c5bd a147 93bd 0026 23bd
000003f0: 1fee 53bc dac5 99bd dbe6 7f3d fbca db3d
-0.0345742 0.060954493 -0.12121974 0.020714056 0.11759968 0.0060927947 0.10602514 -0.039788418
0.11130618 0.12076804 -0.07726699 -0.04618344 0.007916465 0.06825794 0.08328991 0.08245598
0.10630406 -0.040656865 -0.036671378 0.03592107 0.00036718106 0.10508509 -0.030012447 -0.10975897
-0.044064436 0.07972661 0.088321805 -0.106693126 0.044993374 -0.022295645 -0.0495352 0.053243436
0.088592716 0.08553551 0.025602195 0.039758537 0.016922083 0.017334195 -0.08133367 0.07765272
0.021623392 -0.09364 -0.11000835 0.068408415 -0.050482217 -0.022721052 -0.015200256 0.05777383
0.094048016 0.017327074 0.022968251 -0.09561305 0.10710821 0.09646685 -0.0667487 -0.04257162
-0.035972502 -0.055936016 -0.04624088 -0.08691478 0.023054536 0.030804977 -0.084946275 -0.11931312
-0.038457032 0.106986046 -0.09431474 0.04858418 0.025407001 -0.03227913 0.11145789 -0.03098369
-0.033935335 -0.07654869 0.030866861 0.033106193 -0.04103312 0.10266827 -0.05053954 0.0915988
0.0384806 0.12416583 0.07181741 -0.079840444 -0.048045173 -0.08941531 -0.06346924 -0.011411861
0.013643604 -0.025490105 0.07187249 0.03249501 0.052282896 -0.028371667 0.0113277435 0.06226656
0.11471598 -0.07276723 -0.085883625 -0.11296193 -0.05395937 -0.113919206 -0.076765075 0.08711746
0.021212175 -0.11393982 0.008885368 0.09348032 0.11909045 -0.06679094 0.020633537 -0.10119543
-0.106209345 -0.09679796 -0.026347257 -0.056636468 -0.03633845 0.0109350765 -0.124587506 -0.012039244
-0.10957583 -0.12148349 0.09227011 0.061208095 -0.04479062 0.007385671 0.08276737 0.041189328
0.026153492 -0.04626866 0.114064276 -0.09108619 0.048024252 0.05861401 0.06887776 -0.10229546
-0.0045449617 0.10864431 0.09545973 -0.074185625 -0.082924455 0.05028975 -0.12126751 0.082747035
-0.03776404 -0.030813947 0.08698888 -0.11696252 -0.06271785 -0.09702883 -0.09806726 -0.117353335
-0.07977958 -0.103527635 -0.064252555 0.09575114 0.019533262 0.0021717367 0.10402179 0.06496272
0.09743778 0.029286504 0.081224136 -0.04456022 0.09063253 0.09107568 0.06430415 0.051470116
0.082627706 -0.06575538 0.04954544 -0.07630122 0.05042527 0.10693812 -0.07338579 -0.087855205
0.0006728624 0.10513639 -0.06216449 0.10321638 -0.07119669 -0.11947789 0.022033542 -0.02711159
0.017998189 0.08059533 -0.052180998 0.11993588 -0.121193945 0.034477323 0.014353594 0.039453205
0.066506915 -0.045406427 0.08490887 0.0021008174 -0.02469498 0.10842958 0.071133256 0.010629732
0.09523995 0.0679976 -0.11190611 0.07186907 -0.061560392 0.0038376444 -0.09434073 0.11061164
0.027593303 0.111904316 -0.102957845 0.034733623 0.086103715 -0.07092436 -0.035463866 -0.010897502
-0.08915592 0.009671062 0.032834146 -0.049807493 0.07786066 0.08924517 0.049718216 -0.113255285
-0.08413679 -0.056820884 0.022374604 0.05113552 0.045336135 -0.11975793 -0.07873776 -0.045217685
0.06980013 0.10425365 0.086362645 0.090386525 -0.10454185 -0.0061865747 0.004813769 -0.11019448
0.034542564 -0.053214975 -0.10140471 0.05833952 -0.086484246 -0.0007758935 0.087021016 0.0313403
-0.087856546 -0.09658383 -0.071913965 -0.03983116 -0.01293519 -0.0750844 0.06247602 0.10732075

bias f4 [6]
00000000: f05a cabc 685b 83bc 80d5 b23c 9004 493c
00000010: 088b c23c 6055 a83b
-0.024701566 -0.016034797 0.02183032 0.012269154 0.023747936 0.0051371306
