models/gg-2023-11-10_01-33.pt (torch, 172816 bytes, 8 tensors)

_layers.0.weight f4 [256, 19]
-0.04250969 0.0075868815 0.13572218 0.1490315 -0.028825328 0.2255479 -0.12213301 0.015420169
-0.14378381 0.03755589 0.20909514 -0.18976954 0.05396755 -0.2108399 -0.051310077 -0.10782176
0.00038672984 -0.15920931 0.0582646 -0.19869928 0.20027143 0.003893277 -0.39261305 0.08213038
0.07324741 -0.20787139 -0.06377793 -0.3275526 -0.3545799 -0.056959353 -0.0063027474 0.38724786
-0.50046575 0.025557833 0.29198024 0.38741994 -0.13431874 0.29126987 0.18807302 -0.19313602
-0.18921192 -0.15091026 -0.19728848 -0.068830505 0.08398102 -0.20927608 -0.22422223 -0.19754624
-0.1197008 0.14383738 0.20340078 0.22790782 0.0024992675 -0.19430359 0.22372411 -0.15421262
0.08661805 0.09756577 0.33502606 0.054977946 -0.16229837 -0.32476732 -0.26745304 0.22843586
-0.35940132 -0.13311018 0.19699632 0.29455242 -0.27609092 -0.23970596 0.5076586 0.02606473
-0.32914722 0.14125775 -0.36453548 0.34657544 0.14411615 0.13198484 -0.005386211 -0.15346862
-0.32271278 0.2501163 -0.16134958 0.27788132 -0.20145634 0.22899769 0.34572783 -0.019259583
0.075939916 -0.35938913 -0.049179174 -0.18480942 -0.34073752 0.08834679 -0.09219886 -0.02388583
0.59513867 0.28282094 0.05245836 -0.18889092 -0.094122306 0.2255138 0.33005136 0.29994327
-0.11382499 -0.20165733 0.016066026 -0.33411235 0.27975976 -0.08653789 0.0063778893 -0.38906068
0.10009292 -0.64522046 0.022330144 -0.65677714 0.14873499 0.012073006 0.04422309 -0.2919197
-0.16193388 0.4479789 0.34767264 0.374885 -0.02956643 0.16743074 0.1283529 0.15367714
-0.24364868 -0.13972184 -0.16956715 -0.13003606 0.03713522 0.025489962 -0.11237338 0.044896968
-0.11324654 -0.5457552 0.12034948 -0.24469912 -0.023180762 0.03523414 0.05243553 -0.13064255
-0.27052507 0.32735544 0.27231994 0.32553193 0.22335467 0.3026126 -0.0073246364 -0.031467278
-0.20035313 -0.14561239 0.47024396 0.13096829 0.60676974 0.3144323 0.11233294 -0.2777844
-0.17852245 -0.090513594 -0.33697724 -0.25127682 0.043067805 0.26938602 -0.25807562 0.25707263
-0.06873214 -0.20817266 0.08653483 0.045718476 -0.09257594 -0.116099685 0.065341815 0.011493117
-0.030734837 0.11646734 -0.097564 0.18046062 -0.15645508 -0.11938386 0.079457864 0.14098828
-0.002808988 -0.18009032 -0.009164646 -0.07745223 -0.073305786 -0.04240462 0.053294588 -0.056473628
-0.16282517 -0.11026163 -0.1939214 -0.2310528 0.10879132 0.12700893 0.171547 0.01544478
-0.09606698 -0.13988104 0.113272846 -0.14158008 0.16970661 -0.12793337 -0.21533206 -0.16711679
0.18537614 0.20293717 -0.234901 0.0256639 0.16979463 0.19328387 0.16200133 -0.4863824
0.010508785 0.2143604 -0.34505147 0.22570133 -0.2223565 -0.53138846 0.25516346 0.16836892
-0.032042835 -0.08091614 0.28610393 0.09363165 -0.03213182 -0.5411727 0.3225823 0.009566639
-0.24243312 0.3340625 -0.08979938 0.21259928 0.31811276 -0.16767132 -0.35051724 -0.09921324
0.21169527 0.39515054 -0.085881434 -0.2541157 0.090596974 -0.13540949 0.3677952 -0.00975287
-0.5681995 -0.33837333 0.06867315 0.2569886 0.27162966 0.012027349 0.22941878 0.009847156
00000000: a41e 2ebd 609b f83b c1fa 0a3e b79b 183e
00000010: 1823 ecbc 07f6 663e df20 fabd e0a4 7c3c
00000020: 103c 13be 34d4 193d 091d 563e f252 42be
00000030: 140d 5d3d 6ae6 57be 842a 52bd a8d1 dcbd
00000040: 00c2 ca39 c407 23be dca6 6e3d d377 4bbe
00000050: f413 4d3e 5926 7f3b 9404 c9be f933 a83d
00000060: bd02 963d 3ddc 54be 019e 82bd f9b4 a7be
00000070: 7f8b b5be 364e 69bd 4787 cebb 5a45 c63e
00000080: 861e 00bf a95e d13c 6f7e 953e e85b c63e
00000090: da8a 09be 5321 953e 3796 403e 73c5 45be
000000a0: c5c0 41be 3888 1abe fe05 4abe 02f7 8cbd
000000b0: 3efe ab3d 784c 56be 839a 65be 9049 4abe
000000c0: b125 f5bd 1b4a 133e 4b48 503e ab60 693e
000000d0: c0ca 233b 85f7 46be ef17 653e eae9 1dbe
000000e0: ce64 b13d 90d0 c73d 8988 ab3e 8e30 613d
000000f0: 8b31 26be e747 a6be 9bef 88be 17eb 693e
00000100: 7303 b8be 094e 08be 67b9 493e 93cf 963e
00000110: ca5b 8dbe 7b75 75be eaf5 013f b385 d53c
00000120: fc85 a8be dfa5 103e 65a4 babe 5672 b13e
00000130: 2f93 133e 0927 073e d07e b0bb e126 1dbe
00000140: 9c3a a5be 3e0f 803e d338 25be 7646 8e3e
00000150: 924a 4ebe 5f7e 6a3e 3d03 b13e 46c6 9dbc
00000160: 6386 9b3d da01 b8be 1a70 49bd ae3e 3dbe
00000170: 2675 aebe 29ef b43d c2d2 bcbd 37ac c3bc
00000180: 025b 183f e8cd 903e 94de 563d 9f6c 41be
00000190: 32c3 c0bd 17ed 663e 7efc a83e 2a92 993e
000001a0: 141d e9bd 427f 4ebe e69c 833c c610 abbe
000001b0: ac3c 8f3e c73a b1bd 9dfd d03b f632 c7be
000001c0: 84fd cc3d 2b2d 25bf b5ed b63c 8c22 28bf
000001d0: fc4d 183e dbcd 453c 4523 353d 8076 95be
000001e0: ffd1 25be 7e5d e53e 2602 b23e edf0 bf3e
000001f0: 4c35 f2bc f772 2b3e f16e 033e 8a5d 1d3e
00000200: 0a7f 79be 3e13 0fbe 03a3 2dbe 2c28 05be
00000210: 1a1b 183d 53d0 d03c 0424 e6bd e2e5 373d
00000220: cded e7bd 9db6 0bbf ca79 f63d 6892 7abe
00000230: 95e5 bdbc ac51 103d a3c6 563d 29c7 05be
00000240: 4382 8abe 229b a73e 856d 8b3e 1fac a63e
00000250: 16b7 643e 0af0 9a3e 8103 f0bb d5e3 00bd
00000260: 5f29 4dbe 6a1b 15be d1c3 f03e 8d1c 063e
00000270: 4355 1b3f 45fd a03e d00e e63d c239 8ebe
00000280: 97ce 36be 315f b9bd 4888 acbe 5ba7 80be
00000290: de67 303d f7ec 893e 7d22 84be 069f 833e
000002a0: 70c3 8cbd 372b 55be 2c39 b13d 4c43 3b3d
000002b0: 7498 bdbd acc5 edbd eed1 853d a04d 3c3c
000002c0: a0c7 fbbc 6e86 ee3d a2cf c7bd abca 383e
000002d0: c335 20be 867f f4bd ceba a23d 3b5f 103e
000002e0: 0017 38bb 9969 38be 5027 16bc 469f 9ebd
000002f0: 5821 96bd 78b0 2dbd 6d4b 5a3d e450 67bd
00000300: a4bb 26be d9d0 e1bd 5593 46be 1b99 6cbe
00000310: fccd de3d a10e 023e 04aa 2f3e 1a0c 7d3c
00000320: c4be c4bd fa3c 0fbe 98fb e73d 5efa 10be
00000330: 92c7 2d3e f700 03be 0280 5cbe aa20 2bbe
00000340: 3ed3 3d3e c3ce 4f3e e389 70be 193d d23c
00000350: a5de 2d3e 35ec 453e ade3 253e 1d07 f9be
00000360: 0a2d 2c3c 4b81 5b3e 96aa b0be 401e 673e
00000370: 6cb1 63be 1309 08bf c9a4 823e e768 2c3e
00000380: 593f 03bd 5cb7 a5bd 377c 923e f3c1 bf3d
00000390: a89c 03bd 4b8a 0abf 8229 a53e 64bd 1c3c
000003a0: 6340 78be 3d0a ab3e bde8 b7bd a0b3 593e
000003b0: addf a23e 08b2 2bbe ff76 b3be 5030 cbbd
000003c0: a5c6 583e 2c51 ca3e 9be2 afbd 741b 82be
000003d0: e88a b93d c9a8 0abe a74f bc3e 80ca 1fbc
000003e0: 8675 11bf 453f adbe 82a4 8c3d 0394 833e
000003f0: 0b13 8b3e 5c0e 453c c2ec 6a3e f755 213c

_layers.0.bias f4 [256]
-0.18643548 0.007726265 -0.13200969 0.16160971 0.1185434 -0.03123406 -0.059637457 -0.11587026
-0.17536068 -0.100457415 -0.034012347 0.18486175 -0.19941913 0.07130392 -0.22677784 -0.07218104
-0.04234704 0.061819226 0.07345467 0.015435216 -0.19451274 -0.1610528 -0.17905925 0.018251283
0.26369083 -0.03195408 0.22339809 -0.07832812 0.089516416 -0.1285854 -0.073086575 0.100645974
0.067379914 0.09002183 -0.052481696 -0.03979455 -0.27124968 -0.03718849 -0.08028416 0.108415864
-0.17130287 0.07182954 0.07710172 -0.25134858 -0.089281246 0.14090815 -0.063841045 0.14624536
0.19330175 -0.15494981 0.07801063 0.17687862 -0.07792054 -0.14265011 0.110229224 -0.12724192
-0.032906912 -0.062783286 -0.2116373 -0.005401176 0.016888838 0.19761363 -0.027419226 0.21795811
-0.13952836 0.047107402 0.25695217 0.027091565 0.060028635 -0.06557505 0.009066645 0.16705173
-0.09197673 0.19147982 -0.24535853 0.077898815 -0.14355007 -0.18082252 0.2705436 -0.11162096
-0.03588572 0.037681073 0.22658922 -0.13522825 -0.08404091 -0.014673697 0.018773647 -0.21470201
0.11864669 -0.232256 0.17499757 0.18869545 0.004171795 0.16319461 -0.2159128 0.09859226
-0.2003605 0.19808154 -0.13885173 0.07244794 -0.023472603 -0.07438775 -0.13455904 0.15937836
-0.111981794 0.08246224 0.21702716 -0.061705522 0.03537063 0.04248228 0.14342293 -0.06837234
-0.034538094 -0.17232049 -0.21851428 -0.014716487 -0.15044501 -0.07784941 0.19554873 -0.1282944
0.1272983 -0.1876657 0.22785343 -0.10714768 0.1502826 -0.18202686 -0.17883922 0.19990107
0.11173303 -0.20011696 -0.18004481 0.23850195 0.17781763 -0.2490039 -0.0625463 0.004868045
-0.016413972 -0.0016396992 -0.17591533 -0.051366076 0.11273772 0.25719464 -0.07466919 -0.026351493
-0.18991871 -0.12030821 0.008948545 -0.09721217 0.08786117 0.046235826 0.071845986 0.021007666
-0.16151081 0.09231262 0.0006047099 -0.17690523 -0.12327161 0.08464291 0.016754048 -0.07077445
0.20377825 0.21339463 -0.06708327 0.14619242 0.2926237 0.12425941 0.25956476 -0.16038263
-0.20700677 -0.11577191 0.12663534 0.031264897 -0.0047020763 0.12896791 -0.1264983 0.2370826
-0.2162609 0.143741 0.1313904 -0.044602256 0.17575425 0.17806014 0.0037855124 0.062084302
-0.115050234 0.038751885 0.14853679 0.09465206 -0.21184896 0.16576484 0.010277089 0.16448149
0.15184435 -0.04199995 -0.16279303 -0.054334678 0.11217429 0.13687891 -0.18041079 -0.24900092
-0.21247049 0.084519245 0.16354729 0.26079968 -0.04770921 0.07371785 0.021055881 -0.051164582
-0.17716394 0.06793746 -0.105713665 0.20966007 0.21784358 0.20592624 0.1436226 -0.011052307
0.043547243 0.16447674 -0.26726022 0.10281931 0.20541775 -0.058376458 0.056220844 -0.22223744
0.13170306 -0.055377603 -0.17198862 -0.068455115 -0.040934235 0.010620148 -0.10775762 -0.1819534
0.16704625 0.04423211 -0.16759424 0.11027537 0.0045778994 0.1132037 -0.23578227 -0.14329682
-0.0138771795 -0.05054311 -0.20335004 -0.14173697 0.022730878 0.12900981 0.018534318 0.0433382
-0.24246137 -0.01955271 0.11942103 -0.1234715 0.05150272 0.0403239 -0.16108559 0.11701465
00000000: f1e8 3ebe 9c2c fd3b 8c2d 07be 047d 253e
00000010: e2c6 f23d 92de ffbc 6846 74bd 634d edbd
00000020: c091 33be 9ebc cdbd 8850 0bbd 664c 3d3e
00000030: 8734 4cbe ca07 923d 7338 68be a7d3 93bd
00000040: 1774 2dbd 2836 7d3d 676f 963d fde3 7c3c
00000050: 592e 47be 06eb 24be 4f5b 37be b783 953c
00000060: 7c02 873e 48e2 02bd 78c2 643e 7e6a a0bd
00000070: 6254 b73d e4ab 03be 6aae 95bd 7a1f ce3d
00000080: 7bfe 893d 5d5d b83d 0cf7 56bd 9cff 22bd
00000090: 3de1 8abe f552 18bd 066c a4bd 2309 de3d
000000a0: 056a 2fbe 5e1b 933d 82e7 9d3d c3b0 80be
000000b0: 16d9 b6bd 3a4a 103e 18bf 82bd 58c1 153e
000000c0: e5f0 453e 2aab 1ebe 0ac4 9f3d ab1f 353e
000000d0: ce94 9fbd df12 12be dcbf e13d b54b 02be
000000e0: 66c9 06bd 8694 80bd 73b7 58be 59fc b0bb
000000f0: 765a 8a3c 3a5b 4a3e 499e e0bc 6930 5f3e
00000100: 86e0 0ebe b1f3 403d 3c8f 833e 21ef dd3c
00000110: 96e0 753d 364c 86bd 448c 143c 9c0f 2b3e
00000120: 4c5e bcbd 4913 443e 443f 7bbe 6a89 9f3d
00000130: cafe 12be 8a29 39be b184 8a3e 8899 e4bd
00000140: e8fc 12bd 7857 1a3d 0107 683e 4679 0abe
00000150: a41d acbd f269 70bc 31cb 993c d8da 5bbe
00000160: 09fd f23d 84d4 6dbe 9032 333e 6139 413e
00000170: 8eb3 883b 7d1c 273e 3f18 5dbe bdea c93d
00000180: 4e2b 4dbe e3d5 4a3e 262f 0ebe 965f 943d
00000190: 9e49 c0bc 9b58 98bd d8c9 09be 1534 233e
000001a0: b656 e5bd f6e1 a83d 5e3c 5e3e eebe 7cbd
000001b0: cbe0 103d e601 2e3d 76dd 123e cc06 8cbd
000001c0: d177 0dbd c874 30be 35c2 5fbe 6c1d 71bc
000001d0: 420e 1abe 836f 9fbd ed3d 483e 9b5f 03be
000001e0: 7c5a 023e 702b 40be 6952 693e 3e70 dbbd
000001f0: afe3 193e 4065 3abe a121 37be deb2 4c3e
00000200: 49d4 e43d 76eb 4cbe ab5d 38be db39 743e
00000210: d315 363e e1fa 7ebe 4618 80bd 1f84 9f3b
00000220: 9876 86bc 2deb d6ba 2623 34be 3c65 52bd
00000230: 09e3 e63d 04af 833e 29ec 98bd 16df d7bc
00000240: 0d7a 42be 2764 f6bd eb9c 123c 2d17 c7bd
00000250: 8ff0 b33d c761 3d3d fd23 933d 4518 ac3c
00000260: 1763 25be 660e bd3d 6585 1e3a a526 35be
00000270: d375 fcbd 4359 ad3d c93f 893c 32f2 90bd
00000280: 3fab 503e 1f84 5a3e f462 89bd 77b3 153e
00000290: c6d2 953e b87b fe3d ace5 843e 583b 24be
000002a0: 95f9 53be d319 edbd b2ac 013e 9f0f 003d
000002b0: e013 9abb 2a10 043e c588 01be c8c5 723e
000002c0: 7f73 5dbe d730 133e 348b 063e dbb0 36bd
000002d0: ecf8 333e 6655 363e 5c16 783b 1c4c 7e3d
000002e0: 759f ebbd 4cba 1e3d 071a 183e f0d8 c13d
000002f0: efee 58be 42be 293e 3c61 283c d66d 283e
00000300: 167d 1b3e 2408 2cbd 37b3 26be 0a8e 5ebd
00000310: a2bb e53d fc29 0c3e 9bbd 38be 19fa 7ebe
00000320: dd91 59be 6d18 ad3d f178 273e 8987 853e
00000330: bc6a 43bd 62f9 963d 627d ac3c f491 51bd
00000340: 776a 35be cc22 8b3d 6880 d8bd 21b1 563e
00000350: 6312 5f3e 54de 523e ce11 133e bc14 35bc
00000360: 985e 323d 976c 283e 55d6 88be ee92 d23d
00000370: 0859 523e 271c 6fbd d447 663d 3692 63be
00000380: 2bdd 063e a0d3 62bd c91d 30be 3232 8cbd
00000390: a8aa 27bd 2100 2e3c 07b0 dcbd fe51 3abe
000003a0: 2c0e 2b3e bb2c 353d d39d 2bbe 0ed8 e13d
000003b0: 3402 963b 57d7 e73d e870 71be 67bc 12be
000003c0: 1c5d 63bc 4b06 4fbd fe3a 50be 7f23 11be
000003d0: 1b36 ba3c 261b 043e 48d5 973c 6583 313d
000003e0: cb47 78be 012d a0bc 0393 f43d a0de fcbd
000003f0: 84f4 523d ac2a 253d 9ff3 24be 60a5 ef3d

_layers.2.weight f4 [128, 256]
0.037924603 0.73145825 0.05090577 -0.08031135 0.13221528 -0.7311343 0.49562958 0.10827276
0.28387138 -0.0072182715 -0.064235106 0.18860108 0.11718015 0.12542541 -0.059606634 -0.10633546
-0.045274556 -0.29083812 0.009542768 -0.7253956 -0.062103055 -0.043878533 -0.35717764 0.1262911
0.482737 -0.0023214966 0.25250974 -0.03705725 0.09363489 0.042256437 0.038821366 -0.09671986
0.26418942 -0.106018476 -0.23153688 -0.027329603 1.1366396 -0.08105557 -0.33166042 0.22774968
1.095335 -0.30196863 -0.31549823 -0.044057917 -0.058988936 -0.12935498 0.11777884 0.17893884
-0.28663874 0.031661704 0.025172025 0.788706 0.38121253 -0.030792572 -0.4572343 0.17977569
0.061319266 0.018655974 -0.03877455 0.374168 0.057791818 0.036767066 0.021688676 0.15866554
-0.09511549 -0.11429145 0.122783154 -0.015020604 0.40951967 0.032596968 0.23831603 0.14852563
0.038413037 0.21844524 -0.031701766 0.25582117 -0.7017786 0.01714237 0.028255252 0.18920505
-0.006359406 0.0071444265 0.26832324 0.027823031 -0.0058530793 -0.28513017 0.006410946 0.5325904
-0.00899888 0.06261728 0.17576338 0.2655773 0.61135787 -0.13895416 0.046520576 -0.20470782
0.047032885 0.04927148 0.21619889 -0.08975816 0.13850623 -0.95397437 0.8423169 -0.22965096
0.012971729 0.23530117 0.14692229 0.047218632 -0.21064264 0.08761496 0.10483974 -0.3245493
0.08315656 0.046815783 -0.119551994 -0.4312966 -0.012030244 -0.15215816 -0.55202574 -0.62482536
-0.9502069 -0.0028467104 0.34451547 0.017428562 -0.08377719 0.2874624 0.048988596 -0.16880995
0.33145764 -0.010537811 0.03080763 0.1007182 -0.1522215 0.24279293 0.2277422 -0.07383549
-0.6571249 -0.015320078 -0.35506278 0.09817685 0.19152154 -0.00502164 0.8378768 0.02892629
0.17839769 0.2177676 0.1617707 0.03576197 -2.3182032 0.30877158 0.023192894 -0.22458155
0.04891488 -0.18764925 0.024594277 -0.43672064 -0.032672316 -0.771309 -0.14037363 -0.67746353
0.5001624 0.1545529 -0.1290301 0.44354555 0.15986323 0.05025374 -0.19101994 0.09356204
0.35869542 0.20900784 0.14153856 0.14382982 -0.049751803 -0.27250746 -0.4931282 0.31663367
-0.024650611 -0.39972645 -0.29272145 -0.14419706 0.12199779 -0.30086237 0.087040804 0.0022388215
-0.01844499 -0.020915218 -0.1840822 0.21265449 0.0838096 0.6951532 -0.07074249 0.43496147
0.041043706 0.09196157 0.020096755 -0.43704748 0.13079424 -0.09852451 0.138829 -0.094189174
0.064677134 0.060974322 -0.032663234 0.27532458 -0.37496713 0.031149099 -1.0139523 -0.17754133
1.3389931 -0.13460843 0.14754695 -0.05104243 0.37607008 -0.34171578 0.12144174 -0.13532764
0.19776255 0.2744722 0.13642403 0.055180993 0.74687093 0.17708582 -0.030414358 -0.12580575
-0.029905634 -0.11569286 -0.021281963 1.0103763 -0.22652207 0.8121056 -0.12960173 0.043620188
0.26279438 -0.4250579 -0.34283328 -0.0035416484 0.015869897 -0.20991032 0.091133304 0.10476627
0.34332994 0.27055535 0.20379148 0.19236384 0.064157076 0.38018423 0.016625658 -0.1846604
-0.098726615 0.09915651 -0.046418454 0.004537061 -0.0026329681 0.06316542 -0.32415754 0.10536445
00000000: d456 1b3d d940 3b3f 9282 503d 477a a4bd
00000010: 7163 073e 9e2b 3bbf 29c3 fd3e 1cbe dd3d
00000020: 9757 913e 4087 ecbb b28d 83bd a420 413e
00000030: 25fc ef3d 856f 003e 1626 74bd 68c6 d9bd
00000040: d071 39bd bce8 94be 4559 1c3c 87b3 39bf
00000050: c65f 7ebd fab9 33bd fddf b6be 7452 013e
00000060: 4e29 f73e 4024 18bb f548 813e 58c9 17bd
00000070: a6c3 bf3d 1615 2d3d 2703 1f3d 1015 c6bd
00000080: d643 873e 3720 d9bd 0118 6dbe 55e2 dfbc
00000090: 687d 913f 7600 a6bd 65cf a9be 3637 693e
000000a0: f033 8c3f a29b 9abe fc88 a1be 1376 34bd
000000b0: 629e 71bd a275 04be 0836 f13d be3b 373e
000000c0: 50c2 92be b4af 013d 9035 ce3c a3e8 493f
000000d0: 4a2e c33e b440 fcbc 9d1a eabe 1e17 383e
000000e0: e929 7b3d 6ad4 983c 10d2 1ebd f392 bf3e
000000f0: 1db7 6c3d 1099 163d 73ac b13c 3879 223e
00000100: e9cb c2bd a311 eabd bc75 fb3d fb18 76bc
00000110: 90ac d13e 6684 053d 1e09 743e 1a17 183e
00000120: fd56 1d3d 1cb0 5f3e b6d9 01bd fefa 823e
00000130: c3a7 33bf 286e 8c3c 8f77 e73c f8be 413e
00000140: 9062 d0bb cb1b ea3b aa61 893e 20ed e33c
00000150: 30cb bfbb 95fc 91be ea12 d23b d857 083f
00000160: 0a70 13bc 7d3d 803d 51fb 333e bff9 873e
00000170: f381 1c3f 004a 0ebe 5c8c 3e3d ed9e 51be
00000180: 8ea5 403d e4d0 493d 3e63 5d3e 20d3 b7bd
00000190: 94d4 0d3e aa37 74bf 15a2 573f 9f29 6bbe
000001a0: 6087 543c caf2 703e cc72 163e 5368 413d
000001b0: b4b2 57be 796f b33d 38b6 d63d 532b a6be
000001c0: fd4d aa3d e8c1 3f3d add7 f4bd e8d2 dcbe
000001d0: 801a 45bc 59cf 1bbe 8f51 0dbf 8ef4 1fbf
000001e0: c240 73bf e08f 3abb 5564 b03e 58c6 8e3c
000001f0: 6093 abbd 462e 933e 44a8 483d 84dc 2cbe
00000200: d1b4 a93e c8a6 2cbc 4860 fc3c 5845 ce3d
00000210: f4df 1bbe b69e 783e 4035 693e 1037 97bd
00000220: 5639 28bf 1001 7bbc caca b5be f210 c93d
00000230: 391e 443e 928c a4bb 187f 563f d4f6 ec3c
00000240: e2ad 363e 78fe 5e3e 38a7 253e 257b 123d
00000250: 715d 14c0 4f17 9e3e 06ff bd3c b5f8 65be
00000260: f85a 483d 2027 40be f079 c93c d999 dfbe
00000270: 68d3 05bd 8274 45bf 1bbe 0fbe 406e 2dbf
00000280: a50a 003f 1e43 1e3e 7720 04be 6718 e33e
00000290: 30b3 233e ded6 4d3d bb9a 43be 749d bf3d
000002a0: eda6 b73e 2706 563e 7cef 103e 2048 133e
000002b0: 8cc8 4bbd 1986 8bbe 4d7b fcbe cf1d a23e
000002c0: 14f0 c9bc f2a8 ccbe 96df 95be 65a8 13be
000002d0: fad9 f93d a20a 9abe 7342 b23d 31b9 123b
000002e0: f319 97bc 6456 abbc 0b80 3cbe 19c2 593e
000002f0: 5ea4 ab3d 8ff5 313f 70e1 90bd 45b3 de3e
00000300: 721d 283d 5956 bc3d f3a1 a43c b0c4 dfbe
00000310: edee 053e 38c7 c9bd 3029 0e3e 41e6 c0bd
00000320: 7275 843d 36c0 793d e2c9 05bd 58f7 8c3e
00000330: b1fb bfbe 652c ff3c 30c9 81bf 65cd 35be
00000340: 2064 ab3f cbd6 09be 8c16 173e de11 51bd
00000350: 428c c03e 5ff5 aebe 72b6 f83d 5493 0abe
00000360: 4482 4a3e 9f87 8c3e beb2 0b3e 7705 623d
00000370: ef32 3f3f fc55 353e 8827 f9bc 39d3 00be
00000380: a9fc f4bc 61f0 ecbd 8357 aebc 0354 813f
00000390: 67f5 67be 27e6 4f3f 51b6 04be 15ab 323d
000003a0: fc8c 863e 30a1 d9be d887 afbe 001b 68bb
000003b0: 9601 823c bbf2 56be 19a4 ba3d b38f d63d
000003c0: f1c8 af3e 3b86 8a3e b7ae 503e 07fb 443e
000003d0: c964 833d 82a7 c23e 8832 883c 9e17 3dbe
000003e0: 2e31 cabd 9112 cb3d 4721 3ebd a0ab 943b
000003f0: e08d 2cbb df5c 813d faf7 a5be 51c9 d73d

_layers.2.bias f4 [128]
0.049629457 0.13079129 0.062466856 -0.04088095 -0.12430824 0.13836023 -0.06248427 0.0025985036
0.23694904 0.124331065 0.014700259 0.102525055 0.012534352 0.0008863359 0.10113 0.1769516
0.11217426 -0.08498995 0.18281333 0.05934471 0.104802266 0.020844378 -0.06343834 -0.016265128
0.031421512 -0.0503669 -0.018284783 -0.13139719 0.17097387 -0.06980628 0.020425327 0.090163216
0.019777106 0.074287385 0.092209585 -0.123192444 0.117158994 0.13028245 0.12264552 0.10632448
0.08127906 0.079155184 0.21039401 -0.06829581 0.224519 0.08869847 0.020353775 -0.028337443
-0.02182724 -0.10532653 0.20595829 0.014694115 0.082972065 0.11764255 0.13891074 0.11390461
0.17034051 -0.0176733 0.016559752 0.13930921 0.078731485 0.001115139 -0.051350728 0.1971343
0.15306951 -0.10020216 0.04826457 -0.035537075 0.062184475 0.03343925 0.12241131 0.05238938
0.103696644 -0.016197931 0.04425841 0.06576112 -0.083376944 -0.033091385 0.1539727 0.07755067
0.15463622 0.060733814 -0.060374264 -0.0034597924 0.057789553 0.025527216 -0.012036968 0.13037106
0.16233449 0.11813334 -0.043735713 0.05544489 0.13043153 0.080151565 -0.03308243 0.1555901
-0.06192289 0.096131265 0.14500237 0.05805953 0.16034512 0.13368075 0.09453729 0.00732685
0.11937803 0.021095647 -0.004703521 -0.13896063 -0.07486289 -0.08327104 0.17037506 -0.014484069
0.030711044 0.13422036 0.12231767 -0.07672928 -0.00024383761 0.026245292 -0.0015335078 0.056079194
0.057625193 0.031414732 0.012738419 0.14351235 0.09685379 0.039136287 0.008293479 0.044412054
00000000: 4248 4b3d 27ee 053e 3fdd 7f3d c872 27bd
00000010: 5295 febd 4eae 0d3e 82ef 7fbd a84b 2a3b
00000020: c5a2 723e 49a1 fe3d 5bd9 703c a8f8 d13d
00000030: e25c 4d3c ff58 683a 3f1d cf3d cd32 353e
00000040: 9ebb e53d 360f aebd 6b33 3b3e 7013 733d
00000050: 92a2 d63d d4c1 aa3c f6eb 81bd 723e 85bc
00000060: d8b3 003d 864d 4ebd f8c9 95bc fc8c 06be
00000070: c613 2f3e 98f6 8ebd 0453 a73c 7ea7 b83d
00000080: 9903 a23c fc23 983d 61d8 bc3d 524c fcbd
00000090: 0ef1 ef3d c368 053e 932d fb3d a6c0 d93d
000000a0: a375 a63d 1d1c a23d 8771 573e acde 8bbd
000000b0: 4fe8 653e 8ba7 b53d f6bc a63c ed23 e8bc
000000c0: 0acf b2bc 70b5 d7bd bbe6 523e 96bf 703c
000000d0: 42ed a93d 94ee f03d 9e3e 0e3e d246 e93d
000000e0: be6d 2e3e 99c7 90bc 51a8 873c 13a7 0e3e
000000f0: f93d a13d db29 923a 2455 52bd 93dd 493e
00000100: 41be 1c3e ca36 cdbd 12b1 453d 538f 11bd
00000110: 26b5 7e3d 98f7 083d c8b2 fa3d 3f96 563d
00000120: e85e d43d 86b1 84bc 4e48 353d c4ad 863d
00000130: 88c1 aabd d58a 07bd 05ab 1d3e e3d2 9e3d
00000140: f558 1e3e 05c4 783d 014b 77bd afbd 62bb
00000150: bdb4 6c3d 741e d13c b436 45bc fe7f 053e
00000160: 033b 263e e4ef f13d 3824 33bd 2e1a 633d
00000170: d88f 053e 8126 a43d 7181 07bd 0353 1f3e
00000180: dba2 7dbd 78e0 c43d 807b 143e d4cf 6d3d
00000190: 8331 243e 9be3 083e c49c c13d 1316 f03b
000001a0: 787c f43d c7d0 ac3c fe1f 9abb b24b 0ebe
000001b0: b751 99bd 028a aabd cd76 2e3e 974e 6dbc
000001c0: ba95 fb3c 1071 093e b081 fa3d 3e24 9dbd
000001d0: a9ae 7fb9 5e00 d73c fcff c8ba 4cb3 653d
000001e0: 6508 6c3d bcac 003d cdb4 503c e7f4 123e
000001f0: 485b c63d 5f4d 203d 5fe1 073c 6ae9 353d

_layers.4.weight f4 [32, 128]
-0.12753642 -0.972932 0.17129396 -0.03711695 -0.29773295 0.24591875 -0.020736847 -0.00011847826
0.48458973 0.014969849 0.56644624 0.08067344 0.18095793 0.7608903 0.15558039 0.9390167
0.25369713 1.602182 0.5973951 0.040467214 0.13073201 0.20184511 0.76726514 0.042717643
0.29028535 -0.07710234 -0.18532483 -0.36722904 -0.32525903 0.796688 0.044985127 1.0877806
-0.3083737 -0.06795884 -0.35193416 1.8142897 0.2287995 0.45327562 -0.02748816 0.1422218
0.18262975 0.10568175 0.256212 -0.19079588 0.18020576 0.27472293 0.052808624 -0.05715377
-0.007491482 -0.056748103 0.11624661 0.27305046 0.45802885 -0.14328046 -0.18156374 0.060986973
0.23329057 -0.029805575 1.5697187 -1.1315732 0.25360468 0.084658 -0.653873 0.11848354
-0.21512938 -0.151888 0.03788807 0.22427855 -1.4634358 -0.065244965 0.60956186 0.76731014
0.09119148 -0.023635883 -0.092209384 -0.016477533 -1.3184432 -0.03008431 0.04915645 -0.29699126
0.23925748 0.59984845 -0.087636285 0.5893118 0.17862135 -0.1618018 -0.7577482 0.14912803
0.092997916 0.521242 -0.017456308 -0.5166418 -0.80575347 0.073101334 0.69211733 0.18994363
0.29724923 -0.42682126 0.64322776 0.033501368 0.026056206 0.05887671 -1.5007844 0.051881414
0.23245537 0.055050727 -0.0089732045 -0.65481293 -1.4949712 -1.104692 0.513884 -0.69617367
-0.21046758 0.2016173 0.17973188 -0.070298865 0.26296446 -0.4983323 -0.05312759 -0.095273726
0.9936802 0.88539135 0.0746157 -0.16253667 0.20819016 0.31222257 0.48012677 -0.09131486
0.037938017 0.13193326 0.17313269 0.076969095 1.1496091 0.2757 0.040386453 -0.8119091
-0.08800318 0.9348883 0.196156 -0.2793199 -0.86311096 -0.52927035 -0.034636483 -0.25265568
0.24285436 0.04594109 -0.03859096 0.14809552 -0.5710782 -0.35889965 -0.24373217 -0.22014515
-0.18172187 0.034982126 0.14023627 0.501299 0.5388719 -0.033194743 0.14622515 -0.14301275
-0.28839073 -0.098539844 0.16553529 -1.0999092 0.33748525 -1.0106496 -0.1578942 0.58187765
0.23371612 0.011688912 -0.02632798 0.23478672 -0.042170964 0.27187398 0.028914705 -0.026247445
0.056502964 0.63752896 0.19976257 -0.33042935 -0.5135785 0.8481349 0.46424723 0.07276188
0.17781949 -0.18604189 0.1481754 0.6724779 0.034782212 -0.37107953 0.90875715 -0.06561385
0.99876314 0.066561855 0.18652964 -0.46000412 0.02887099 0.14746083 -0.2100106 -0.7447599
0.087656885 0.03184996 -0.015296738 -0.049247913 -0.28202426 -0.16027012 0.2747112 0.08677048
0.13703378 -0.4922599 -0.075594865 -0.3678959 0.4599691 0.4337776 1.1527814 -0.1448167
0.29267153 -0.67443293 -0.058586456 0.021492485 1.2658782 0.13086683 -0.8360073 -0.061521318
-0.50584686 0.8883124 0.14451815 0.06343684 -0.46330807 0.059334166 -0.044211287 0.07063548
0.23210517 -0.28686556 0.022522865 0.34533402 0.35134748 0.66338545 0.22423849 0.35082468
0.30735055 0.03223484 -0.18942873 -0.6505369 -0.02613689 0.3976207 -0.30753767 0.08160308
-0.66605264 0.505569 -0.06268668 -0.37529883 -0.020259487 -1.6801376 -0.017752623 0.33086562
00000000: e898 02be 1212 79bf af67 2f3e f107 18bd
00000010: 7470 98be 20d2 7b3e 52e0 a9bc 8877 f8b8
00000020: 251c f83e 1944 753c 9f02 113f 1e38 a53d
00000030: 094d 393e b5c9 423f 7750 1f3e 6663 703f
00000040: 97e4 813e 4d14 cd3f e3ee 183f f3c0 253d
00000050: 9dde 053e 7cb0 4e3e 7d6b 443f b2f8 2e3d
00000060: 48a0 943e d5e7 9dbd cbc5 3dbe 7205 bcbe
00000070: 5a88 a6be bff3 4b3f 5342 383d 653c 8b3f
00000080: 28e3 9dbe 012e 8bbd b730 b4be a53a e83f
00000090: 6b4a 6a3e be13 e83e da2e e1bc 97a2 113e
000000a0: 4b03 3b3e ac6f d83d 382e 833e ff5f 43be
000000b0: dc87 383e 7ca8 8c3e db4d 583d 121a 6abd
000000c0: 1b7b f5bb b370 68bd b412 ee3d 45cd 8b3e
000000d0: c282 ea3e 1db8 12be d8eb 39be 7acd 793d
000000e0: b9e3 6e3e d22a f4bc 8bec c83f 64d7 90bf
000000f0: 79d8 813e 2c61 ad3d 3964 27bf 80a7 f23d
00000100: e04a 5cbe 8788 1bbe 8530 1b3d 47a9 653e
00000110: dd51 bbbf 279f 85bd 3f0c 1c3f 706e 443f
00000120: 99c2 ba3d 0aa0 c1bc 46d8 bcbd e4fb 86bc
00000130: bfc2 a8bf 5f73 f6bc 4658 493d 3d0f 98be
00000140: eaff 743e ab8f 193f a77a b3bd 23dd 163f
00000150: 84e8 363e 5faf 25be c9fb 41bf 05b5 183e
00000160: b175 be3d 1e70 053f 8800 8fbc a342 04bf
00000170: dc45 4ebf 27b6 953d 9a2e 313f 9580 423e
00000180: 0d31 983e 5188 dabe 93aa 243f bb38 093d
00000190: d373 d53c b428 713d b419 c0bf 9b81 543d
000001a0: c808 6e3e df7c 613d 5904 13bc d2a1 27bf
000001b0: 375b bfbf 8c66 8dbf e78d 033f 7038 32bf
000001c0: d084 57be c474 4e3e a20b 383e daf8 8fbd
000001d0: 47a3 863e 6925 ffbe 519c 59bd df1e c3bd
000001e0: d361 7e3f 02a9 623f 1ed0 983d 0370 26be
000001f0: cd2f 553e a3db 9f3e 2dd3 f53e 4903 bbbd
00000200: e564 1b3d 8319 073e b249 313e f9a1 9d3d
00000210: 6426 933f 8d28 8d3e 446c 253d 46d9 4fbf
00000220: 033b b4bd d754 6f3f 1edd 483e 0503 8fbe
00000230: d7f4 5cbf 437e 07bf fcde 0dbd 165c 81be
00000240: d0ae 783e b92c 3c3d 8e11 1ebd 5aa6 173e
00000250: 2e32 12bf b2c1 b7be ed94 79be bb6d 61be
00000260: 4c15 3abe 6b49 0f3d 199a 0f3e 2255 003f
00000270: 82f3 093f 36f7 07bd 0cbc 153e ef71 12be
00000280: f3a7 93be 42cf c9bd 1582 293e d3c9 8cbf
00000290: deca ac3e f75c 81bf 04af 21be eff5 143f
000002a0: 4753 6f3e da82 3f3c c7ad d7bc ee6b 703e
000002b0: 76bb 2cbd 1133 8b3e 88de ec3c e204 d7bc
000002c0: a76f 673d 1935 233f 8f8e 4c3e 092e a9be
000002d0: e179 03bf 5e1f 593f d0b1 ed3e 2e04 953d
000002e0: 5016 363e c481 3ebe 4bbb 173e 8327 2c3f
000002f0: cb77 0e3d 23fe bdbe 4fa4 683f 8e60 86bd
00000300: f1ae 7f3f 9551 883d a001 3f3e a985 ebbe
00000310: db82 ec3c f9ff 163e 050d 57be 96a8 3ebf
00000320: 7485 b33d 1b75 023d 2b9f 7abc 2eb8 49bd
00000330: 7c65 90be da1d 24be f2a6 8c3e b9b4 b13d
00000340: 9552 0c3e 7d09 fcbe 7bd1 9abd da5c bcbe
00000350: 1281 eb3e 1918 de3e 578e 933f d44a 14be
00000360: 0bd9 953e a3a7 2cbf 5af8 6fbd 0211 b03c
00000370: 4c08 a23f f401 063e 9304 56bf c7fd 7bbd
00000380: 2e7f 01bf 7168 633f 91fc 133e 2deb 813d
00000390: b736 edbe 6208 733d e516 35bd 56a9 903d
000003a0: faac 6d3e 0be0 92be df81 b83c 9fcf b03e
000003b0: d1e3 b33e a1d3 293f c69e 653e 4b9f b33e
000003c0: 0d5d 9d3e ae08 043d 9bf9 41be 9689 26bf
000003d0: 081d d6bc f194 cb3e 9475 9dbe 841f a73d
000003e0: 6d82 2abf f86c 013f e061 80bd 2b27 c0be
000003f0: 39f7 a5bc c00e d7bf f36d 91bc 3867 a93e

_layers.4.bias f4 [32]
0.24466853 0.113353945 -0.023620132 0.1151792 0.10958277 0.05187024 0.037148304 -0.12776458
-0.028197907 0.10942605 0.036507156 -0.050436344 0.20815611 0.23521094 0.24114996 -0.16836722
-0.05071876 0.15730639 0.1727729 0.15433852 -0.049098104 -0.02194419 0.052123964 0.23385316
0.18556425 0.08237846 0.06731591 0.0627946 0.068419516 -0.08074943 -0.010194144 0.059747916
00000000: 638a 7a3e 1d26 e83d 027f c1bc 13e3 eb3d
00000010: ee6c e03d e475 543d d228 183d b8d4 02be
00000020: 4cff e6bc c41a e03d 8788 153d 5796 4ebd
00000030: e026 553e 23db 703e 04f0 763e 7568 2cbe
00000040: 79be 4fbd ed14 213e 61eb 303e eb0a 1e3e
00000050: 181b 49bd 4dc4 b3bc f07f 553d 3477 6f3e
00000060: 8e04 3e3e 0ab6 a83d ecdc 893d 759a 803d
00000070: 881f 8c3d f55f a5bd 5705 27bc 3bba 743d

_layers.6.weight f4 [6, 32]
-0.09505615 0.6874937 0.08707857 -0.10036708 -0.08733036 0.43800628 0.29211855 0.116310515
0.15902844 -2.5313723 -0.058588833 0.03738047 -1.5988466 -0.43933436 -0.83652383 0.015014416
0.14479487 -1.9222906 0.76594746 0.5496426 -0.09531229 0.36524302 0.55875254 -0.19270428
0.5604956 -0.39175257 0.9504884 0.10485931 -0.7370147 0.1297606 0.10327141 -2.2676263
0.61330277 -1.3509432 -0.6164513 0.33408067 0.2720471 1.0113442 -2.3732603 0.72298694
-0.012788584 0.29408535 0.35479313 -1.0048475 2.099447 -0.49731508 0.34040135 -0.058677915
-0.15892896 0.7348569 0.6140155 0.037036452 -0.1824617 -0.53622675 -0.7758298 -0.25700554
0.41574675 1.1962068 0.5290719 -0.8426495 -0.61690104 0.098954156 0.12728028 -1.6676942
-1.1029423 0.353199 -2.3432853 0.5805564 0.27081713 0.18862323 0.09610671 0.30535975
0.08258323 0.0916528 -1.0898151 0.31371686 0.2019978 -0.47832635 0.4865186 -0.36239135
0.022746056 -0.4137437 0.6841639 -0.7313201 0.13315926 -1.4824767 -0.037611358 0.8056121
-0.51207083 0.4222549 0.28980586 1.2412218 -0.8265221 -0.09923262 0.013241473 1.1755561
0.0025580397 -0.22347723 0.09920317 0.58899415 -1.336935 -1.456569 0.30855158 0.2766619
-0.013833107 0.9859275 0.6716336 0.694443 0.72472864 -0.29246005 -1.8015041 0.6830353
-0.089063354 0.03901872 -0.91100425 -0.17907384 -0.117183365 0.23354866 0.9338334 0.42712596
-0.4672211 -1.9106166 -0.9167145 0.43921667 0.6916918 -0.0015499957 0.041417252 1.0531069
0.7814068 0.70041364 -0.03267849 -3.17186 0.19778788 0.061454795 -0.049606055 -3.0282295
0.08930008 0.61075735 -0.30898502 -2.133801 -0.360855 0.9600415 0.47258118 -1.2403572
0.11254237 0.25784424 -2.6504278 0.45037994 -0.03987858 0.16976611 -0.25098875 1.1646718
0.34725434 -1.6323353 -0.166666 0.38077226 0.7020621 0.037329387 -0.07271916 0.29786706
-0.7777767 0.094660014 1.1498752 -0.32160076 0.4314337 -0.50335133 0.86894405 0.11364061
0.01659451 0.07460163 -0.41775113 0.69152 -2.0042105 0.4699234 0.4076048 -0.19803791
0.069961295 0.50584215 -0.35534364 -0.6604534 0.122157924 0.5224433 -0.58405674 -1.4857872
-0.7223756 0.4676772 -0.26719472 -2.1589048 0.65769047 -0.0729378 0.124440596 0.55901587
00000000: ccac c2bd 96ff 2f3f 4056 b23d 418d cdbd
00000010: 43da b2bd 5c42 e03e 9090 953e 3534 ee3d
00000020: 5ad8 223e 0102 22c0 d8fa 6fbd 441c 193d
00000030: 01a7 ccbf 6ff0 e0be 6d26 56bf 06ff 753c
00000040: 1b45 143e 9e0d f6bf 2215 443f 61b5 0c3f
00000050: 1733 c3bd 2201 bb3e 680a 0f3f 4554 45be
00000060: a47c 0f3f cb93 c8be 3553 733f 7ac0 d63d
00000070: ffac 3cbf f6df 043e f67f d33d ca20 11c0
00000080: 6901 1d3f b5eb acbf c1cf 1dbf 9f0c ab3e
00000090: c249 8b3e ba73 813f 7fe3 17c0 ac15 393f
000000a0: 3687 51bc 5b92 963e 72a7 b53e d89e 80bf
000000b0: 575d 0640 15a0 febe 1649 ae3e 4158 70bd
000000c0: 46be 22be 951f 3c3f 1f30 1d3f 89b3 173d
000000d0: 3dd7 3abe 2846 09bf c89c 46bf 3b96 83be
000000e0: c2dc d43e 4e1d 993f 4271 073f e1b7 57bf
000000f0: 3aed 1dbf 7aa8 ca3d c355 023e 0177 d5bf
00000100: 372d 8dbf 80d6 b43e 63f8 15c0 589f 143f
00000110: 8ba8 8a3e 7326 413e 98d3 c43d 1d58 9c3e
00000120: 6621 a93d 77b4 bb3d 107f 8bbf 7f9f a03e
00000130: 83d8 4e3e 31e7 f4be f718 f93e 5c8b b9be
00000140: f055 ba3c 37d6 d3be 5e25 2f3f cb37 3bbf
00000150: e75a 083e ccc1 bdbf 5e0e 1abd 983c 4e3f
00000160: 1317 03bf cb31 d83e 6f61 943e 5be0 9e3f
00000170: f496 53bf 793a cbbd c3f2 583c 9f78 963f
00000180: c9a4 273b 37d7 64be 082b cb3d 52c8 163f
00000190: b020 abbf da70 babf 79fa 9d3e a1a6 8d3e
000001a0: 42a4 62bc bf65 7c3f 2ef0 2b3f 04c7 313f
000001b0: d187 393f 53bd 95be b097 e6bf 67db 2e3f
000001c0: d966 b6bd 18d2 1f3d 9337 69bf 225f 37be
000001d0: d5fd efbd 6127 6f3e b50f 6f3f 41b0 da3e
000001e0: 9b37 efbe 168f f4bf cdad 6abf 02e1 e03e
000001f0: b712 313f 3a29 cbba 23a5 293d 35cc 863f
00000200: 470a 483f 4f4e 333f e1d9 05bd c1ff 4ac0
00000210: e888 4a3e 06b8 7b3d b82f 4bbd 83ce 41c0
00000220: f6e2 b63d 985a 1c3f 4933 9ebe 3290 08c0
00000230: fdc1 b8be 48c5 753f 29f6 f13e 06c4 9ebf
00000240: 9d7c e63d 2904 843e 9ca0 29c0 3398 e63e
00000250: b957 23bd 2bd7 2d3e 9981 80be f713 953f
00000260: 52cb b13e 5df0 d0bf 7eaa 2abe 95f4 c23e
00000270: 57ba 333f b3e6 183d c8ed 94bd 0882 983e
00000280: 601c 47bf 1cdd c13d 1c2f 933f dba8 a4be
00000290: e1e4 dc3e a2db 00bf 1e73 5e3f 68bc e83d
000002a0: 36f1 873c bdc8 983d 7ae3 d5be 7407 313f
000002b0: fc44 00c0 cd99 f03e 94b1 d03e 73ca 4abe
000002c0: de47 8f3d df7e 013f 9aef b5be 7913 29bf
000002d0: ef2d fa3d d8be 053f be84 15bf 462e bebf
000002e0: 9bed 38bf 6373 ef3e bfcd 88be 7f2b 0ac0
000002f0: 675e 283f 6a60 95bd b6da fe3d aa1b 0f3f

_layers.6.bias f4 [6]
-0.07959123 -0.12649728 -0.13115054 -0.21012664 0.49916798 0.07550135
00000000: ba00 a3bd 8188 01be 544c 06be 702b 57be
00000010: f292 ff3e 74a0 9a3d
